agent_critic.pth (torch_old, 60754 bytes, 7 tensors)

fcs1.weight f4 [128, 33]
00000000: 5cf2 93bd 612a 253d 5cfe fdbd d242 bbbd
00000010: 0e91 013e 620b caba bad6 153d bae3 0a3e
00000020: 652e 48bc 1151 8ebd 906e 18be 02cf 913c
00000030: 6520 6e3d 2daa 1abd e6e4 253e 332e d73d
00000040: bea9 9e3d 65ea b33d a9a0 f4bd 9280 d53d
00000050: c553 1abe a6ad e33d e2fc b43d 7dad 07be
00000060: 0b4a 9abd 31c2 e0bd 8f37 9fbd 0b90 3e3b
00000070: ddf4 433d 9e4a 05be 02c9 acbd 2642 07be
00000080: 3b9b 8d3e 4b99 2dbe 4540 43bd b32d cebd
00000090: 81db 0dbe 33b9 3f3b ab76 783c 741a 0bbd
000000a0: 7822 14be a04e 78bd ec49 0fbe d18b 4cbc
000000b0: fe72 8abd 764d d23d e6be d8bd 52af 273e
000000c0: 8501 e43d 480b 94bd 74f6 02bd 1a3c c23b
000000d0: 2984 eabd 6d63 6fbb 4709 423d ff8a d6bd
000000e0: 8e81 c23c f838 2a3d 2c9c c4bd d4ba 07be
000000f0: 2020 2abc c29f d33d 8835 eebc 1e55 23be
00000100: 6032 963c 1bf0 113f 79aa c7bd 2ce3 32be
00000110: 66e6 6bbc d71b b63d c8ab 633d f264 82bd
00000120: 7877 52bc 27b6 f0bd 5040 73bc 3fd4 1d3e
00000130: 9501 1fbe 5acb 54bd a9a5 e7bc a386 c53d
00000140: 67a8 133d 3b01 94bc cedf 963c db0e 9f3d
00000150: 5dd8 993d bf7d 00bd a035 06be a3c6 49bd
00000160: 9abf 0bbd d0c6 953d c257 dc3d 176e 1cbd
00000170: 8e51 febc 1a54 fdbd 25f6 fb3c 10f1 a53d
00000180: 707c b23d 78da 46bd 5ac7 92bd da37 0abe
00000190: a261 153d e7ef 19bd a1bc 293e ecfd b83d
000001a0: af93 f5bd 7912 893d ba90 b73d b217 f7bd
000001b0: ced7 babd c028 b73d ce64 78bc 9e1a 79bd
000001c0: fab4 2dbd 392b c03d 32ec 243e 51dd bb3d
000001d0: 7465 81bd f2a0 99bd 4d0e 50bd f58b 953d
000001e0: cc3e b0bd 783c 4ebd cebb ab3d 901b 1ebe
000001f0: b188 013e 01ad f9bd 7faa 123e 1f7e 8ebd
00000200: 24b2 0f3d 9db0 0bbe a02e 933b 91e1 acbd
00000210: e258 1f3e 4af4 8abd 2ecd 15bd c42c 1e3e
00000220: aa23 e4bd 247b 26bd b646 bdbd 9cc3 253e
00000230: 6f30 b53c d65b 113e 8011 ba3d 6b6a 0b3e
00000240: e50a cb3d 6fd8 a13d 3163 163d 2b5c ab3d
00000250: 9650 593d 56da 0f3e 14e0 68bd 190c 12bd
00000260: 366b b63d 822a e43d c0a1 153e 8fda 213d
00000270: 5d05 a3bb db81 eabd c6d6 e0bd b0a2 073d
00000280: 1466 d43d 904f bf3d 6918 fcbd 08ac cabd
00000290: fbba b1be b123 2bbe 2584 4dbd 0ba1 0dbe
000002a0: 797e 08be a49e 7a3d 005f 52bd b17f e63d
000002b0: e9a3 f13c 70bd aa3c f0cf 3b3d 14fb f43d
000002c0: 4893 613d fde0 713c f7b5 cf3d b857 cc3d
000002d0: 916e 413c e653 973d 0310 8bbd 3677 9b3c
000002e0: 657c ac3c 8901 d53c aaaa ae3d 2ad8 8d3c
000002f0: 2c99 8a3c bb68 c5bc e3c7 fd3d c7db f9bd
00000300: 1710 2cbc 74cf b33d b853 153e cc2f 2e3e
00000310: 341c a3bd 0aee ddbe 9405 fdbd 2f6a e7bd
00000320: 2347 80bd e9a6 d63d ebc7 1dbe d097 cbbd
00000330: 5d03 993d fdc3 6cbd 7900 e5bc 61cd 41bd
00000340: baba 793d 9cb0 51bd fdf7 0c3e 717c 14be
00000350: 9141 043e bd2e cb3b 8be2 f6bd 302f 953d
00000360: 3eb2 75bd 2dc6 b3bd 373c f2bd 0e58 cbbd
00000370: 0132 0b3e 9b68 5abd 551e f83d 965b c53d
00000380: d881 b8bc f989 113d 4c62 ad3d 34d7 be3d
00000390: 1ccd 3d3d fa86 01be 577a 143d a142 a83d
000003a0: 49ae 7e3d d275 2dbd eaa5 61bd e979 833e
000003b0: 08ad 5a3e c631 473b 76c6 023e ed34 293e
000003c0: 3e8b c9bd 205b 25be 3370 1a3e dc0a 2bbd
000003d0: be5e 063d 973c be3d 4666 c8bd 81b8 403e
000003e0: ebf2 b33c a1c6 dd3b d1d3 bebc 32e5 8e3d
000003f0: e9e1 f8bc 1c37 9dbd bdfe 0d3d be7f ecbd
-0.07223961 0.04032362 -0.12402031 -0.09143604 0.1265299 -0.0015414769 0.036581732 0.13563433
-0.012218093 -0.06949056 -0.14885926 0.017798904 0.058136363 -0.03775995 0.16200599 0.10506859
0.077472195 0.087849416 -0.11944706 0.104249135 -0.15071018 0.11117105 0.08837296 -0.13249774
-0.07533654 -0.10974539 -0.07774269 0.0029077556 0.04784094 -0.13016745 -0.08436777 -0.13208827
0.27657494 -0.16953008 -0.047668714 -0.1006731 -0.13853265 0.0029254674 0.015165011 -0.033960775
-0.14466274 -0.060621858 -0.13993043 -0.012484507 -0.06760214 0.10268681 -0.10583286 0.16375473
0.11133102 -0.07228714 -0.031973317 0.005927575 -0.11450989 -0.0036527768 0.04737213 -0.1047573
0.023743417 0.041558236 -0.096001 -0.13254863 -0.010383636 0.10333206 -0.02907826 -0.15950438
0.018334568 0.57006997 -0.09749312 -0.17469472 -0.014398193 0.08892029 0.055583745 -0.0636691
-0.012845866 -0.11753493 -0.014846876 0.15412997 -0.15527947 -0.051951744 -0.028277235 0.096448205
0.036049273 -0.018066993 0.018417265 0.07766505 0.07511971 -0.03136992 -0.13106394 -0.0492617
-0.034118272 0.07313311 0.10758926 -0.038190927 -0.031044748 -0.12369557 0.03075702 0.0810262
0.08715141 -0.04854819 -0.071669295 -0.13497868 0.036470063 -0.037582304 0.16575862 0.09032807
-0.11991059 0.066929765 0.08963151 -0.120650664 -0.09123193 0.08943319 -0.015160752 -0.0608164
-0.04240892 0.09383244 0.16105726 0.09173072 -0.06318179 -0.07501401 -0.05079489 0.07302085
-0.086057276 -0.050350636 0.0838543 -0.15440202 0.126498 -0.12191201 0.14322852 -0.069576494
0.035081998 -0.13641591 0.004491642 -0.08441461 0.1556125 -0.06784876 -0.036572628 0.15446764
-0.11139615 -0.04064478 -0.09242003 0.161879 0.022117821 0.14195189 0.09085369 0.13614814
0.09914187 0.079026096 0.03671569 0.08367189 0.05305537 0.14048132 -0.056854323 -0.03565607
0.089071676 0.1114092 0.14612484 0.039515074 -0.0049750046 -0.11450549 -0.10978465 0.033114135
0.10371032 0.09341347 -0.12309343 -0.098960936 -0.34712967 -0.16712834 -0.05017485 -0.13830964
-0.13329495 0.061186448 -0.05136013 0.11254824 0.029497104 0.020842284 0.0458526 0.11961952
0.0550721 0.014763114 0.10142129 0.099776685 0.011806146 0.07389049 -0.06790163 0.018977743
0.02105541 0.026001709 0.08528645 0.01731499 0.016918741 -0.024097791 0.12391641 -0.12200122
-0.010501883 0.08779803 0.14582717 0.1701042 -0.07964364 -0.43345672 -0.123545796 -0.1129955
-0.06263568 0.10481054 -0.15408294 -0.09941065 0.074713446 -0.057804096 -0.027954327 -0.047315005
0.060969092 -0.05119382 0.13766475 -0.14500596 0.12915637 0.00620064 -0.120549284 0.07284391
-0.059984438 -0.087780334 -0.11827891 -0.099289045 0.13593294 -0.053322416 0.121151604 0.09636609
-0.022522852 0.03553197 0.08466014 0.093183905 0.046338186 -0.12649146 0.036249485 0.082158335
0.06217793 -0.04234869 -0.05508987 0.25678948 0.21355069 0.0030394658 0.1277102 0.16524096
-0.098410115 -0.16148043 0.15081863 -0.041758403 0.032805197 0.092889 -0.09785132 0.18820383
0.021966418 0.006768063 -0.023294361 0.06977309 -0.03038116 -0.07676527 0.034666765 -0.115478024

fcs1.bias f4 [128]
00000000: 3717 ce3d 781a 203d 4107 9cbc 06c4 8a3d
00000010: 7e01 193e 00c5 0f3e bb0f aabd 90ee 0bbe
00000020: 1651 823d 088a 55bd 3c60 e4bd eb77 0fbd
00000030: 2d6b 34be 8df1 82bd 6c6c dbbd a3e8 a23d
00000040: a456 b33d 91a9 f8bc 0f54 c6bd 6055 f73d
00000050: 39c6 233e 3da7 8b3d ee92 863d 8a59 913d
00000060: b930 373c 8da7 393d 4471 bf3d 6e69 b3bd
00000070: 6fee 1dbe 45db 2dbe f556 d93d 0ac7 c1bd
00000080: 5134 ebbc ab6d db3d 99f9 87bd 9f34 07be
00000090: 6b11 28be a62f 86bc 8139 78bd b76f 0ebd
000000a0: 7913 11be d2b7 113d b0c9 143e 700c 86bc
000000b0: 0248 653b 771c 963d 7841 143e 9564 013e
000000c0: 627c 83bd d62b f3bc 5683 4bbd 9c5c f33d
000000d0: 7347 9cbc ac86 4a3d 31fa 363e 0aaa 283e
000000e0: da88 f8bd e911 6b3d fbfd 113e 678c 893d
000000f0: 69fd 1e3e 89a9 353d a908 9a3c 2cc3 21bd
00000100: 3d62 1bbe 2a5b 41bd 5bfa 003e 0713 7ebd
00000110: 2d34 e43c 7d1b 083e 1722 1b3d 29d2 a8bd
00000120: 42d7 ae3d d8e9 3fbd be8d d23d a9e3 49bd
00000130: d6a5 1ebe 06f0 863d 582b 2c3e 1be0 4cbd
00000140: e9a1 6cbd ae6e a1bd bc7a b53d c81b 023e
00000150: d755 0e3c 09e6 a03d 77b7 753c 22ac 79bc
00000160: 0c99 12be 8473 6d3d 7014 c23b aea9 40bd
00000170: 2e9d 3a3d 7f24 453e 79f0 dabc 464d adbd
00000180: 3a5a 05be 5837 24bd 42ca cbbc 84cd 2cbe
00000190: aefd 1b3e 98f8 993d f494 203e 047a 09bd
000001a0: 50d8 efbd d99e 013e 5094 2abe e22f 73bc
000001b0: d022 163e b37b 03bd 0ddb c4bc 8def 103e
000001c0: beb6 b83d ae97 e2bd aea0 8fbd fc45 83bb
000001d0: 69c9 9abd 9748 2abd baf8 35bd d84d f7bd
000001e0: e567 13be 7fcb 93bd cfa4 dbbd 5252 08bd
000001f0: b652 aebd 7e54 6e3d 6799 70bc ccb1 9fbd
0.10063022 0.039087743 -0.019046428 0.0677567 0.14941975 0.14039993 -0.083037816 -0.13665223
0.06363122 -0.05213359 -0.11151168 -0.035026472 -0.1761901 -0.063937284 -0.10714039 0.07954528
0.0875676 -0.030354293 -0.09684002 0.12076831 0.15993585 0.068190075 0.06570993 0.07097156
0.01118105 0.045325805 0.093477756 -0.087603435 -0.15422986 -0.16978176 0.10612289 -0.09461792
-0.02871147 0.10714277 -0.06639404 -0.13203667 -0.16412894 -0.016380142 -0.060601715 -0.03477451
-0.14167584 0.035575695 0.14530063 -0.016363353 0.0034985547 0.07329648 0.144781 0.12636025
-0.064202085 -0.029683989 -0.0496858 0.11882898 -0.019077038 0.04944484 0.17868878 0.16471115
-0.12135477 0.057390127 0.14257042 0.06716233 0.15526356 0.044351134 0.018802958 -0.03949277
-0.15174194 -0.04720608 0.12595503 -0.062029865 0.02785691 0.13291736 0.037874307 -0.0824321
0.08537151 -0.04685387 0.102809414 -0.04928938 -0.15492949 0.065887496 0.1681341 -0.05001841
-0.057771597 -0.078824386 0.088613 0.1270591 0.008687458 0.07856376 0.014997355 -0.015238794
-0.14316195 0.057971492 0.0059228465 -0.04703682 0.045560054 0.19252203 -0.026725994 -0.08462004
-0.130227 -0.040091842 -0.024876717 -0.16875273 0.1523349 0.075181186 0.15681821 -0.03356363
-0.1171118 0.12658252 -0.16658139 -0.014842959 0.14661717 -0.03210039 -0.024030233 0.14153881
0.0901923 -0.11064087 -0.07013069 -0.0040061455 -0.07557947 -0.041573133 -0.044426657 -0.120753944
-0.14395101 -0.07216548 -0.10724794 -0.03328163 -0.085118696 0.058186047 -0.0146850115 -0.07797584

fca1.weight f4 [32, 4]
00000000: 1d7d 25bc cb45 0bbe 382d 4fbe 24f1 ca3e
00000010: acac a1be 65aa aebe 6bd1 f5bd 44ed a9bd
00000020: 6112 8dbe 94b1 c93e 7059 693e c35d 873d
00000030: 8800 a0be 7f3c 8ebe 84ec 01be a0dc e23e
00000040: 3580 163e d9ee 42bd 569c ee3e 3945 283e
00000050: da85 fc3e 28d2 d03e 12d9 4fbe b3f3 bbbe
00000060: 333c ad3e fd57 ab3e a0f8 ff3e f0ef 913e
00000070: ff0f e8bc f97a 4bbe d111 213e 33ab 0e3e
00000080: 7972 863c 8d81 0cbd fde8 e03e 15b5 213d
00000090: 926f 33bd 4586 dabe f981 143e f152 d0be
000000a0: 1839 143d 83af 53be 7b5a 7ebe 3424 383e
000000b0: a2fd ea3e be4c d5be 68cf c8be 30fe 9a3e
000000c0: 5765 0ebe df6c ec3d a62c c5be 9399 70be
000000d0: c5c3 04be 8cad 89be 4f26 d2be 2171 a53e
000000e0: ee35 103e 2655 233e e5c7 fe3d e300 823e
000000f0: 7f4b 79be 7e80 2b3d b7be a13e 5f75 853e
00000100: 3e07 0fbe 91f5 ec3d 1232 883e 5746 e9be
00000110: 4f62 acbc 6367 e53d febd e4be 6dc6 3abe
00000120: 66c4 ae3e 0fa4 1e3e 5313 163d 69dd dcbe
00000130: 3b74 fe3e 1b7b a3be 8831 b1bd faf7 39be
00000140: 6434 a23e 4e53 99be f9a6 f83e eab1 ca3d
00000150: bd75 e8be 5f55 493e 4caf 6c3d 3f3f e9bd
00000160: 6605 38be fba4 c0be 60a7 753e 631d 11be
00000170: 461e 853e 01c5 103e d5ce a5be c3db 8b3d
00000180: 0f82 8abe 437c 763e d035 6abe bb82 4dbe
00000190: 0ebe a5be cb63 b6bd bb56 a33e f6c2 b0bc
000001a0: 5bfd c93e 199b e6be 7a89 cfbe f630 603e
000001b0: 5cf5 823d 712c 183e 924d aabe 3927 72be
000001c0: 9190 76be 31c4 f33e 67f9 6abe c037 e6be
000001d0: 0cfc 9a3e b381 8abe c28d 223d b700 e8be
000001e0: d135 3abe 4675 01be fcc3 5ebe 6b73 6c3e
000001f0: 1819 88bd 4eb4 bbbe 129f a9bc 3bba 443c
-0.01010063 -0.13600843 -0.20232093 0.396371 -0.3157705 -0.34114376 -0.12002834 -0.08297208
-0.27553084 0.39393294 0.22788024 0.066096805 -0.31250405 -0.2778053 -0.1268788 0.4430895
0.14697345 -0.047591064 0.4660365 0.16432656 0.4932087 0.40785336 -0.2029765 -0.36709365
0.3383499 0.33465567 0.49994373 0.2850337 -0.02832794 -0.19871129 0.15729453 0.13932495
0.016412007 -0.034303237 0.43927756 0.039479334 -0.043807574 -0.42680565 0.14502706 -0.4068828
0.03618726 -0.20672421 -0.24839203 0.1798256 0.4589663 -0.41660112 -0.39220738 0.30272055
-0.13905846 0.11544203 -0.38510627 -0.23496084 -0.12965305 -0.26890218 -0.41044852 0.32312873
0.14083073 0.1595045 0.124404706 0.25391302 -0.24345206 0.041870587 0.31590816 0.2606611
-0.13967606 0.115702756 0.266007 -0.45561478 -0.021042971 0.1120136 -0.44676203 -0.18239756
0.34134215 0.15492271 0.036639523 -0.43137673 0.49698052 -0.3192986 -0.086520255 -0.18161002
0.31680596 -0.2994637 0.4856489 0.09897216 -0.45402327 0.19661473 0.057784364 -0.11389016
-0.1797081 -0.3762587 0.2398963 -0.14171366 0.2599966 0.14137651 -0.32384363 0.068290256
-0.27052352 0.2407084 -0.2287209 -0.20069401 -0.32371563 -0.08905753 0.31902108 -0.02157734
0.39451107 -0.45040205 -0.40534574 0.21893677 0.06394455 0.14860703 -0.33262306 -0.23647775
-0.24078585 0.4761062 -0.22946702 -0.4496441 0.30270422 -0.27052078 0.039685972 -0.45313045
-0.18184592 -0.12642393 -0.2175445 0.23090903 -0.06645411 -0.36661 -0.020705733 0.012007291

fca1.bias f4 [32]
00000000: 5a26 9e3d a4dc f63e e015 b7be 642b 893e
00000010: 2520 013f 71fa c0be 4f15 883e 72f4 dcbe
00000020: aceb cf3c acc3 ea3e 92ae d83d f5c9 70be
00000030: 0f47 b0be d054 313d 5739 e43e aeb8 ad3d
00000040: c3cc 2abe c71f acbe 1e9d 453e d469 e1be
00000050: dc49 b3be 6790 aebd 1075 653d a783 9e3e
00000060: 1840 28bc 2ffe 903e fa9f 89bd db9a 063f
00000070: 4c2c 913e f68f 8d3e d5ab 64be 2ac4 07be
0.07722159 0.4821521 -0.35758877 0.26790917 0.50439674 -0.37691072 0.26578757 -0.43155247
0.025380932 0.4585241 0.10580172 -0.2351454 -0.34429213 0.043293774 0.44574997 0.084824905
-0.16679673 -0.33617994 0.19298217 -0.44026053 -0.35017288 -0.08523636 0.056019843 0.30959818
-0.010269187 0.28318927 -0.06719966 0.5258004 0.28354108 0.27648896 -0.22331174 -0.13258424

fc2.weight f4 [64, 160]
00000000: d32a c73c e427 9bbb 749c 9f3d 6829 90bc
00000010: 658a bc3c efc7 d43b 9cf6 2fbd bdc8 9bbb
00000020: 3014 893d aa46 493d cc8f d63c 2dff 57bc
00000030: 532c 6f3d 7fed d8bb 4af9 3a3c 91df f8bb
00000040: b6b3 64bd d26e b33b 4c32 713d 8bbc 2dbd
00000050: f21d 83bc 1409 913d 2b19 b2bd 9576 85bc
00000060: 015a 9a3d 5f05 c8bc 801c c3bc ebe4 08bc
00000070: d3a9 37bd 6134 573d 5a6b 663d fe21 873d
00000080: d965 5c3d fab8 49bd 533c 9bbd afb7 3e3c
00000090: 6054 29bd 3169 bb3d 32cc 5ebd d463 5cbd
000000a0: 94a1 c8bd 5f11 0b3d 7251 2c3d 7283 483d
000000b0: ae0f 77bd a8ae 973d c8bb 29bd 46dd a53d
000000c0: 0fea abbc 7ef3 453d dfe6 263d bfe4 f53c
000000d0: c5c5 7a3d 157c 2e3d 3f88 9dbd b59c 83bc
000000e0: e413 083d 6903 113d deed 13bd c42b 323d
000000f0: d116 c7bc d855 503d bc13 58bd 881e 4cba
00000100: 3e83 733c b328 7b3c b961 8bbd c0c9 af3a
00000110: 4e1b 783d 1770 8f3c e660 f63c 5579 29bc
00000120: c2b7 87b8 1c77 12bd b210 20bd a919 7fbd
00000130: 8157 80bd dd28 adba 75b4 513d c195 1dbd
00000140: 7f28 f63c 0307 cfbc 6f16 3fbd b45e a33c
00000150: 2d22 9c3c 212b 323d c90d ccbc d0f4 4bbd
00000160: dcd1 15bc e7c7 1bbc a5b8 393d 78d0 8cbd
00000170: f01b 1c3d bcdf 89bc 1b97 7cbd 0a9b 1fbc
00000180: 7cd0 f2bb 9313 12bd 72c9 673d 89ec 1fbc
00000190: 9a85 1b3d b04f 243c 1a63 8f3d f9ec 26bd
000001a0: 8902 89bd 9d81 593d c30a 773d f9ae 6a3d
000001b0: f9fc 9e3d 40d4 ca3c b179 823d a49d 9f3d
000001c0: 9a9e abbd 9b9d 3c3d 9157 9b3a 054e fabc
000001d0: 6a6a 9ebb f68e a03d 6b27 97bc 9603 853d
000001e0: ba4f 24bd c06d 10bb 8fcc 073c 5033 1ebd
000001f0: 22ab 843d b70a 9f3d 5ca6 7e3d b1e0 483d
00000200: e71f 99bc 5020 a9bd 1885 913b 78de 6c3b
00000210: c817 bfbd 2be2 bfbb 09f9 003d cb47 36bd
00000220: 0850 453d 7349 353d 2d4b 85bd 9029 f83c
00000230: 84f2 a8bc b9bf 83bb c406 013d b52d 8ebd
00000240: 4e5b 853c c05a debc 46fd 573d 9534 9bbd
00000250: 3a0b 763d 0afa 79bd 2973 943a c814 b7bc
00000260: d164 323d 93a1 be3b c5af 94bd 8166 55bd
00000270: 090c 90bd 007b 103d 85e9 a73b b454 893d
00000280: 7056 093d 0946 813c b326 1dbd 427b 563d
00000290: 5573 593d a985 8b3c 7f21 49bd abad 253d
000002a0: 18b3 cabd 91d5 eebb 27d1 1ebc f97b c8bc
000002b0: 1635 88bd 95a7 913c 5d0a 42bd eabf a03d
000002c0: 35fb 48bd 47fc 4fbd 33f7 1b3d c3d6 dfbc
000002d0: d4ba d5bc 059a 19bc 323f 433d 0741 a6bd
000002e0: 30df a13d 086b c6bc 8bb4 8b3d 5d90 073b
000002f0: 5e1f 853d f3af c4bd 6bec 2fbd e490 963c
00000300: ba79 ffbc 6d6d 43bd 8f9c 24bd 33d7 8d3b
00000310: 4ea5 14bb f4d3 67bd 0096 87bb bf58 96bd
00000320: 5eeb 0a3c 8c94 2bbb 65d9 833d 7cd8 093d
00000330: 2707 6bbd fc9f ce3c 420f 12bb 00d3 5ebb
00000340: 8a46 5c3c 8916 0fbb a1ee babc b032 183c
00000350: abc9 a33c b6a8 9f3c 0198 8b3d 76bc 70bd
00000360: d843 993d 87e3 8c3d 3db5 863d d654 363d
00000370: 55d1 703d 9e85 b9bd aaeb 113d 44d0 4a3b
00000380: 4291 443d 0ded ffbc a7c8 d43c 5a3c 35bb
00000390: 7b76 ee3c bc16 533d acf7 4e3d 51e0 693c
000003a0: 6a86 9f3c ab2c 293d fd00 2fbd 9e9a 20bd
000003b0: acdc 0d3d 05fc 7c3c 1736 abbc 1273 e6bc
000003c0: 5961 3abd 6179 4b3d babb 71bc 1339 3d3d
000003d0: 2072 963c 78e5 913d d2a4 21bd 4515 f7bc
000003e0: c224 e73c 5d3d d23c 945f 16bd b751 69bd
000003f0: a8d7 7fbd 0158 773d d037 91bd 4426 04bc
0.024312412 -0.00473498 0.07793513 -0.017597869 0.02301521 0.0064935605 -0.042959794 -0.0047541545
0.066933036 0.049139656 0.026191615 -0.013183397 0.05839188 -0.0066201086 0.011411974 -0.0075950106
-0.05583545 0.0054758573 0.058885857 -0.042416137 -0.01600549 0.0708181 -0.08696207 -0.016291896
0.07536698 -0.024416624 -0.0238173 -0.00835536 -0.04483969 0.052540187 0.056254722 0.0659828
0.053808067 -0.049248673 -0.07579865 0.011640473 -0.041340232 0.09150923 -0.054393955 -0.05380614
-0.097964436 0.033952113 0.04206986 0.04895348 -0.060317688 0.0740636 -0.041438848 0.08098845
-0.020985631 0.048327915 0.04074752 0.030016301 0.061223764 0.042598803 -0.076920025 -0.016065935
0.033222094 0.035403643 -0.03611552 0.04349877 -0.024302872 0.050863117 -0.052753195 -0.0007786532
0.014862834 0.015329528 -0.068057485 0.0013411567 0.060572915 0.017509503 0.030075502 -0.010343869
-6.471529e-05 -0.035758123 -0.039078422 -0.06228033 -0.0626669 -0.0013211031 0.051197488 -0.038472895
0.030048607 -0.025271898 -0.046652254 0.019942619 0.019059265 0.043498162 -0.024908917 -0.04979402
-0.009144273 -0.00950811 0.045342106 -0.068757 0.03811258 -0.016830318 -0.061667543 -0.009741554
-0.007410107 -0.0356632 0.056588598 -0.009760984 0.03796921 0.010028765 0.07001324 -0.04075334
-0.06689937 0.053102124 0.060312998 0.057295773 0.077630945 0.024759412 0.06370867 0.077937394
-0.0837986 0.04604874 0.0011851658 -0.03055478 -0.004834463 0.07839768 -0.018451413 0.064948246
-0.040115096 -0.0022038072 0.008288517 -0.038623154 0.064779535 0.077657156 0.06217037 0.049042407
-0.01869197 -0.08258116 0.004440915 0.0036143344 -0.09330708 -0.0058558187 0.0314875 -0.04450206
0.048172027 0.0442595 -0.06508479 0.030293256 -0.020623453 -0.004020658 0.031500593 -0.06942312
0.016278889 -0.027142882 0.052731775 -0.075783886 0.0600693 -0.06102947 0.0011325824 -0.022348776
0.043553177 0.005817601 -0.07260088 -0.05209971 -0.070335455 0.035273552 0.0051242732 0.06705609
0.0335297 0.015780466 -0.038366985 0.05236364 0.053088505 0.017031508 -0.04910421 0.040448826
-0.09897441 -0.0072886427 -0.0096934205 -0.024473177 -0.0665075 0.017780105 -0.047373164 0.07849105
-0.049067695 -0.0507777 0.038077544 -0.027324086 -0.026090063 -0.0093751 0.04766769 -0.08117872
0.07903898 -0.024220958 0.06821545 0.0020685412 0.065001234 -0.09603872 -0.042950075 0.018379636
-0.031185973 -0.04771178 -0.04018837 0.0043286323 -0.0022681537 -0.05659862 -0.0041377544 -0.07341146
0.0084789675 -0.002618107 0.06437949 0.03365372 -0.057379868 0.02522277 -0.0022286926 -0.0034000278
0.013444552 -0.00218335 -0.022818865 0.009289429 0.019993624 0.019489627 0.06816102 -0.05877348
0.07483643 0.06879335 0.06577537 0.0445145 0.058793385 -0.090586886 0.035625137 0.003094689
0.04799009 -0.031240964 0.025974585 -0.002765438 0.02910923 0.051535353 0.050529167 0.014274673
0.019473273 0.041302364 -0.042725552 -0.039209954 0.034634277 0.0154409455 -0.020899815 -0.028131042
-0.045502994 0.049676303 -0.01475423 0.04619701 0.018364966 0.07123846 -0.039463826 -0.03016151
0.02821577 0.025664026 -0.036712244 -0.056962695 -0.062461525 0.06038666 -0.070907235 -0.008065764

fc2.bias f4 [64]
00000000: 1bf0 90ba 4892 59bd d73e 9f3d de60 333d
00000010: 4428 9b3d 41a5 8fbc 298d b43d 0cee b03b
00000020: c9bf 40bd efdf 083d 2a00 de3d 3829 0fbd
00000030: 6ed6 6d3d fa48 67bd b435 15bd 3b0c 96bd
00000040: 639e a43d bcf2 503c 2434 d1bd 68f7 5a3c
00000050: c4aa 0cbc e629 c1bc 047f a43c 9011 913d
00000060: 39ea 94bd 6885 adbd 0a06 babd 5a1f 213d
00000070: 34ca 3b3c cfd1 c3bd 7701 b9bc d1bf e33d
00000080: 8d31 2a3c 5898 f03d 9e6b 393d e981 ccbc
00000090: 250a cdbd 2575 833d 5991 823b 523e 0dbc
000000a0: f43c 613d 3f92 a3b9 4c54 efbc 61ef 67bc
000000b0: f910 a039 562a f23d 1456 60bc 6413 fbbd
000000c0: 86b4 1abc efa2 83bd 28f9 9bbb 4130 8dbd
000000d0: 26a8 6e3c a5ae 7d3d 3bd4 423d b98e c43d
000000e0: 91e1 d43d 9755 c93c f262 013d 481b 013c
000000f0: 8a30 19bd 5360 e23d babb 7a3c 8dbf 8c3d
-0.0011057885 -0.05311802 0.077756576 0.04379355 0.075760394 -0.017534854 0.08815987 0.005399471
-0.0470579 0.033416685 0.10839875 -0.03495142 0.058065824 -0.05646608 -0.03642817 -0.073265515
0.08038022 0.012753185 -0.10215023 0.01336465 -0.008585636 -0.023579549 0.020080097 0.07083428
-0.07271237 -0.08472711 -0.09083183 0.03933654 0.011461783 -0.09561502 -0.022583706 0.111205705
0.01038779 0.11747807 0.045268647 -0.02496429 -0.100117005 0.06418828 0.003984612 -0.008620815
0.05498977 -0.00031198745 -0.029215 -0.0141561935 0.00030530224 0.11824481 -0.013692398 -0.12259558
-0.009442454 -0.064275615 -0.0047599263 -0.06893969 0.014566457 0.061934132 0.04756568 0.09597535
0.10394586 0.024576945 0.031588502 0.0078800395 -0.037399806 0.11053529 0.015303547 0.06872473

fc3.weight f4 [1, 64]
00000000: d9ff a9bc f1dc 7fbc 9f15 193d dc8d 393e
00000010: eb31 933d a4ed 00bd f61a 983d 81b3 7f3c
00000020: 0ec4 12be ada6 523d 7449 9d3d 01b0 ac3d
00000030: 029c f13c 8edc 29bd f250 06bd 9269 1abe
00000040: 1812 123d 487a c6bc 0d3c 39bd 9190 6dbd
00000050: fea5 803d f376 b63d 00d5 0c3d 017c 073d
00000060: fb25 d5bc a516 8ebd 3958 8dbd 7cf1 3abd
00000070: 30ac 303d 230d 6ebc 688b 1b3d b56a a33d
00000080: cdca f8bc d796 f93c 56b5 88bd 83a9 18be
00000090: 0ae3 1cbd c3a6 573d 284a 2dbd edbe 663d
000000a0: f342 1a3e cd97 003d af81 5c3d d273 6dbd
000000b0: 8070 bb3c 2e0a f73c 2fa0 0fbd 610e 4bbc
000000c0: 84ec e7bc fa30 9abb f3ad 493d 92f3 50bd
000000d0: 07f8 df3d 00a9 ab3d 318e 8f3c 17f1 973d
000000e0: c3d1 6b3c f799 813d b702 26bd 0ec0 eabc
000000f0: 8374 37be 08dd 033d f41f d83c 000f 9a3c
-0.02075188 -0.015616641 0.037374135 0.18120521 0.071872555 -0.03147663 0.074270174 0.015606762
-0.14332601 0.051428486 0.07680026 0.084320076 0.029493336 -0.041470103 -0.03279204 -0.15079334
0.035661787 -0.02422823 -0.045223285 -0.057999197 0.062816605 0.089094065 0.03438282 0.033077244
-0.026019087 -0.06937913 -0.06901593 -0.045640454 0.04313296 -0.014529499 0.037974745 0.07979337
-0.03037014 0.030467434 -0.06675212 -0.14908414 -0.03830246 0.05264927 -0.04230705 0.056334425
0.15064602 0.03139477 0.053834613 -0.057971783 0.022880793 0.030156221 -0.035064872 -0.012393565
-0.028311022 -0.0047055455 0.049238157 -0.051013537 0.10935979 0.083818436 0.017523857 0.07419031
0.014393273 0.063281946 -0.040529933 -0.028656032 -0.1791554 0.032193214 0.026382424 0.01880598
