agent_critic.pth (torch_old, 60754 bytes, 7 tensors)

fcs1.weight f4 [128, 33]
00000000: d1ef a1bd 74fb 263d 016e f2bd 9069 703b
00000010: 4abf bb3d c2ba 7e3d e006 4f3d c8db 1e3e
00000020: 41c2 1abd c5c1 c63b 965d a4bd 3718 0d3e
00000030: 8ebe 86bc 5fa4 a03b e902 303e b936 233e
00000040: ea68 b53d ed0e 753b 1f52 acbd 6913 263d
00000050: d3de b4bd b67b 91bd 8203 0f3e ff5e 88bd
00000060: a446 20bd 5685 11bd 5a37 a3bd aa84 c73c
00000070: aa74 2b3d 9e4a 05be efb5 d8bd 2642 07be
00000080: ee32 9f3e 6f2c 01bd e0df 27be 0fad 4dbe
00000090: 81fd a5bd fe12 193d 6b5a a9bb d1dd 4e3d
000000a0: f11a e1bc 59ed e93d 7c77 85bd bb48 d0bb
000000b0: 11fc 4bbd 1fde 1b3d 153c d7bc 7a3d 173e
000000c0: 6db6 2b3e 925c 403c d233 5d3b aa28 1b3d
000000d0: 374d 0a3c 0f05 573d 0787 053d fb29 92bd
000000e0: 45b3 38bd b948 ba3b 8eca 82bb feb8 f1bd
000000f0: 770c 06bd 3361 5a3d 8835 eebc 7d73 0cbe
00000100: 6032 963c 0c33 893f 7bc2 0abe 59ae 87be
00000110: 0cb7 f8bd 81d1 db3c e0d3 313a b85a 52bb
00000120: 35c0 0fbb 22e8 e1bd 4381 c8bc 36b2 603e
00000130: bd37 eabd 2a2b aebd 9f30 a2bd c09e 013e
00000140: 48eb dd3d 6c99 ffbc 7e3c 963c 6ae2 ca3c
00000150: 769b bc3b e99b 1dbc c9f6 18bc 1365 9abd
00000160: 06b4 d13c 2c1c a23d a7ec 673d 5dcf 5dbd
00000170: 2e30 3dbd 26e7 c0bd d5f9 943d 10f1 a53d
00000180: e220 6c3d 78da 46bd f55c fbbd 4865 15be
00000190: 8f26 573d 812a dabd 34de 503d 4204 f83c
000001a0: f769 af3d c0cb 893d adfa 1d3d 13b0 8cbe
000001b0: 7513 89bd c843 d43c 9efb ac3d cf6c a0bd
000001c0: 150c 523d ccc1 4e3d 27d7 543e e187 b63d
000001d0: 6814 78bc 1d68 45bd 8446 733d 66d1 85bc
000001e0: f5db 54bd 215e 6a3d e3f2 f23c b386 6c3b
000001f0: e8cb 363e a98c cebd 9bd1 053e 79b5 10be
00000200: 24b2 0f3d 8dae fdbd a02e 933b fed2 473e
00000210: 20e2 d03d d407 4bbe 11e7 8ebd b63a 103e
00000220: c42f 24be a6ce c13d 6fa5 71bc e11c 123d
00000230: ffc6 87bd 07f6 553d 8f1f b43c 9912 9ebd
00000240: ee2b 453d 3dcb 523d 18e0 023c 06aa 173c
00000250: e49f 7a3d 1636 e03d 1e3e 0dbd d364 f53c
00000260: fbd8 003d 4284 a73c 657e b13c 1038 0f3d
00000270: d545 acbb 6600 1fbd 3837 e8bd 032e aebc
00000280: 839f f73d 904f bf3d 25bb 8cbd 08ac cabd
00000290: 06d1 85bf 86fb 75bd 6d39 c5bd aa10 adbc
000002a0: 9d0c 7dbc 54c5 e43c 3a6a 38bd 1efb 803d
000002b0: 9a71 8d3c 871b 40bd 7b63 4c3c ef72 83bc
000002c0: 9dee 163b abeb 503c 246f 4f3d 9b56 da3c
000002d0: 1b40 c13c 81c7 e9bc 88c9 a5bc 405e a2bb
000002e0: 5dae c73b 1524 3abc 8c93 bebc bfe3 9fbc
000002f0: 7536 4cbc eec6 afbb 6d9e 803c e48f c7bd
00000300: c774 11be 5a76 83bb b853 153e 1172 9a3e
00000310: 341c a3bd 6610 b3bf 6ea5 463d 104c 56be
00000320: 54b6 0cbe 2342 be3d 27d4 7f3d 85dd 7abd
00000330: f9d1 bd3d 7064 2fbd 63d1 5cbd 4b5f 90bd
00000340: a61f 60bc 50ae e0bc 0756 babb 0787 bbbd
00000350: 7f19 1a3e b928 82bd e68e 663c 2dd0 163d
00000360: c9a4 8c3d 103e 093d 33e2 05bd d41c 683d
00000370: b364 003e 009d 13bd 8c22 2e3d ed24 833d
00000380: ff5c 1d3d fd1b c03d ab05 043e 34d7 be3d
00000390: 2f82 43bc fa86 01be 0e9b 8dbe 15f1 3f3e
000003a0: 64aa 883e cec7 853d 7695 39bd a0f4 0b3e
000003b0: a7f5 413e 3399 26be efc8 d8bc b590 e23d
000003c0: c1f4 02be 3d20 42bd 1889 ab3d 6e93 493d
000003d0: c394 0a3e fa7e e03d 1438 e0bd e1cb c33d
000003e0: b2e6 313d 073d 903c af5d 7c3d d6ea 4f3c
000003f0: ee3e 2c3d 43ce 33bd 92e9 cc3b 487d 5c3d
-0.079070695 0.040767148 -0.11837388 0.0036684014 0.09167345 0.062189825 0.050543666 0.15513527
-0.03778291 0.0060655796 -0.080256626 0.13778768 -0.016448285 0.004902407 0.1718861 0.15938844
0.088579014 0.003739293 -0.08414101 0.040545855 -0.08831563 -0.07103674 0.13966182 -0.06658744
-0.03912987 -0.03552755 -0.07969542 0.024355251 0.041859306 -0.13016745 -0.10581576 -0.13208827
0.31093544 -0.031536516 -0.16393995 -0.20085548 -0.08104993 0.037371628 -0.0051682494 0.05050451
-0.027478667 0.114222236 -0.065169305 -0.0063563264 -0.049800936 0.038053628 -0.026273767 0.14769545
0.16768809 0.0117408205 0.003375281 0.037880577 0.008441261 0.05249506 0.032599475 -0.071369134
-0.04509284 0.0056849387 -0.0039914316 -0.118028626 -0.03272673 0.053315353 -0.02907826 -0.1371593
0.018334568 1.0718703 -0.13550751 -0.26500204 -0.121442884 0.026833298 0.0006783586 -0.003209753
-0.0021934633 -0.11030604 -0.0244757 0.21942982 -0.114364125 -0.08504327 -0.0791943 0.12658215
0.10835892 -0.031201087 0.018339392 0.024766166 0.005755837 -0.009619691 -0.009336182 -0.075388096
0.025598537 0.079155296 0.056622174 -0.054152835 -0.046188526 -0.09419088 0.07274214 0.0810262
0.057648547 -0.04854819 -0.122735895 -0.14589417 0.052527007 -0.10652638 0.05099316 0.030275468
0.08565133 0.06728315 0.03856914 -0.27478084 -0.06693164 0.025911227 0.0844643 -0.078332536
0.051281054 0.050477788 0.20785199 0.089126356 -0.015141584 -0.048194993 0.05939342 -0.0163352
-0.05196758 0.057218675 0.029656833 0.003609103 0.17851222 -0.100854225 0.1306824 -0.14131726
0.035081998 -0.123868085 0.004491642 0.19514081 0.1019938 -0.19827205 -0.06977666 0.14084896
-0.16033846 0.09463243 -0.014748915 0.035672072 -0.06629752 0.052236583 0.021987705 -0.07718391
0.048137598 0.051463354 0.007987998 0.009256845 0.06118764 0.10947816 -0.034483068 0.029955303
0.03145693 0.020448808 0.021666715 0.034965575 -0.005257348 -0.03881874 -0.11338657 -0.021262174
0.12090971 0.09341347 -0.068716325 -0.098960936 -1.0454414 -0.060054325 -0.09630094 -0.02112611
-0.015444902 0.027926125 -0.04502318 0.06297897 0.017266084 -0.046901252 0.01247489 -0.016046016
0.0023030408 0.0127515 0.0506431 0.026652625 0.023590138 -0.028537514 -0.0202377 -0.004955083
0.006093784 -0.011361142 -0.023263715 -0.019517777 -0.012464155 -0.0053642904 0.015700543 -0.09744242
-0.14204703 -0.0040119113 0.14582717 0.3016515 -0.07964364 -1.398938 0.04849761 -0.20927453
-0.13741428 0.09289958 0.062458184 -0.061246414 0.09268565 -0.042820394 -0.053910624 -0.07049426
-0.013679421 -0.027426869 -0.005686525 -0.09156614 0.15048788 -0.063554235 0.014072156 0.036819626
0.06867368 0.033506453 -0.032686424 0.056668118 0.12538414 -0.0360384 0.042513415 0.064035274
0.038418766 0.09380338 0.12892787 0.093183905 -0.011932894 -0.12649146 -0.2765736 0.18744309
0.26692498 0.0653225 -0.045308553 0.13667536 0.18941365 -0.16269378 -0.026463 0.11062757
-0.12788679 -0.047394026 0.08375758 0.049212866 0.1353331 0.10961719 -0.10948196 0.09560371
0.0434329 0.017607225 0.06161278 0.012690267 0.042052202 -0.04389788 0.0062534297 0.053830415

fcs1.bias f4 [128]
00000000: 4a2a a23d 35a1 7b3d aedb 46bd 3676 a43d
00000010: fcaf 503e cf3c 8b3e dcb2 10be acfb 2cbe
00000020: 7ef5 b33d d856 8e3c 3b6e f9bd e023 03be
00000030: b66c 21be 5024 b73b e492 92be c54a ec3d
00000040: 5667 cc3d fb5f 9cbd 6ff8 07be a3f7 633e
00000050: 5bd8 1f3e fbba 1a3e cf8a b63d 2b9f c33d
00000060: d0eb 8abd 3e8d 4d3d 26ff 54bc 2c93 c0bd
00000070: 5ec1 62be 3cca 17be 5957 f23d 87be b9bd
00000080: 4b1e 113d 34a7 863d 325f b1bd 045e 2bbe
00000090: 97ee 27be 5f76 e7bc 6d2d 5bbd 4282 09bd
000000a0: 6b28 d4bd 6dfe 9ebd d1f0 b53d d1f6 773c
000000b0: 958b ee3d 97f3 23bc a586 5d3e dfaf 043e
000000c0: 5c1c 8ebd b4e4 89bd 0e57 fe3c c2fd 973d
000000d0: 0c72 0a3d b4f7 933d 4466 a03d 3bb4 523e
000000e0: 4e45 1abe c522 123d 7e20 403e 6037 a93d
000000f0: 1f29 fe3d 1c73 dd3d c763 253d 1b8b a83c
00000100: 9813 0bbe df72 903c dd4a 9b3d 3be3 20bd
00000110: 886e a83d 11e2 6d3e efce 053e cb4b b5bd
00000120: bf71 fa3d 5444 e2bc ae51 b73d f4db 72bd
00000130: f5fc 0fbe 4340 353c b690 6b3e 79b7 f5bc
00000140: fbea d33d c988 93bd bfc9 443d 6b2a 343e
00000150: b2f4 cd3d bd31 093e 18f6 00bd a7ba cebc
00000160: 84e6 10be 0979 863d da47 21be 429e bebd
00000170: ebf6 aa3c a230 c43d 90e5 deb9 7497 f4bd
00000180: dadf 2fbe 82f3 0abd d1c0 c4bd 3599 09be
00000190: 9570 043e f96c 1b3e 07ed e33d e126 30be
000001a0: 70c5 a1bd 8fbc 3f3e 9f56 25be 9b25 1e3c
000001b0: 7c00 5bbc 5929 c53b 5eee a1bc 5bf3 173e
000001c0: f4fa fb3d 6220 9fbc 11ff 92bd 0ef5 c93d
000001d0: 60be 8e3c 7567 61bd 4ee3 99bd a33d debc
000001e0: 2258 2bbe 41c1 3abe 2709 50be 3305 bbbd
000001f0: c51d 293b 65a3 bc3d f60b 8bbd 90cc 40be
0.07918222 0.061433036 -0.048549347 0.080303594 0.20379633 0.2719483 -0.1413073 -0.1689288
0.08787058 0.017375395 -0.12179228 -0.12806654 -0.15764126 0.0055890456 -0.28627694 0.11537699
0.09980647 -0.07635494 -0.13278364 0.22262435 0.15609877 0.1511039 0.089131944 0.09551843
-0.06783259 0.050183527 -0.013000285 -0.09403071 -0.22144076 -0.1482324 0.118330665 -0.09069543
0.03542928 0.0657486 -0.08660735 -0.16735083 -0.16399609 -0.028254686 -0.05351012 -0.03357149
-0.103592716 -0.077633716 0.08883823 0.015134529 0.11647717 -0.010006807 0.21633394 0.12957714
-0.06939003 -0.06733075 0.03104737 0.07421447 0.03380017 0.0722498 0.078320056 0.20576565
-0.150655 0.03567769 0.18762395 0.08262515 0.12410187 0.10812971 0.04037836 0.020574143
-0.13581693 0.0176329 0.075826384 -0.039279204 0.08224207 0.23230769 0.1306722 -0.08852347
0.122287266 -0.027620472 0.08951126 -0.059291795 -0.14061339 0.0110626845 0.23004422 -0.029994713
0.10347553 -0.07203824 0.048043963 0.17594306 0.100564376 0.1339788 -0.031484693 -0.025235487
-0.14150435 0.065660544 -0.15750065 -0.09307529 0.020869693 0.095795885 -0.00042514177 -0.1194295
-0.17175236 -0.033923633 -0.09607089 -0.1343735 0.12933572 0.15178289 0.11129194 -0.17202331
-0.07898986 0.18724273 -0.16146325 0.0096525205 -0.013366815 0.006016892 -0.019766983 0.14838926
0.12303725 -0.019424621 -0.07177556 0.098611936 0.017424762 -0.055030305 -0.07514058 -0.027129
-0.16732839 -0.18237783 -0.20315991 -0.09131851 0.0025805098 0.092108525 -0.06789391 -0.18828034

fca1.weight f4 [32, 4]
00000000: 30cc b93a 0852 30bd 62c6 48bd decb 003f
00000010: 7851 0dbe 4d8a 56be 2190 03be 52ee 6bbd
00000020: 0213 b5bd 9c0e f23e b88a 193e 89a1 cf3e
00000030: 3e4d c6be e17a 87be 8c9a 473d 1099 a03e
00000040: 46d8 253e 388b cbbd d4e8 c93e a928 303e
00000050: 6715 f23e 8530 aa3e 6bc2 0dbe b88d a7be
00000060: d390 8b3e 41f3 663e 1225 f73e 327f e63d
00000070: 7063 32bd 3d44 2abe 019d 523e 3b04 5f3e
00000080: fc14 8dbd ef9d 293e 9c85 b93e 1360 a53c
00000090: 7a51 02bd c907 97be ca9c 0c3d 2a98 9fbe
000000a0: 3fa8 3dbd 2fef 0dbd 4289 84be cb7f 833e
000000b0: 7283 233e c56e f1be 43fb 80be 8a29 c23e
000000c0: fe7f ffbd 88c0 9c3d bc04 a7be 7c1b 19be
000000d0: d968 24bd d742 0bbe efb3 c0be 5cc3 863e
000000e0: 57d4 643d 30db f03d 4b3d 653d 1b41 523e
000000f0: d32b f3bd c43e fabc 2795 8c3e 99e1 983e
00000100: 03bc 2fbd 5579 5d3e d3ba 323e 0986 d7be
00000110: 4ff2 92bd 63ed 79bd e320 c2be 3e77 21be
00000120: 643a 6c3e b1ba ed3d bf38 043c 9a05 a1be
00000130: cc98 dc3e 09a8 84be 9fad 1fbe 913b acbe
00000140: 0f16 a33e d808 30be 6719 da3e b7d0 483e
00000150: 470f c4be b5da 673e 887f 66bc 005e 45bd
00000160: 77ea 79be a462 37be 1ecf 3d3e 71fe 5fbd
00000170: 21f7 3d3e 401d c83d 941d 52be c951 4a3d
00000180: 044d 3fbe 8ac0 373e 0d60 67be 4c17 1bbe
00000190: 78aa 5cbe 69d6 c5bc f03b 753e 6dbf a03c
000001a0: 35a7 c13e 5f7a e8be 1c87 15be 3741 5c3e
000001b0: 07f9 473d 7502 063e 1fa6 a0be 2d63 53be
000001c0: c662 1abe 6e00 a53e da84 3ebe 9b85 bebe
000001d0: 8a29 4a3e 18ea 08be 387e 923d b729 8ebe
000001e0: c39f 0cbe b26f 9ebc 2747 42be 326a 993e
000001f0: 7d2d 18be db71 70be d0f7 f0bd be55 ee3d
0.0014175232 -0.04304698 -0.049017318 0.50311077 -0.13800609 -0.20951195 -0.1284795 -0.057600327
-0.08841516 0.4727677 0.14994323 0.4055293 -0.38730806 -0.26460937 0.04873137 0.31366777
0.16195783 -0.09938663 0.39435446 0.1720301 0.47281954 0.33240142 -0.13843696 -0.3272531
0.2725893 0.22553732 0.4827047 0.11254729 -0.043551862 -0.16627593 0.20567705 0.21778958
-0.06888768 0.16564153 0.36234748 0.020187413 -0.031815983 -0.29498127 0.034329213 -0.3117078
-0.04630303 -0.03465193 -0.2588597 0.25683436 0.15968111 -0.47154823 -0.25191697 0.37922317
-0.124755844 0.0765391 -0.326208 -0.1495189 -0.040139053 -0.13599716 -0.37637278 0.26320922
0.055866566 0.11760557 0.055966657 0.20532648 -0.11873593 -0.030547507 0.27457544 0.29859617
-0.04290391 0.21628316 0.1745408 -0.42094448 -0.07175123 -0.061017405 -0.37915716 -0.15768144
0.2306915 0.11607874 0.00807017 -0.31449586 0.43085325 -0.2590945 -0.15593575 -0.33639196
0.31852767 -0.17190874 0.42597505 0.19610868 -0.38292906 0.22642024 -0.014068492 -0.04818535
-0.24405847 -0.17908722 0.1853604 -0.054686014 0.18551303 0.09771204 -0.20519096 0.049394403
-0.18681723 0.17944542 -0.22595234 -0.15145606 -0.21549404 -0.02415009 0.23948646 0.019622529
0.3782288 -0.45405862 -0.14602321 0.21509252 0.048821475 0.13086875 -0.3137674 -0.20643301
-0.15076742 0.3222689 -0.18605366 -0.37211308 0.19742408 -0.1337055 0.071529806 -0.277662
-0.1373282 -0.01934037 -0.18972455 0.29963833 -0.14861102 -0.23480932 -0.117660165 0.11637448

fca1.bias f4 [32]
00000000: 708d 613d d870 203f 2514 3bbe e34c a03e
00000010: c981 133f 1315 c8be 200f c43e 3ad1 e0be
00000020: 6624 57bd c6d5 0d3f fe81 413e 6393 82be
00000030: 036d f2be e676 613a c21e 0e3f 674c 4a3e
00000040: e0e8 2dbe 4373 cfbe dc40 763e 83f4 b5be
00000050: a0e6 babe 228c 453c a1eb 4d3d 2f92 c73e
00000060: 7aab 653d 7b4e af3e 1c3d 65be 13a6 1b3f
00000070: f0f8 e63e 1ef5 023e fee2 78be 9b51 35be
0.055066526 0.62672186 -0.18269403 0.3130866 0.5761991 -0.39078578 0.3829279 -0.43909627
-0.052524947 0.5540432 0.18897244 -0.25503072 -0.47348794 0.0008600786 0.5551568 0.19755708
-0.16983366 -0.40517625 0.2404818 -0.3553811 -0.36504078 0.012057336 0.05027354 0.38978717
0.056071736 0.34239563 -0.22386593 0.60800284 0.451118 0.12788817 -0.2430534 -0.17706911

fc2.weight f4 [64, 160]
00000000: 978b 3f3e 1229 0fbc 63ac 5f3d e979 743c
00000010: e378 b13d aa73 273d ee1c 39be 84a4 983d
00000020: d60c 223e 036b c0bb d3c9 9d3d a6e6 e3bc
00000030: 756a b23d d205 0abd af3b 113c a747 783c
00000040: 6165 7abc fc44 b23c a16f c23d 6e60 233c
00000050: 868c 5e3b 4c3f a93d ec79 44bd d5ba 8cbd
00000060: 0e72 c33d 1169 863d 4e56 d6bd 372e c4bd
00000070: b291 293d cd2f 993d f39b ab3c 9e81 843d
00000080: 8292 213c 474f 3dbe 57bc a9bd ce18 a1bb
00000090: 937b abbe eea6 85bd 3d60 fdbd 5616 933b
000000a0: 9f13 82be c4e0 b53c aa19 4a3c 7661 ccbc
000000b0: 40cd edbd e73d 763d 5273 acbd 72d3 8b3d
000000c0: b1d2 a03c 3960 99bc f492 be3c 3892 3d3d
000000d0: 0e9b 833c bb03 23bd c27c 2fbe 1237 d8bc
000000e0: 62b8 783d e265 aa3b 4f89 07bd 25bb ca3d
000000f0: 63fa 14bd ce33 ac3d b81f 97bc 1e37 f83b
00000100: 53a4 303c 89b1 d3bd 4949 9ebd d917 1ebc
00000110: db1c abbc 851c 123d eeeb a83c 53f0 86bc
00000120: 2879 3b3d 252e 90bd 8dc3 49bb 148f 6cbd
00000130: 4bdc 22bd 6bf9 e63c 669f 7d3d 2f08 95bd
00000140: dca1 5e3c a284 cd3c d643 f4bd cf82 a33b
00000150: 05a8 173c 90eb db3d 95b3 febd 28ae 20bd
00000160: 1684 0a3d 79ab 9b3d dcf5 15bc 80f4 ef39
00000170: 650a 913b dd64 cebc a55c dbbe aa9a b33d
00000180: 9c85 80bd 676a 5cbd a6b1 de3c b958 efbb
00000190: 5422 013d e0b7 b13d 3f84 b53d dd84 22bd
000001a0: 0836 cdbc 654c ad3c 0eff 7b3d a244 9b3d
000001b0: 1a46 a63d 05f3 8c3d aeb5 4b3d 7492 823d
000001c0: 664f b3bc 118a e43d d1b9 773c a6ef 42bc
000001d0: ad97 be3c ef98 933c 36e7 073c c727 9a3d
000001e0: ed78 0e3d 38a4 14be 8c62 833d 7378 1e3c
000001f0: 2e2b 923d 945f 5f3d c009 7f3d 02cd 4dbc
00000200: 4791 223e 5027 35be 142a b33d 6509 afbc
00000210: ff92 e9bd 0968 853d 6fd7 073d 1a7a ae3d
00000220: be5e 253c 173a a1bd 2272 b0bc 7dec 6b3d
00000230: eb03 9cbd 6be3 33bd 88cf a73d 19e1 833d
00000240: dc00 2bbe a5a4 c7bd 71d0 b53b 935d 2bbd
00000250: d3f8 f9bc 5692 48bd 96fb 95bd 9cc5 803d
00000260: b8c7 ed3c 449c 6cbd 7514 8839 aba8 b2bd
00000270: 9ef0 dcbd 3734 46bd e982 2ebd e67f a7bd
00000280: 37c2 87bd 6ef7 b93c 5729 04bd cb92 c83c
00000290: a4b7 85bd c643 9cbd d181 07bc 0aa6 0bbc
000002a0: 0502 26bd 7490 c43d 1954 423d 19da 873b
000002b0: fd31 d5bc 3986 14bd 26e3 02be 3a81 863d
000002c0: 0fe1 263c ed33 363d b348 9e3b 17e4 81bc
000002d0: e7a5 12be a0f2 223d 6ab6 c93d d89b 07be
000002e0: 4d06 a23d dfce d6bb 9901 e23b 87e2 803c
000002f0: b707 99bd 9a1e 73be 13b1 ba3b 3e45 253b
00000300: f38f f2bd 36b6 8cbe 0776 613d 1cdc 60bd
00000310: 0295 683d c3f1 0fbc 7914 f23d 79d2 f9bd
00000320: ea86 833d b755 62bd 148e a43d 2c2c 833d
00000330: 1ec7 8ebd 4366 8dbd 060d f2bc 15ca a13c
00000340: 7d11 c43c 1565 f5bb 7b77 b03b 9206 6abc
00000350: fe17 173d dbbf e6bc e1a7 493b cadc 00be
00000360: b2dd 653d 6dbf ae3d d7b6 283d 28ca 7e3d
00000370: 5648 de3d 7e46 98bd 314f b53d db0b a33c
00000380: 271c 203c 5a40 3c3c caca 813d dfb2 3f3d
00000390: 24d1 9b3d 198b 703c fe62 2f3d 785f 64bc
000003a0: 30bd 843c b842 263a 8416 6a3c 1c78 3dbd
000003b0: fd20 513c 5762 a9bd 640c 4eba 007c 7ebd
000003c0: 1eeb 6dbc 631d b93d 97c0 d43b b2fb 29bc
000003d0: 5fe4 9d3d 1b91 a93b 75f7 da3c 9ac1 c6bd
000003e0: 6a4a 313d 0c72 3b3d e03e 3bbc 2792 2ebe
000003f0: b7f4 ec3c a463 673d b696 e5bd fe00 143e
0.18705593 -0.008737819 0.05460776 0.014921644 0.086656354 0.04088179 -0.18077442 0.07453254
0.15825209 -0.005872132 0.077045105 -0.027819943 0.08711711 -0.033696957 0.008864327 0.015153802
-0.01528296 0.02176141 0.09493948 0.009971721 0.003395827 0.08264026 -0.047967836 -0.06871573
0.095432386 0.065630086 -0.1046568 -0.09579127 0.04139871 0.074798204 0.020948386 0.06470035
0.00986159 -0.18487273 -0.08287876 -0.004916287 -0.33492717 -0.0652598 -0.123718716 0.0044887466
-0.25405595 0.022201903 0.01233522 -0.024948817 -0.11611414 0.06011763 -0.08420433 0.06827439
0.019631715 -0.01872264 0.023263432 0.046282023 0.016065147 -0.03979848 -0.17137435 -0.026393447
0.060722716 0.0052001337 -0.033089932 0.09898976 -0.0363716 0.084083185 -0.018447742 0.00757493
0.010781365 -0.103365965 -0.07728822 -0.00964924 -0.020887783 0.03567173 0.020620313 -0.016472017
0.04576984 -0.07040051 -0.0030786723 -0.057753637 -0.03976087 0.028195104 0.061919592 -0.072769515
0.013588395 0.025087658 -0.11927001 0.004989959 0.009256368 0.10738289 -0.12436596 -0.03922859
0.033817373 0.07601065 -0.009152856 0.000457678 0.004426288 -0.02519458 -0.4284412 0.08769734
-0.06275484 -0.05381241 0.027184319 -0.0073042777 0.03152688 0.086776495 0.088631146 -0.03967749
-0.025050178 0.021154592 0.061522536 0.0758145 0.081188396 0.0688229 0.04973381 0.0637559
-0.021888446 0.111591466 0.015119986 -0.011897957 0.023265684 0.01801726 0.008294871 0.07527118
0.034783293 -0.1451577 0.06415281 0.009672272 0.07137142 0.05453451 0.062265158 -0.012561085
0.15875731 -0.17690778 0.0874826 -0.021366784 -0.114049904 0.06513984 0.033164438 0.08519383
0.010093389 -0.07872408 -0.021538798 0.05759858 -0.07617935 -0.043918055 0.0819388 0.06439418
-0.16699547 -0.097482 0.00554853 -0.041837286 -0.030514156 -0.04896768 -0.07323377 0.06287691
0.029025897 -0.057766214 0.00025955183 -0.08723577 -0.107880816 -0.04838964 -0.042605314 -0.081786916
-0.066288404 0.022700991 -0.032265987 0.024484059 -0.06529167 -0.07630114 -0.008270697 -0.0085234735
-0.04052927 0.09597865 0.047443483 0.0041458723 -0.026024813 -0.036260817 -0.12781963 0.06567617
0.010185494 0.044483114 0.0048304438 -0.015855832 -0.14321099 0.039782166 0.09849246 -0.13243043
0.07911358 -0.0065554227 0.006897163 0.015733017 -0.074721746 -0.23742142 0.0056973784 0.0025218274
-0.118438624 -0.27482766 0.0550442 -0.054897413 0.05678273 -0.008785668 0.11820311 -0.121983476
0.06422217 -0.055257525 0.08034912 0.064049095 -0.06971572 -0.069042705 -0.029547226 0.01974968
0.02393412 -0.0074888566 0.005385337 -0.014283793 0.036888115 -0.028167656 0.003077023 -0.12584224
0.05611963 0.08532605 0.041189995 0.06220451 0.10853641 -0.0743532 0.08852995 0.019903114
0.009772337 0.011489952 0.06337507 0.046801444 0.0760825 0.014681601 0.042819016 -0.013938777
0.016203493 0.00063423393 0.014287595 -0.046257123 0.012764213 -0.0827071 -0.0007860123 -0.062129974
-0.014521388 0.09038808 0.006492685 -0.01037495 0.07709574 0.0051747686 0.026729325 -0.09704895
0.043283857 0.04576306 -0.011428565 -0.1704794 0.028925283 0.05649151 -0.112103865 0.14453503

fc2.bias f4 [64]
00000000: 81fd 5abd f8b1 02be 6257 2b3e 8159 a63d
00000010: 16c6 2a3e fed4 d0bd bf66 053e 7954 9d3d
00000020: b80c a7bd 252d 3a3d 6d91 193e f212 4f3c
00000030: fa8f 003e 2719 9dbd be1a 41bd 8b59 01be
00000040: 3a42 f73d 2245 5fbd bd9f 05be 4fe4 28bd
00000050: 0ced 783d 1a67 2b3d ce51 2a3d 9d3c 0c3e
00000060: 350e f4bd 9ba5 e4bd 2427 e6bd 7014 16bc
00000070: 3515 d33d 3a63 f6bd 538a 6e3b d083 4b3e
00000080: 546f 2abd 14df 353e 17ce 73bb 240e 88bc
00000090: a6ed 33be 3899 d23d 0e12 5bbb 9d6b b43d
000000a0: e784 c43d 9d5c 8b3d 7d4e 6d3d 1258 12bd
000000b0: 0ab8 bd3d 4530 653e a363 cfbc 163b 3abe
000000c0: ed55 e6bd a6c5 11be 2716 cd3d 395b d3bd
000000d0: 08b5 273d 2e33 4f3e ea74 f93d db19 6b3e
000000e0: f928 503e f29d 023e 8b81 3bbd 7252 8dbd
000000f0: 154d 98bd f879 2f3e bfa2 1c3d de9e de3d
-0.053464416 -0.12763202 0.16732553 0.0812254 0.16677126 -0.10196875 0.13027476 0.076821275
-0.08156723 0.04545321 0.14996882 0.012638794 0.12554923 -0.07670813 -0.047144644 -0.12631814
0.120731786 -0.05450929 -0.13049217 -0.041233357 0.06077294 0.041846372 0.04158192 0.13694997
-0.11916772 -0.11164399 -0.11237934 -0.009160146 0.10306779 -0.12030645 0.0036398366 0.19874501
-0.041610077 0.17760879 -0.0037201697 -0.016608305 -0.17571124 0.102831304 -0.003342751 0.08809588
0.095956616 0.06804774 0.05793618 -0.03572852 0.09263618 0.22381695 -0.025316065 -0.18186602
-0.11246858 -0.14235553 0.10013991 -0.10320134 0.04094413 0.20234367 0.12180503 0.22959082
0.2032813 0.12755564 -0.04577784 -0.06900491 -0.07436577 0.17136371 0.038241144 0.10870145

fc3.weight f4 [1, 64]
00000000: 75c5 17be a6ee 17be 4684 d83d 59c4 973e
00000010: e776 c73d cea0 20be 5d32 603e 863f f93d
00000020: 95bd 9abe 9e10 ea3d 6c8c 273e 8118 cc3e
00000030: 730c 4c3e fc13 dfbe 539d a2be 87a1 d8be
00000040: b08d ab3e 68ce c2bd df35 36be 8a65 51be
00000050: 937d 653e b934 833e 60a6 433e 651b 3f3e
00000060: 7974 12be 82a9 7dbe 6cae 90be cc8b 75be
00000070: 83c0 463e d980 98be 43cb a13e 6c24 e83d
00000080: 5c87 34be 54bc b93e 07b7 9cbd 1258 97be
00000090: 3259 d2bd 36fa a03e 2495 8ebe 43ea af3d
000000a0: 696a 023f aff5 de3d 94e3 303e ebef 91be
000000b0: d885 433e 30f6 913d d108 77be 359e 85be
000000c0: 3e4a e6bd 1a7c 9cbe 3dbb a73d 7417 b9be
000000d0: 0256 9b3e b14d 023e e67c 113e a04e 203e
000000e0: 8ec7 c53d d084 213e 77ce 16be 1e95 ebbd
000000f0: 4e7e a2be 9212 d53d 4a34 203e 842c d03d
-0.14821418 -0.14837131 0.10572104 0.2964199 0.09739476 -0.15686342 0.21894212 0.12170319
-0.30222765 0.11428951 0.1636216 0.39862445 0.19926624 -0.43569934 -0.31760654 -0.42310736
0.33506536 -0.09512025 -0.17793988 -0.2044889 0.22411184 0.25626162 0.19106436 0.18662794
-0.14302243 -0.24771693 -0.28258073 -0.2397911 0.19409375 -0.29785803 0.3160039 0.11335072
-0.1762976 0.36276495 -0.07652097 -0.2955938 -0.10270919 0.31440896 -0.2784816 0.08589604
0.5094362 0.10886704 0.17274314 -0.28503355 0.19094026 0.07127035 -0.24124457 -0.26097265
-0.11244629 -0.30563432 0.0819001 -0.36150706 0.30339056 0.1272495 0.14207801 0.15654993
0.09657203 0.1577332 -0.14727198 -0.11503051 -0.31736988 0.10403933 0.15644947 0.10164741
