agent_critic.pth (torch_old, 60754 bytes, 7 tensors)

fcs1.weight f4 [128, 33]
0	0xbd9eaed9	-0.07748193
1	0x3d243d13	0.040097307
2	0xbe00ddea	-0.12584653
3	0xbe165b7b	-0.14683335
4	0x3e1862a6	0.14881381
5	0x3d6fa33d	0.058505286
6	0x3b92323c	0.004461555
7	0x3db28a7c	0.0871782
8	0xbc909bfc	-0.017652504
9	0xbcfd4c87	-0.03092028
10	0xbd9a2aaf	-0.075276725
11	0x3dd057b3	0.10172977
12	0x3d73a2f1	0.059481565
13	0xbd19f04f	-0.03758269
14	0x3e2daef3	0.16961269
15	0x3df2c69d	0.11854289
16	0x3d696d9f	0.05698931
17	0x3d22b048	0.039718896
18	0xbdf63032	-0.12020911
19	0x3ca627ab	0.020282587
20	0xbdca1563	-0.098673604
21	0x3dd2e7f9	0.102981515
22	0x3e1d3d83	0.15355496
23	0xbd9a723c	-0.0754132
24	0xbd868c48	-0.06569725
25	0xbd9972a3	-0.07492568
26	0xbdd33b1b	-0.10314008
27	0x3ca4b2e7	0.020104839
28	0xbb9b4d02	-0.0047394047
29	0xbe054a9e	-0.13016745
30	0xbdd00126	-0.10156469
31	0xbe074226	-0.13208827
32	0x3eba30f1	0.36365464
33	0xbdcaf77a	-0.09910484
34	0xbdf34540	-0.11878443
35	0xbe43d9e6	-0.1912609
36	0xbe0c1a42	-0.13681892
37	0x3d8937a9	0.067000695
38	0x3c9c5c46	0.019086968
39	0xbd83fba3	-0.0644448
40	0xbdaf3490	-0.085549474
41	0xbd1f661a	-0.03891573
42	0xbd981b0d	-0.074270345
43	0xbc4a51ea	-0.012348631
44	0xbd8d43c6	-0.068976924
45	0x3d6efc1b	0.058345895
46	0xbdb1795b	-0.08665725
47	0x3e0656e6	0.13119087
48	0x3de5afea	0.112151936
49	0xbd959ec2	-0.07305671
50	0xbc71def6	-0.014762631
51	0xbd1b90fb	-0.03798006
52	0xbd773fcc	-0.060363576
53	0x3c836052	0.01603714
54	0x3d57b9e9	0.052667532
55	0xbdcca680	-0.09992695
56	0xbbfcc109	-0.0077134413
57	0x3d7d4ff4	0.061843827
58	0xbd67ab85	-0.05656006
59	0xbdfbfd53	-0.12304177
60	0xbcbaa624	-0.0227843
61	0x3d8001a3	0.06250312
62	0xbcee3588	-0.02907826
63	0xbe16a276	-0.14710411
64	0x3c963260	0.018334568
65	0x3f72a323	0.94780177
66	0xbd934edc	-0.071927756
67	0xbe459d17	-0.19298206
68	0xbd78f145	-0.060776968
69	0x3d7824cf	0.06058198
70	0x3e0870ac	0.13324231
71	0xbde6dc4a	-0.112724856
72	0x3caf95ba	0.0214337
73	0xbda5932c	-0.080847114
74	0x3c121ac4	0.008917514
75	0x3e2214c9	0.15828241
76	0xbe1cf74f	-0.15328716
77	0xbd384990	-0.04499203
78	0xbd2f6d5c	-0.042828903
79	0x3e048a49	0.12943377
80	0x3d916ea2	0.0710118
81	0xbc2d580c	-0.010580074
82	0x3d2e1676	0.04250189
83	0x3d946ac3	0.07246926
84	0x3d12b726	0.035819195
85	0x3c86b20e	0.016442325
86	0xbcf81644	-0.030284055
87	0xbd846f25	-0.06466512
88	0x3bb51140	0.005525738
89	0x3da7ebb8	0.08199257
90	0x3d75e24c	0.060030267
91	0xbd05ec37	-0.032695975
92	0xbd37467e	-0.04474496
93	0xbdf75fda	-0.12078829
94	0x3d5b5ac6	0.053553365
95	0x3da5f110	0.0810262
96	0x3dac88b5	0.08424512
97	0xbd46da78	-0.04854819
98	0xbe26dca7	-0.1629511
99	0xbe3f01bf	-0.1865301
100	0x3cbf8eff	0.023383616
101	0xbe31a4c5	-0.17348011
102	0x3dd334e8	0.103128254
103	0x3d9a6b4a	0.07539995
104	0x3dca9b39	0.098928876
105	0x3cfae015	0.030624429
106	0xbd651250	-0.055925667
107	0xbe5313f7	-0.20613085
108	0xbdf16829	-0.11787445
109	0xba270409	-0.0006371146
110	0x3cbe01a4	0.023194142
111	0xbd6c730c	-0.057726905
112	0x3d172eda	0.036909916
113	0x3d9d165e	0.07670282
114	0x3e34d3b6	0.17658886
115	0x3e303cdc	0.17210716
116	0x3c8a3f18	0.016875789
117	0xbcccecd4	-0.025015272
118	0x3d33ef90	0.043929636
119	0x3c78e987	0.015192396
120	0x3ce5c8e5	0.028049896
121	0xbd9f309b	-0.07772943
122	0x3de6d079	0.11270232
123	0xbdae45c6	-0.08509402
124	0x3e152f5d	0.14568849
125	0xbdef0dde	-0.11672567
126	0x3e16bc6a	0.14720312
127	0xbd9a88a8	-0.07545596
128	0x3d0fb224	0.035081998
129	0xbe0fc29c	-0.14039081
130	0x3b932ea0	0.004491642
131	0x3dd3d38d	0.103430845
132	0x3e10c614	0.14138061
133	0xbddfe08f	-0.10931503
134	0xbdacf2a6	-0.08444719
135	0x3e04fa7d	0.12986179
136	0xbdc3cbf0	-0.09560382
137	0x3bd17c69	0.0063930047
138	0xbda3f04f	-0.080048196
139	0x3da51ff4	0.08062735
140	0xbc9e088c	-0.019291185
141	0x3e0c5da6	0.13707599
142	0x3d815633	0.06315269
143	0x3ce8b498	0.028406426
144	0x3df666cd	0.120313264
145	0x3d9029d5	0.07039229
146	0x3d78b069	0.060715113
147	0x3d4bb93d	0.049737204
148	0x3d0c1287	0.034197357
149	0x3da67bee	0.081291065
150	0xbd7ecd7a	-0.062207676
151	0x3beaf300	0.007170081
152	0x3d92e7e0	0.07173133
153	0x3dc79fed	0.097473
154	0x3d91e72d	0.071241714
155	0x3ce5d0cc	0.028053664
156	0x3c9a3585	0.018824348
157	0xbd2f4cfa	-0.04279802
158	0xbe12b022	-0.14325002
159	0x3cb17216	0.021660846
160	0x3df41f71	0.119200595
161	0x3dbf4f90	0.09341347
162	0xbde4a3a8	-0.111640275
163	0xbdcaac08	-0.098960936
164	0xbf69b554	-0.9129231
165	0xbde98494	-0.114022404
166	0xbdca7b46	-0.09886794
167	0xbd82f133	-0.06393661
168	0xbd95a1cb	-0.0730625
169	0x3dc9ad29	0.09847481
170	0xbe696a9e	-0.22794577
171	0x3dac2954	0.0840632
172	0x3c896b45	0.016774783
173	0xbd60b774	-0.054862455
174	0xbc257dc4	-0.010100786
175	0xbc184783	-0.0092943935
176	0xbc168ebd	-0.009189305
177	0xbbf1bc43	-0.007377179
178	0x3d906a1d	0.070514895
179	0x3d577a40	0.05260682
180	0xbcc41241	-0.023934485
181	0xbc3c216f	-0.011482581
182	0xbaaa3bae	-0.0012987757
183	0x3cac32dd	0.021020347
184	0x3c4e45c5	0.012589877
185	0xbc6c6bbc	-0.014429983
186	0x3cbfa17d	0.023392433
187	0xbb0f24d7	-0.0021842027
188	0xbc6d5dac	-0.014487665
189	0x3c24ef53	0.010066825
190	0x3c933b15	0.017972508
191	0xbdaeb75a	-0.08531065
192	0xbd6b6d63	-0.057477366
193	0x3d0a974a	0.033835687
194	0x3e1553b8	0.14582717
195	0x3e5e49e3	0.21707873
196	0xbda31c34	-0.07964364
197	0xbfa6202a	-1.2978566
198	0xbd0575e9	-0.03258315
199	0xbe11003a	-0.14160243
200	0xbd977851	-0.073959954
201	0x3da26efe	0.07931326
202	0xbe25a623	-0.16176657
203	0xbda73f62	-0.08166386
204	0x3d492702	0.049109466
205	0xbccaafdc	-0.02474206
206	0xbd3bb480	-0.045826435
207	0xbd66ec8c	-0.056377932
208	0x3c50ac8b	0.01273645
209	0xbbc0a39a	-0.005878878
210	0x3d92c606	0.07166676
211	0xbdd234de	-0.1026399
212	0x3e17738c	0.14790171
213	0x3ca9eea9	0.020743685
214	0xbe141368	-0.14460528
215	0x3d2453fd	0.04011916
216	0xbd02ad24	-0.0319034
217	0xbdc61b2f	-0.096731536
218	0xbd9655e3	-0.073406
219	0xbb8851aa	-0.0041601257
220	0x3df0c9a9	0.117572136
221	0xbd053c09	-0.032527957
222	0x3d74b07c	0.05973862
223	0x3db342a1	0.08752943
224	0x3cbd69d9	0.023121761
225	0x3de29c7e	0.11065005
226	0x3dd09d2a	0.10186227
227	0x3dbed734	0.093183905
228	0xbcebc4d4	-0.028780378
229	0xbe0186fa	-0.12649146
230	0xbe551092	-0.20807102
231	0x3d71fd46	0.05907943
232	0x3e2c4e79	0.1682681
233	0x3d43fb42	0.04784704
234	0xbde0539a	-0.10953446
235	0x3e7aa5a1	0.24477245
236	0x3dc172bc	0.09445712
237	0xbd32895d	-0.04358803
238	0x3c928dbb	0.017889848
239	0x3e1268ff	0.14297865
240	0xbd5a6f79	-0.053328965
241	0xbd836675	-0.064160265
242	0x3e002913	0.12515669
243	0x3b7a52b4	0.0038196268
244	0x3d5211b8	0.05128643
245	0x3e14d678	0.14534938
246	0xbded0fd6	-0.11575286
247	0x3e4d1b62	0.20029977
248	0xbd2fa4c0	-0.042881727
249	0xbd94621c	-0.072452754
250	0x3cc9ce6f	0.024634568
251	0x3a688104	0.00088693225
252	0x3d5f26a8	0.054480225
253	0xbd9e88eb	-0.07740959
254	0x3d595cd5	0.053067047
255	0xbd56df75	-0.0524592

fcs1.bias f4 [128]
0	0x3daadf13	0.08343329
1	0x3d52e5f5	0.051488835
2	0xbcb3d704	-0.021953113
3	0x3d82a043	0.06378224
4	0x3e24bc07	0.16087352
5	0x3e3fdf13	0.1873744
6	0xbe21f3e3	-0.15815692
7	0xbe27b951	-0.16379286
8	0x3d6f3223	0.058397423
9	0xbd4fe8fd	-0.050759304
10	0xbe07a80d	-0.132477
11	0xbd336f26	-0.04380717
12	0xbe15a847	-0.14614974
13	0xbd417205	-0.047227878
14	0xbdf62b21	-0.12019945
15	0x3dd2cb54	0.10292688
16	0x3e040ef5	0.1289633
17	0xbd1c234f	-0.03811961
18	0xbd6a4dbe	-0.057203047
19	0x3e0d11d1	0.13776328
20	0x3e32a3da	0.17445317
21	0x3db7b359	0.08969755
22	0x3d4707a4	0.04859127
23	0x3d8a6e25	0.0675929
24	0xbc0328d7	-0.008005342
25	0x3d28df34	0.041228488
26	0x3d9be7e5	0.0761259
27	0xbd84153d	-0.064493634
28	0xbe49b354	-0.19697315
29	0xbe296cae	-0.16545364
30	0x3e0ac945	0.1355334
31	0xbdb16025	-0.08660916
32	0x3c6752d1	0.014118866
33	0x3d7502a3	0.059816968
34	0xbd56e6dd	-0.052466262
35	0xbe104dcb	-0.14092176
36	0xbe5656a6	-0.20931491
37	0xbd13b532	-0.036061473
38	0xbd9c3a6b	-0.0762833
39	0xbc87c68a	-0.016574163
40	0xbdde31ba	-0.10849328
41	0xbc9a6e6f	-0.018851487
42	0x3dfe4c50	0.12416899
43	0x3d0e9612	0.034811087
44	0x3cd400d7	0.025879307
45	0x3d75b179	0.059983704
46	0x3e1fe23f	0.1561365
47	0x3dee3a1a	0.11632176
48	0xbd2b01dd	-0.041749824
49	0xbd774da1	-0.060376767
50	0x3b0b079e	0.0021214257
51	0x3deeef4b	0.11666735
52	0xbc9fc0d8	-0.019501135
53	0x3d1e863b	0.03870223
54	0x3de7ae98	0.11312598
55	0x3e3142a2	0.17310575
56	0xbdaab2c8	-0.08334881
57	0x3d55620f	0.05209547
58	0x3e12dd64	0.14342266
59	0x3d8dcf49	0.06924302
60	0x3e00440a	0.12525955
61	0x3da49b8a	0.08037479
62	0x3cebc67e	0.028781172
63	0xbbfcaf32	-0.0077113146
64	0xbe1be0d7	-0.15222488
65	0xbd00322c	-0.031297848
66	0x3e0f97a4	0.1402269
67	0xbd4f16c5	-0.050558824
68	0x3d5f524a	0.054521836
69	0x3e4e285c	0.20132583
70	0x3dde905a	0.108673766
71	0xbdc83cc6	-0.097772166
72	0x3d90c8ef	0.07069575
73	0xbd2e5dff	-0.04257011
74	0x3d9fc1fe	0.07800673
75	0xbcaaaed0	-0.02083531
76	0xbe341a15	-0.17588075
77	0x3d617e51	0.055052105
78	0x3e615c84	0.22007948
79	0xbd926d87	-0.07149797
80	0xbcca916a	-0.024727542
81	0xbdee02fe	-0.116216645
82	0x3d8c9bec	0.06865677
83	0x3e13b2b7	0.14423643
84	0x3db64375	0.08899585
85	0x3da6f215	0.08151642
86	0xbc1b6fae	-0.009487076
87	0x3bf82309	0.007572536
88	0xbe0837e2	-0.13302568
89	0x3da3a1b2	0.07989825
90	0xbd8525a0	-0.06501317
91	0xbd85a075	-0.065247454
92	0x3add29f9	0.0016873471
93	0x3df1ff86	0.11816315
94	0xbd115a50	-0.03548652
95	0xbdaa0729	-0.08302147
96	0xbe1a9c5d	-0.1509871
97	0xbd5f2b7c	-0.05448483
98	0xbd29eeb6	-0.041487418
99	0xbe31b8db	-0.17355673
100	0x3e3f26b1	0.18667103
101	0x3e0c75ff	0.13716887
102	0x3e0864b4	0.13319665
103	0xbd7b8699	-0.06140766
104	0xbdcccda5	-0.10000161
105	0x3e1224f6	0.14271912
106	0xbdff88e2	-0.1247728
107	0xbd18a87e	-0.03727006
108	0x3e138b95	0.14408715
109	0xbcf437b3	-0.029811716
110	0xbca48d8b	-0.020087024
111	0x3e1cd054	0.15313846
112	0x3dddda20	0.1083262
113	0xbdc2d046	-0.09512381
114	0xbd9a013c	-0.07519767
115	0x3c92363b	0.017848125
116	0xbd6ebd6a	-0.058286108
117	0xbd02801b	-0.031860452
118	0xbd05413b	-0.03253291
119	0xbd85ab34	-0.06526795
120	0xbdae91c1	-0.08523894
121	0xbe191c6e	-0.14952251
122	0xbe295bb7	-0.16538893
123	0xbcc9a9a0	-0.024617016
124	0x3c4a736c	0.01235662
125	0x3d9c5a26	0.07634382
126	0xbd1eda2a	-0.038782276
127	0xbdf1a48a	-0.117989615

fca1.weight f4 [32, 4]
0	0x3cb886d3	0.022525227
1	0xbe0fd05e	-0.1404433
2	0xbe2e57d1	-0.17025687
3	0x3efbce37	0.49180767
4	0xbe7852c5	-0.24250324
5	0xbe9aaa1a	-0.30207902
6	0xbe10bcb5	-0.14134486
7	0xbdcbff26	-0.09960775
8	0xbe8e1294	-0.2774855
9	0x3eb6dbd9	0.35714605
10	0x3e8e6155	0.27808633
11	0x3d5b81de	0.053590648
12	0xbeb04093	-0.34424266
13	0xbe8d77b3	-0.27630386
14	0xbccb63af	-0.024827806
15	0x3edbef8b	0.42956194
16	0x3e17cb83	0.14823727
17	0xbdc13ee1	-0.09435821
18	0x3ee3eb83	0.4451562
19	0x3e2ce399	0.16883697
20	0x3ef39b88	0.47579598
21	0x3ec288f2	0.37995106
22	0xbe3c1e09	-0.18370833
23	0xbea2805d	-0.31738558
24	0x3e9cec61	0.30649093
25	0x3e8f0414	0.279328
26	0x3ec81d84	0.3908502
27	0x3e65cba0	0.22440958
28	0xbd6988cd	-0.05701523
29	0xbe6f36cb	-0.23360746
30	0x3e5eae2b	0.21746127
31	0x3e29d922	0.16586736
32	0xbce9a9ad	-0.02852329
33	0x3c3da116	0.01157405
34	0x3ee7ca6e	0.4527163
35	0x3d96e56d	0.07367978
36	0xbd40e4e3	-0.047093283
37	0xbec156d8	-0.3776157
38	0x3df4338d	0.11923895
39	0xbec69e0c	-0.38792455
40	0xbb8167af	-0.0039491276
41	0xbe17cf3f	-0.14825152
42	0xbe5061e1	-0.20349838
43	0x3e48421b	0.19556467
44	0x3ea192e0	0.3155737
45	0xbed0b5da	-0.40763742
46	0xbeca6b95	-0.39535204
47	0x3ee9df4a	0.4567817
48	0xbe16df9b	-0.14733736
49	0x3d96628f	0.07343017
50	0xbeac065b	-0.335986
51	0xbe42ccf7	-0.190235
52	0xbe0125ac	-0.12612027
53	0xbe72eb4d	-0.23722573
54	0xbec47f2f	-0.38378283
55	0x3ea6de32	0.32591397
56	0x3da40cf5	0.08010284
57	0x3e0900d5	0.13379224
58	0x3d7e4163	0.062074076
59	0x3e644526	0.22292003
60	0xbe31cfd1	-0.17364432
61	0xbd24a95f	-0.040200587
62	0x3eb67ed0	0.35643625
63	0x3e8fc74f	0.28081748
64	0xbdb0c8bd	-0.08632038
65	0x3dd0ee13	0.10201659
66	0x3e50f5ac	0.20406216
67	0xbef821ee	-0.48463386
68	0xbd1975d2	-0.037465878
69	0x3b1ad237	0.0023623833
70	0xbed2dff5	-0.4118649
71	0xbe27995e	-0.16367099
72	0x3ea4aa92	0.32161385
73	0x3e1ff121	0.15619327
74	0x3d62cc72	0.055370755
75	0xbecb9b60	-0.3976698
76	0x3f0514b2	0.51984704
77	0xbe78ec2c	-0.24308842
78	0xbdd7f920	-0.10545564
79	0xbe2c40fd	-0.16821666
80	0x3ea88c3d	0.32919493
81	0xbe6ec89c	-0.23318714
82	0x3f030bd4	0.51189923
83	0x3e32ffac	0.17480344
84	0xbee8d92a	-0.45478183
85	0x3e0a2997	0.13492428
86	0x3da3d57d	0.07999704
87	0xbe1018d8	-0.14071977
88	0xbe5c904c	-0.2153942
89	0xbe570ebc	-0.21001714
90	0x3e3d5a8c	0.18491572
91	0xbe28ec89	-0.16496481
92	0x3e2d9aee	0.16953632
93	0x3e15702c	0.14593571
94	0xbe933c1f	-0.28756806
95	0x3d89f183	0.06735518
96	0xbe826a9a	-0.25471956
97	0x3e60ef71	0.2196634
98	0xbe787d21	-0.24266483
99	0xbe2f51a5	-0.17120989
100	0xbe8d8ae1	-0.2764502
101	0xbdd8de5c	-0.10589287
102	0x3e9a632f	0.30153796
103	0x3c07d56f	0.008290633
104	0x3ec4303d	0.38318053
105	0xbef9a67b	-0.48759827
106	0xbe968f5d	-0.29406253
107	0x3e73c9d1	0.23807456
108	0x3d81c56c	0.06336483
109	0x3e08791d	0.13327451
110	0xbea342e9	-0.31886986
111	0xbe5e47a7	-0.2170702
112	0xbe81cb5b	-0.2535046
113	0x3edb66be	0.42851824
114	0xbe4f210f	-0.20227455
115	0xbedd1d8f	-0.43186614
116	0x3e86de78	0.26341605
117	0xbe622aa8	-0.22086585
118	0x3d440749	0.04785851
119	0xbead4f13	-0.3384939
120	0xbe47a1c4	-0.19495302
121	0xbe0a10f3	-0.13483028
122	0xbe523cef	-0.20531057
123	0x3e84abd4	0.25912344
124	0xbd9a85b7	-0.07545035
125	0xbead03fb	-0.337921
126	0xbc882c29	-0.01662262
127	0xbc4806c8	-0.012208648

fca1.bias f4 [32]
0	0x3d21bed5	0.039488632
1	0x3f046e1b	0.5173051
2	0xbeb2222c	-0.34791696
3	0x3e88d9a0	0.26728535
4	0x3f041fc7	0.5161099
5	0xbebbb89e	-0.3666429
6	0x3eb83901	0.3598099
7	0xbec524aa	-0.38504535
8	0x3cd391d0	0.025826365
9	0x3ef80193	0.484387
10	0x3e0b8876	0.13626274
11	0xbe6422e6	-0.22278938
12	0xbed70998	-0.41999507
13	0xbcac7483	-0.02105165
14	0x3ef75468	0.48306584
15	0x3e1ff323	0.15620093
16	0xbe1c506c	-0.15265054
17	0xbec90537	-0.3926179
18	0x3e3e2c81	0.18571664
19	0xbed25e7e	-0.41087717
20	0xbeae2b7f	-0.3401756
21	0xbd955135	-0.0729088
22	0x3d6be04b	0.05758695
23	0x3ea6cbc8	0.32577348
24	0x3b8bcb56	0.004266183
25	0x3e8c7467	0.27432558
26	0xbe102e10	-0.14080071
27	0x3f0a9ad6	0.5414251
28	0x3ea31bf4	0.31857264
29	0x3e53ee6d	0.20696421
30	0xbe6d85da	-0.23195592
31	0xbe105c14	-0.14097625

fc2.weight f4 [64, 160]
0	0x3de2d236	0.11075251
1	0xbbea1c49	-0.007144485
2	0x3db34c4a	0.08754785
3	0x3cce8ae6	0.025212716
4	0x3d5c8423	0.053836953
5	0x3d57ed1b	0.052716356
6	0xbd84ea02	-0.06489946
7	0xbb091cd6	-0.0020921729
8	0x3d9a1024	0.0752261
9	0xbc370b7e	-0.011172174
10	0x3d49816d	0.049195696
11	0xbc80c10d	-0.015717054
12	0x3d95f03e	0.07321213
13	0xbc790b12	-0.015200393
14	0x3cb8942b	0.02253159
15	0xbcc7657c	-0.024340384
16	0xbd6ade73	-0.05734105
17	0x3c4f3273	0.012646305
18	0x3d4ede73	0.050505113
19	0x3ba2b303	0.0049651875
20	0xbc2a79a9	-0.010404983
21	0x3d61e5f3	0.055150937
22	0xbda534da	-0.08066721
23	0xbd44cfcb	-0.04804973
24	0x3ddc838a	0.107672766
25	0xbd233562	-0.03984583
26	0xbd7c9472	-0.061665006
27	0xbd0aded1	-0.0339039
28	0xbc96711c	-0.018364482
29	0x3db6c95a	0.089251235
30	0x3c8b2a38	0.016987905
31	0x3de8fdf2	0.11376561
32	0x3cb037e6	0.02151103
33	0xbdc10faf	-0.094268195
34	0xbdb07cd5	-0.0861756
35	0x3c07296f	0.008249625
36	0xbd830af9	-0.06398577
37	0x3d549362	0.051898368
38	0xbdc36fec	-0.09542832
39	0xbd605db2	-0.054776855
40	0xbe0784ae	-0.13234207
41	0x3c281eb4	0.010261226
42	0x3d5186e5	0.051154036
43	0x3d35e2cc	0.044405743
44	0xbd955206	-0.07291035
45	0x3d57209b	0.05252133
46	0xbd81cbf0	-0.06337726
47	0x3d2f9f59	0.042876575
48	0xbd03d6b7	-0.03218719
49	0x3d115a9f	0.035486814
50	0x3c49d8fc	0.0123197995
51	0x3d9ffb03	0.078115486
52	0x3d806497	0.06269186
53	0x3cb6709d	0.022270495
54	0xbdeba774	-0.115065485
55	0x3a46fae4	0.0007590486
56	0x3a923def	0.0011157374
57	0x3d8d9391	0.06912912
58	0xbcb15c16	-0.021650355
59	0x3ddecbb5	0.10878698
60	0xbd6747b2	-0.05646486
61	0x3da9adc4	0.08285096
62	0xbca18094	-0.019714631
63	0x3c5abeaa	0.013351122
64	0xbcf71279	-0.030160176
65	0xbb52733a	-0.0032112137
66	0xbd684e1b	-0.056715112
67	0xbc5a4f95	-0.013324638
68	0x3d90336f	0.0704106
69	0x3d064bfa	0.0327873
70	0x3cc78848	0.024356976
71	0x3d011ae3	0.03151978
72	0x3c36052a	0.01110963
73	0xbda497e9	-0.08036787
74	0xbd244f53	-0.040114712
75	0xbd87a505	-0.06623272
76	0xbd94ecec	-0.07271752
77	0x3c9bbbff	0.019010542
78	0x3d3d1e55	0.046171505
79	0xbd248cb8	-0.040173262
80	0xbbf3a8c5	-0.0074358904
81	0xbd48ae1d	-0.048994172
82	0xbd91ff39	-0.07128758
83	0x3c5528ae	0.013010187
84	0xbc309106	-0.010776764
85	0x3d597542	0.05309034
86	0xbdf4beab	-0.119504295
87	0xbdbebd6e	-0.093134746
88	0x3d05abf6	0.032634698
89	0x3cf304b7	0.029665334
90	0x3d588a00	0.052865982
91	0xbc0638ee	-0.008192284
92	0xbc15692d	-0.009119314
93	0xbc678398	-0.0141304955
94	0xbe83b622	-0.25724894
95	0x3c23d9a5	0.010000621
96	0xbceccf56	-0.02890746
97	0xbcb2e116	-0.021835845
98	0x3c7f2545	0.015572851
99	0x3b25c3d1	0.0025293718
100	0x3daefc57	0.08544224
101	0x3d91dab0	0.071217895
102	0x3dd21da4	0.1025956
103	0xbd773e48	-0.06036213
104	0xbd3db8c4	-0.046318784
105	0x3bb146d5	0.005410055
106	0x3d48c659	0.049017284
107	0x3deb916f	0.11502349
108	0x3da7c926	0.08192663
109	0x3d33f213	0.04393203
110	0x3d479fe3	0.048736464
111	0x3dbac21a	0.09119053
112	0xbd659b67	-0.056056406
113	0x3d17dc4b	0.037075322
114	0x3a28a6ca	0.0006433545
115	0xbb8b046d	-0.004242471
116	0x3d4900fd	0.049073208
117	0x3da471db	0.08029529
118	0xbcf631fd	-0.030053133
119	0x3d8bda32	0.06828727
120	0xbcf99a55	-0.030469099
121	0xbc9831e0	-0.01857847
122	0xbc9d198a	-0.019177217
123	0xbceaeb1c	-0.028676562
124	0x3d587c13	0.0528527
125	0x3db7378f	0.08946144
126	0x3d89ca93	0.06728091
127	0x3d730ed5	0.059340317
128	0x3dc8c416	0.098030254
129	0xbdb430a9	-0.08798344
130	0x3d0aae9d	0.03385793
131	0x3b8d7ea4	0.0043180753
132	0xbdddc7d8	-0.10829133
133	0x3be2d5e7	0.006922472
134	0x3c91bac7	0.017789258
135	0x3c60551e	0.0136921685
136	0x3d75bff2	0.059997506
137	0x3cb5ad56	0.02217738
138	0xbd28e432	-0.04123325
139	0x3d9b9979	0.07597632
140	0xbc5a142e	-0.013310475
141	0xba82e4d2	-0.0009986407
142	0x3d3d7161	0.046250705
143	0x3d06bb54	0.032893494
144	0x3c50d8dc	0.012747016
145	0xbc45bc27	-0.012068785
146	0x3d7a3df7	0.06109425
147	0xbd6196f9	-0.05507562
148	0x3b3f2fed	0.0029172853
149	0xbc22143e	-0.009892521
150	0xbd20dbc4	-0.039272085
151	0x3be06f17	0.0068491804
152	0x3d9f32f2	0.07773389
153	0x3b4a24f2	0.0030844775
154	0xbcb3a886	-0.021930944
155	0xbd4abe43	-0.049497854
156	0xbd2df794	-0.042472437
157	0x3c95f385	0.018304596
158	0xbba2d4c7	-0.0049692127
159	0x3d3d652a	0.046239056
160	0x3c5eeb85	0.013605957
161	0xbc28d6a0	-0.010305077
162	0xbcefec59	-0.029287504
163	0x3d3f83df	0.04675662
164	0x3d51c7df	0.051216003
165	0xbd4a8f8d	-0.049453307
166	0xbd8a3d84	-0.067500144
167	0x3d8376f1	0.06419171
168	0xbd7ba531	-0.061436836
169	0x3be72342	0.0070537636
170	0x3bc8798a	0.006118004
171	0xbcc494ac	-0.023996674
172	0xbc16f7ea	-0.009214381
173	0xbb2f4aa6	-0.0026747375
174	0xbd7772ed	-0.060412336
175	0x3d86046f	0.065438144
176	0xbcd44c00	-0.025915146
177	0xbd417ca7	-0.04723802
178	0x3d6559cb	0.055993836
179	0x3a3c0bfe	0.0007173418
180	0xbcc5cab0	-0.0241445
181	0x3bcbff91	0.0062255342
182	0x3d557030	0.052108943
183	0xbdebd8c1	-0.11515952
184	0x3dcc2466	0.0996788
185	0x3bdaf47f	0.0066819782
186	0x3c589c03	0.01322079
187	0xba39e22d	-0.0007090893
188	0x3c75319d	0.014965442
189	0xbe55d31f	-0.20881318
190	0xbb2a8585	-0.0026019525
191	0xbbb0a849	-0.005391155
192	0xbce2e710	-0.02769807
193	0xbe230779	-0.1592082
194	0xbce8be0b	-0.028410932
195	0xbd96488d	-0.07338057
196	0x3c5de9ea	0.013544539
197	0xbd5dd428	-0.054157406
198	0xbc737f26	-0.0148618575
199	0xbd99acda	-0.07503672
200	0x3d3529e1	0.044229392
201	0x3b8290b0	0.0039845333
202	0x3d73774f	0.059439953
203	0x3cdb5aae	0.026776638
204	0xbd162cc5	-0.03666379
205	0xbcead939	-0.028668033
206	0xbc4d4bf4	-0.012530316
207	0x3c1cb264	0.009564016
208	0x3d0da5b4	0.034581855
209	0xbcf730d9	-0.03017466
210	0xbd09659f	-0.03354418
211	0xbca7832c	-0.02044829
212	0x3ca7becf	0.020476727
213	0x3c84f7d6	0.016231459
214	0x3d812e6e	0.06307684
215	0xbd41fae9	-0.047358427
216	0x3df31e07	0.11870962
217	0x3d1ee777	0.03879496
218	0x3d9b0474	0.07569209
219	0x3d8bf317	0.06833475
220	0x3daef589	0.08542926
221	0xbd55cdd5	-0.05219825
222	0x3d7ede59	0.062223766
223	0xbc97ab50	-0.018514305
224	0x3d6a27c8	0.057166845
225	0xbd04e0dd	-0.03244101
226	0x3d11836d	0.035525728
227	0x3d1ba7cf	0.03800183
228	0x3cebcb2d	0.028783405
229	0x3d8633d7	0.065528564
230	0x3cd76084	0.02629114
231	0x3c72411b	0.01478603
232	0x3d2ea60d	0.042638827
233	0xbc251d94	-0.010077853
234	0xbc183978	-0.009291045
235	0xbcd44f98	-0.02591686
236	0x3ca97b93	0.020688808
237	0xbcdcb444	-0.026941426
238	0xbd1e9437	-0.038715567
239	0xbd0c87c0	-0.03430915
240	0xbcf7fd22	-0.03027207
241	0x3dd5203e	0.1040654
242	0x3c88e171	0.016709061
243	0x3c852200	0.016251564
244	0x3d135ddc	0.035978183
245	0x3d2533aa	0.040332474
246	0xbbf4976d	-0.0074643404
247	0xbd5cc2a3	-0.053896558
248	0x3d6127d4	0.054969624
249	0x3d86c182	0.065798774
250	0xbccb6601	-0.024828913
251	0xbd56b5a3	-0.052419316
252	0xbc3cedaa	-0.011531273
253	0x3dacf71e	0.08445571
254	0xbdd912a4	-0.105992585
255	0xbc48acb1	-0.012248204

fc2.bias f4 [64]
0	0xbc3e1f85	-0.0116041945
1	0xbd590465	-0.052982707
2	0x3dbbedc6	0.09176211
3	0x3d60a81b	0.054847818
4	0x3db5c8fc	0.08876225
5	0xbd1c8ee8	-0.038222224
6	0x3d941a0a	0.07231529
7	0x3d315572	0.043294378
8	0xbd799cae	-0.060940437
9	0x3d09276a	0.033484854
10	0x3df87d82	0.12133314
11	0xbcaecfc3	-0.021339303
12	0x3dbda212	0.09259428
13	0xbd822f37	-0.06356662
14	0xbd0b2163	-0.033967387
15	0xbd93b432	-0.07212104
16	0x3dc49fa7	0.09600764
17	0x3ba58820	0.0050516278
18	0xbdd3b44a	-0.10337122
19	0x3ba90c52	0.0051589394
20	0x3cd3b0d8	0.025841162
21	0x3b86442f	0.0040974836
22	0x3c8502e1	0.016236724
23	0x3dc8dbc2	0.098075405
24	0xbd8672b5	-0.065648474
25	0xbdbbded7	-0.09173363
26	0xbdc7866d	-0.097424366
27	0x3cb02621	0.021502556
28	0x3cecb55f	0.028895078
29	0xbdc73056	-0.09726016
30	0xbcbbb9f0	-0.02291581
31	0x3e0235f9	0.12715901
32	0xbc941ec5	-0.018081078
33	0x3e0240b9	0.12720002
34	0x3d1ec945	0.038766164
35	0xbb81dacd	-0.0039628507
36	0xbde08f47	-0.10964828
37	0x3d9cbd31	0.07653273
38	0x3c0f06d8	0.008729659
39	0x3bff024f	0.0077822576
40	0x3d8024f1	0.06257046
41	0x3d019cc7	0.031643655
42	0xbbfaf2bb	-0.0076583303
43	0xbc9c69d6	-0.019093435
44	0x3d0d1720	0.03444588
45	0x3e10e1a9	0.14148583
46	0xbca188bd	-0.019718522
47	0xbe173a5c	-0.14768356
48	0xbd059ff6	-0.032623254
49	0xbdc8a3d9	-0.097968765
50	0x3c4f6eb4	0.012660671
51	0xbdb0858a	-0.086192206
52	0x3ceb5867	0.028728677
53	0x3da37ce8	0.07982808
54	0x3d94d488	0.072670996
55	0x3df2278f	0.118239515
56	0x3dec82c5	0.1154838
57	0x3d4ad4de	0.049519412
58	0x3cbf3672	0.023341391
59	0xbc0f1e52	-0.008735256
60	0xbd28a30a	-0.04117111
61	0x3de4469d	0.11146281
62	0x3c2168de	0.009851662
63	0x3d719df2	0.05898852

fc3.weight f4 [1, 64]
0	0xbd95fcfe	-0.07323645
1	0xbd0e842c	-0.034794018
2	0x3d60fb70	0.05492729
3	0x3ec78826	0.3897106
4	0x3d7a5e33	0.06112499
5	0xbd677da7	-0.056516316
6	0x3e5a3d66	0.21312484
7	0x3d8e9747	0.069624476
8	0xbea2f80a	-0.31829864
9	0x3d5a5f54	0.05331357
10	0x3e05a314	0.1305049
11	0x3e738dcc	0.2378456
12	0x3e3c70c3	0.1840239
13	0xbe4fda2a	-0.20298067
14	0xbe63d755	-0.22250111
15	0xbeb5b5fa	-0.354904
16	0x3e3fe030	0.18737864
17	0xbcf15f91	-0.029464515
18	0xbe1a1d32	-0.150502
19	0xbd4cc252	-0.049990006
20	0x3e172441	0.14759924
21	0x3dd6465a	0.10462637
22	0x3d9c06b4	0.07618466
23	0x3e170f64	0.14751965
24	0xbd6cd8f1	-0.05782408
25	0xbe742510	-0.23842263
26	0xbe39990d	-0.1812479
27	0xbe868dbd	-0.26280013
28	0x3e2702ca	0.16309658
29	0xbe063d55	-0.13109334
30	0x3e9509f2	0.2910915
31	0x3d980848	0.074234545
32	0xbd85c93a	-0.065325215
33	0x3de1b027	0.110199265
34	0xbdaacdfd	-0.083400704
35	0xbe8f3bb1	-0.27975228
36	0xbd6467af	-0.055762943
37	0x3d3da8e1	0.046303634
38	0xbe83ff54	-0.25780737
39	0x3d23a056	0.03994783
40	0x3ec122ee	0.37721962
41	0x3dcde2ed	0.10053048
42	0x3dfd813b	0.123781644
43	0xbe12eafa	-0.14347449
44	0x3dd9834d	0.10620747
45	0x3d003a72	0.031305738
46	0xbdaa45a9	-0.08314068
47	0xbe967bbb	-0.29391274
48	0xbd70184d	-0.058616925
49	0xbe0ca884	-0.13736159
50	0x3d3521c9	0.044221673
51	0xbe627efb	-0.22118752
52	0x3ecd44e7	0.4009163
53	0x3da21a46	0.079151675
54	0x3dd278a9	0.1027692
55	0x3da6f22d	0.0815166
56	0x3d0d4432	0.034488864
57	0x3e009940	0.1255846
58	0xbd308ba5	-0.043101925
59	0xbd6c6cd2	-0.057720967
60	0xbeaf6654	-0.34257758
61	0x3d716acd	0.058939744
62	0x3d4f4710	0.05060488
63	0x3d35b361	0.044360522
