agent_actor.pth (torch_old, 86517 bytes, 6 tensors)

fc1.weight f4 [128, 33]
0.0158626 0.20519944 0.057210606 -0.07257868 0.20808242 -0.1189184 -0.16315882 -0.04581635
-0.086399645 0.050086167 -0.03828853 -0.03508181 -0.027546665 0.06975211 0.18075597 -0.0018423764
-0.1694318 -0.13146704 -0.03800944 -0.061673746 0.09150082 -0.06953249 0.075422965 -0.14613433
0.10643342 -0.091750965 -0.2307256 -0.023046179 0.11410817 -0.03229563 0.16191547 -0.09544092
-0.10936895 -0.033316802 -0.013506387 -0.032742523 0.15757735 -0.051596805 -0.031616393 0.199287
0.13374197 -0.17061378 -0.21501063 -0.14835058 0.0791598 -0.2090836 -0.20208563 0.032196186
0.10932563 -0.0072874664 -0.008002115 -0.18114544 0.20086558 0.18157707 0.23828311 0.04191432
0.063795105 -0.059434354 0.040062055 -0.015175745 -0.09449084 -0.08460007 0.13672137 0.10882759
-0.10559012 0.13243297 -0.13510121 -0.08925759 -0.014351613 -0.12216844 0.11526439 0.25322166
0.11892264 0.07606603 -0.11137437 -0.18130085 0.13938309 0.06309696 -0.06613508 -0.13402463
0.18929137 -0.2709808 0.12776363 0.02238505 0.06928526 0.15166603 0.043477777 -0.049646866
0.054790698 -0.09352961 0.09861123 -0.059739314 0.22551692 -0.17095758 0.0838277 0.028092831
0.19528244 -0.06319881 0.28377837 -0.062497564 -0.14312306 0.14174995 0.016002513 -0.011215028
-0.21388581 0.13283421 0.0064819357 0.16148569 0.07485231 0.05641115 -0.13461769 -0.0040605995
-0.07403642 -0.08197261 0.07349516 0.06826156 0.17554143 -0.19561253 -0.005080251 -0.17767443
-0.10110635 -0.09659984 0.117498904 -0.07852394 0.103287995 0.20111994 -0.02980433 0.14205186
0.12819508 0.08204825 -0.06831238 0.037630267 0.028928963 0.09073303 -0.10184298 0.105511926
0.04794441 0.0043226173 -0.17136203 0.012892784 -0.06441285 -0.0112551125 -0.15036976 0.058401555
-0.0096357465 -0.004611067 -0.07744727 0.102206804 0.08538991 -0.012873226 0.006651642 0.0384468
0.16036879 0.0012614123 0.06349829 -0.14469953 -0.123742595 0.07533234 -0.09581335 -0.06707121
0.13220884 -0.020728156 0.038276374 -0.11507708 -0.034888707 -0.04996507 0.0965258 -0.057478905
0.18776551 -0.030579409 0.22353996 -0.0867633 -0.20436268 0.11587324 -0.07996532 0.037672214
-0.048101585 -0.051907618 0.10740481 -0.18158267 0.16192439 -0.11019884 -0.13081591 0.250459
0.057269778 -0.007937812 0.15104571 -0.21203893 -0.04046696 0.13101958 0.15076336 0.10897178
-0.10169001 0.08811687 -0.1578341 0.08161381 -0.048577487 0.1815492 0.17544514 0.16963333
0.14704151 -0.1098621 0.16789599 0.014586337 -0.13723868 0.05161653 -0.0005131472 -0.08823711
-0.1989603 0.1993493 0.073615156 0.12362688 0.22763565 0.10602647 0.09915132 0.20496635
-0.073543906 -0.21062554 -0.10723437 0.00843944 0.12991785 -0.06798131 0.05709768 -0.121198535
-0.11309628 -0.080971874 -0.097751096 0.103758425 -0.082672305 -0.12602048 0.08739814 0.05666747
0.024051832 -0.13280001 -0.14720906 -0.078664556 0.16219747 -0.028779645 0.19825138 0.093812704
-0.0610937 0.01625967 0.007935969 -0.12678385 -0.07181415 0.07197779 -0.1367412 -0.091046475
0.08882538 -0.04569334 -0.12863441 -0.21707429 0.14957659 -0.13886441 0.014594105 -0.13930577
00000000: 49f2 813c cd1f 523e ab55 6a3d 22a4 94bd
00000010: 8f13 553e 7d8b f3bd 1b13 27be eda9 3bbd
00000020: 4cf2 b0bd 2727 4d3d 6fd4 1cbd f2b1 0fbd
00000030: 8ba9 e1bc 32da 8e3d 1818 393e e57b f1ba
00000040: 887f 2dbe 4c9f 06be c9af 1bbd 9c9d 7cbd
00000050: c864 bb3d 0d67 8ebd 5b77 9a3d 3da4 15be
00000060: c4f9 d93d eee7 bbbd 5543 6cbe 57cb bcbc
00000070: 8bb1 e93d 6c48 04bd 2bcd 253e 8776 c3bd
00000080: d4fc dfbd 3377 08bd e549 5dbc 061d 06bd
00000090: f55b 213e 2c57 53bd 3180 01bd e411 4c3e
000000a0: a8f3 083e 61b5 2ebe bf2b 5cbe 37e9 17be
000000b0: 891e a23d 031a 56be 89ef 4ebe 26e0 033d
000000c0: 1ee6 df3d b3cb eebb 4e1b 03bc 317e 39be
000000d0: b5af 4d3e 57ef 393e 7d00 743e 5aae 2b3d
000000e0: 02a7 823d 7071 73bd 1c18 243d b0a3 78bc
000000f0: 6a84 c1bd cd42 adbd b000 0c3e 00e1 de3d
00000100: a23f d8bd 829c 073e f957 0abe afcc b6bd
00000110: 0723 6bbc 7233 fabd bd0f ec3d 45a6 813e
00000120: b78d f33d 82c8 9b3d 3f18 e4bd eea6 39be
00000130: 71ba 0e3e fb38 813d d471 87bd c13d 09be
00000140: 99d5 413e ffbd 8abe 78d4 023e da60 b73c
00000150: 6ee5 8d3d 574e 1b3e c115 323d 835a 4bbd
00000160: 366c 603d 748c bfbd aff4 c93d 36b1 74bd
00000170: e8ed 663e 810f 2fbe dbad ab3d f022 e63c
00000180: 1ff8 473e 616e 81bd 664b 913e 72fd 7fbd
00000190: da8e 12be e626 113e b417 833c 3dbf 37bc
000001a0: e204 5bbe b105 083e 6b66 d43b 815c 253e
000001b0: 2b4c 993d 610f 673d 38d9 09be c70e 85bb
000001c0: 68a0 97bd 41e1 a7bd a184 963d b7cc 8b3d
000001d0: 22c1 333e a74e 48be 3c78 a6bb 49f0 35be
000001e0: d910 cfbd 23d6 c5bd 44a3 f03d 29d1 a0bd
000001f0: a888 d33d 63f2 4d3e 3628 f4bc 0b76 113e
00000200: 9245 033e ea08 a83d 5ce7 8bbd 3222 1a3d
00000210: 6ffc ec3c 3dd2 b93d 0d93 d0bd a316 d83d
00000220: 5c61 443d bea4 8d3b 8779 2fbe 413c 533c
00000230: e2ea 83bd 5d67 38bc 88fa 19be 7836 6f3d
00000240: 40df 1dbc 6f18 97bb ad9c 9ebd cd51 d13d
00000250: e8e0 ae3d 39ea 52bc 04f6 d93b 647a 1d3d
00000260: b737 243e f955 a53a 640b 823d 1d2c 14be
00000270: c26c fdbd d847 9a3d ca39 c4bd a15c 89bd
00000280: c161 073e 18ce a9bc b0c7 1c3d 88ad ebbd
00000290: 76e7 0ebd 2ca8 4cbd 52af c53d 006f 6bbd
000002a0: 9a45 403e ab81 fabc a9e7 643e f5b0 b1bd
000002b0: 7344 51be f34e ed3d dcc4 a3bd 2e4e 1a3d
000002c0: 2b06 45bd 159d 54bd 0ef7 db3d cff0 39be
000002d0: 82cf 253e eeaf e1bd 9bf4 05be 293c 803e
000002e0: b793 6a3d 990d 02bc baab 1a3e bc20 59be
000002f0: afc0 25bd ff29 063e b661 1a3e 992c df3d
00000300: da42 d0bd 9e76 b43d 439f 21be 2425 a73d
00000310: 30f9 46bd 09e8 393e e4a7 333e 5cb4 2d3e
00000320: 0d92 163e 61ff e0bd edec 2b3e 88fb 6e3c
00000330: 4c88 0cbe db6b 533d ba84 06ba a8b5 b4bd
00000340: 40bc 4bbe 3922 4c3e 8bc3 963d 1730 fd3d
00000350: 5219 693e 6824 d93d d90f cb3d b3e2 513e
00000360: 309e 96bd 39ae 57be b29d dbbd 9445 0a3c
00000370: 2f09 053e c939 8bbd 42df 693d f036 f8bd
00000380: 069f e7bd 95d4 a5bd ba31 c8bd 4c7f d43d
00000390: 1950 a9bd 830b 01be ccfd b23d 261c 683d
000003a0: 5908 c53c bafc 07be f9bd 16be e21a a1bd
000003b0: 1817 263e 4ac3 ebbc 6902 4b3e e020 c03d
000003c0: 633d 7abd 0033 853c de05 023c a0d3 01be
000003d0: 4c13 93bd 1769 933d e305 0cbe 9376 babd
000003e0: 15ea b53d f128 3bbd bdb8 03be b948 5ebe
000003f0: 9b2a 193e 7932 0ebe 1d1c 6f3c 2ca6 0ebe

fc1.bias f4 [128]
0.036962137 -0.001653087 0.17681922 0.1013098 -0.05886878 -0.13053149 -0.20750605 0.10352825
-0.015982041 -0.021471474 -0.068389855 0.038445283 0.20866589 -0.09413676 0.12243611 -0.112579234
0.085309796 -0.040627215 -0.18924087 0.0013494231 -0.15125692 0.09932264 -0.11182429 0.051854637
-0.08021735 0.100717194 -0.040645305 -0.14680214 0.0036049543 -0.027639711 0.07557613 0.057168808
0.11979805 -0.06101119 0.1294234 -0.0038424246 -0.12542444 0.1351001 0.017137134 0.069610335
0.04236908 0.10937339 0.15627418 0.13766235 -0.056823943 0.06884766 -0.091159835 -0.062582694
-0.10181237 -0.01793093 -0.020377409 -0.079671755 0.07663991 0.027233716 0.1039332 -0.07018188
-0.090915956 0.17217007 -0.080379605 0.088301755 0.050137185 -0.05100694 -0.13604763 -0.086538605
-0.07959382 -0.102415286 0.17083833 0.00092785904 0.07001713 -0.15009987 -0.16530555 0.18586706
-0.07202011 0.1357112 -0.024490276 -0.018637145 0.009209876 -0.09656084 0.26206195 0.22104113
-0.08174201 0.036311083 0.016094573 0.1054087 -0.1018535 -0.11449423 -0.07774845 0.022293461
-0.07596312 -0.06993416 -0.024913281 0.03376421 0.11333429 -0.18527524 0.15593775 0.027776992
0.22433296 -0.09875979 0.118293926 0.05878644 0.056200914 -0.00034529492 0.006052423 0.08750209
-0.05529367 -0.069876045 0.043564115 0.15319085 -0.019614585 0.10006311 0.1476429 0.16741857
-0.031443518 0.10558847 -0.008358414 -0.1361604 -0.1692609 0.08902597 0.08782081 0.16241673
-0.055940993 -0.19828664 -0.12631685 -0.19499034 -0.05534268 0.03266592 0.03609816 0.09124925
00000000: 9c65 173d 65ac d8ba 1910 353e 837b cf3d
00000010: 6420 71bd 0caa 05be 777c 54be 9e06 d43d
00000020: c5ec 82bc f2e4 afbc fb0f 8cbd cd78 1d3d
00000030: 83ac 553e c6ca c0bd c9bf fa3d f18f e6bd
00000040: e7b6 ae3d b968 26bd 5cc8 41be 20df b03a
00000050: 18e3 1abe ab69 cb3d 2204 e5bd 8765 543d
00000060: fe48 a4bd d144 ce3d b17b 26bd 4d53 16be
00000070: 1941 6c3b ad6c e2bc a8c7 9a3d d729 6a3d
00000080: ae58 f53d dfe6 79bd 9187 043e 30d1 7bbb
00000090: 446f 00be ae57 0a3e 2d63 8c3c dd8f 8e3d
000000a0: 338b 2d3d 28ff df3d 5706 203e 5cf7 0c3e
000000b0: 39c0 68bd 0100 8d3d 02b2 babd 5b2b 80bd
000000c0: 0183 d0bd e3e3 92bc 86ee a6bc f22a a3bd
000000d0: 63f5 9c3d 3e19 df3c eeda d43d 84bb 8fbd
000000e0: 2532 babd 5a4d 303e 109e a4bd 8dd7 b43d
000000f0: a65c 4d3d a7ec 50bd 1250 0bbe 273b b1bd
00000100: 1602 a3bd 1bbf d1bd 3ef0 2e3e 913b 733a
00000110: 2465 8f3d c8b3 19be dc45 29be ef53 3e3e
00000120: 487f 93bd e0f7 0a3e d59f c8bc edac 98bc
00000130: 05e5 163c b1c1 c5bd fc2c 863e 9b58 623e
00000140: 5b68 a7bd eeba 143d c4d8 833c 84e0 d73d
00000150: 9198 d0bd f37b eabd 943a 9fbd c7a0 b63c
00000160: 8d92 9bbd a439 8fbd f016 ccbc 574c 0a3d
00000170: cf1b e83d cbb8 3dbe 25ae 1f3e 938c e33c
00000180: 8ab7 653e 9342 cabd 1644 f23d 0dca 703d
00000190: ee32 663d b308 b5b9 6753 c63b 4c34 b33d
000001a0: 9e7b 62bd 2c1b 8fbd 4970 323d 10de 1c3e
000001b0: c4ae a0bc e3ed cc3d b32f 173e c66f 2b3e
000001c0: ebca 00bd c53e d83d bbf1 08bc a26d 0bbe
000001d0: bb52 2dbe 3f53 b63d 66db b33d 9250 263e
000001e0: 6222 65bd a70b 4bbe 3459 01be 8cab 47be
000001f0: 02af 62bd b3cc 053d aadb 133d e3e0 ba3d

fc2.weight f4 [128, 128]
0.057574075 0.119275525 -0.008793464 0.047598027 -0.028486684 0.09136407 0.051147725 -0.041570462
0.09547207 0.03828764 0.102949366 -0.02551807 0.018848633 -0.03144406 0.07821485 -0.045143515
0.06756078 -0.0287621 0.031479634 0.1151007 -0.07682316 -0.012095866 0.013858236 -0.08717829
0.07632849 0.09606231 0.103579916 0.07882338 0.04413341 -0.07591279 0.07143673 -0.104198895
-0.034096576 -0.038773075 0.020202935 0.114029646 0.0036503482 0.068556465 -0.061777912 -0.03260036
0.047007725 -0.04851451 -0.015241651 0.06811879 0.12612882 0.05684386 0.075536035 -0.03924289
-0.040173274 0.10852096 0.057020802 -0.046447624 -0.0034062255 0.056007206 0.030963106 0.12410811
-0.12348498 0.025185822 0.07225466 -0.07104255 0.00020985995 -0.019011827 -0.06342449 0.01991151
0.032026682 -0.06281772 0.0077072214 0.012512872 -0.05865854 0.0859761 -0.02304001 0.1515014
-0.042487882 0.039137717 0.1044343 0.079382114 -0.079744406 0.02313038 -0.009620093 -0.0008896262
-0.08317528 -0.008911025 0.07790033 0.07050534 0.06626879 -0.034553126 0.022771992 0.019981533
-0.02334161 -0.0594618 -0.045835115 0.004350433 0.07686407 0.05688832 0.0023988455 0.07125216
0.10320328 0.01639117 -0.009070806 0.051526316 0.08788713 0.1293711 -0.07509971 0.09150009
-0.05035746 -0.03973114 0.026340513 -0.009500684 -0.0019013786 -0.057624336 0.0018907231 0.006963867
-0.01495919 -0.005975645 -0.009013754 0.07028696 0.06769721 -0.016413365 0.0031923587 0.0337756
0.026899634 0.021315759 0.0354478 0.09012632 -0.043298308 0.0025812185 -0.07720235 0.07761935
-0.065481745 -0.067192875 -0.0076016244 -0.048022978 0.09535261 -0.00043363258 -0.020526165 0.057612572
-0.005669544 -0.104169115 -0.018740386 4.1948555e-05 -0.008821516 0.01289949 -0.12061247 0.062528804
-0.034249287 0.09473891 0.0058188927 0.07006815 -0.006369318 -0.051575672 -0.05826543 0.10415078
-0.035286233 0.050834402 0.08062597 0.097274475 0.110596165 0.047703724 0.017208537 -0.0063515306
-0.057199065 -0.023736415 0.015952747 0.0055241333 0.08188507 -0.023636155 0.09092445 0.123258494
0.06277113 0.08880032 -0.07721595 -0.04632404 -0.0018588741 0.033754874 -0.01599277 -0.07853249
0.043654006 0.053951964 -0.09242522 0.028576097 -0.079576746 0.007834764 -0.027624536 -0.09256956
0.14077133 0.0069150007 0.023158824 0.117821634 -0.004609474 0.09277867 0.10974043 0.040635414
-0.04170975 0.023766968 0.029510913 0.059962805 0.07707265 -0.05955686 0.033447567 -0.09125282
-0.043054376 0.0249209 -0.057502802 0.009738138 -0.010365858 -0.05643032 0.07929434 -0.062365983
0.06663951 -0.046324532 -0.04530501 -0.01752973 -0.10148475 -0.10881786 0.071213216 0.028378945
0.10022071 0.054804403 -0.08884111 0.04327836 -0.008173269 -0.03963779 -0.0047508855 0.027368784
-0.031570103 -0.064481094 -0.0016118316 0.05407159 -0.021395927 0.024874667 -0.05681692 -0.17897743
-0.09027812 0.0709358 -0.05143952 -0.05039967 0.09042981 -0.010381752 0.113999054 0.1325332
0.14689769 0.09392346 0.034872312 -0.043184202 -0.07031286 -0.056150086 -0.100484505 -0.027214698
-0.03979416 0.028577222 0.029855298 -0.07724898 0.10056449 -0.08533003 0.019719025 0.035789713
00000000: cbd2 6b3d ba46 f43d 7612 10bc 26f6 423d
00000010: e85c e9bc 161d bb3d 4780 513d ca45 2abd
00000020: dc86 c33d 80d3 1c3d 1ed7 d23d 460b d1bc
00000030: 7368 9a3c 7dcb 00bd 1b2f a03d 68e8 38bd
00000040: 4e5d 8a3d 7f9e ebbc caf0 003d eab9 eb3d
00000050: 7655 9dbd bd2d 46bc a80d 633c 888a b2bd
00000060: 1d52 9c3d 51bc c43d b521 d43d 276e a13d
00000070: 3cc5 343d 2a78 9bbd 6c4d 923d 3b66 d5bd
00000080: daa8 0bbd 84d0 1ebd a080 a53c 6088 e93d
00000090: ae3a 6f3b 5567 8c3d d60a 7dbd f587 05bd
000000a0: 2c8b 403d 27b7 46bd 1eb8 79bc dd81 8b3d
000000b0: ea27 013e 1bd5 683d a3b2 9a3d 27bd 20bd
000000c0: bb8c 24bd 3d40 de3d a58e 693d dd3f 3ebd
000000d0: fb3a 5fbb d067 653d 57a6 fd3c 652c fe3d
000000e0: b1e5 fcbd 7f52 ce3c 40fa 933d c27e 91bd
000000f0: da0d 5c39 b1be 9bbc b3e4 81bd 771d a33c
00000100: 692e 033d 94a6 80bd dc8c fc3b ca02 4d3c
00000110: f043 70bd 3d14 b03d 67be bcbc 2f23 1b3e
00000120: c607 2ebd df4e 203d a6e1 d53d 1793 a23d
00000130: 0951 a3bd ec7b bd3c 989d 1dbc ce35 69ba
00000140: cd57 aabd 8cff 11bc 358a 9f3d 1b65 903d
00000150: eeb7 873d 9487 0dbd 548c ba3c 50b0 a33c
00000160: e736 bfbc 378e 73bd 9abd 3bbd 148e 8e3b
00000170: e96a 9d3d ba03 693d f335 1d3b a7ec 913d
00000180: 3e5c d33d c646 863c b89d 14bc 420d 533d
00000190: 2bfe b33d dc79 043e e0cd 99bd 6664 bb3d
000001a0: a043 4ebd 1fbd 22bd 0fc8 d73c c2a8 1bbc
000001b0: ae37 f9ba 7f07 6cbd 24d2 f73a 2731 e43b
000001c0: 6417 75bc 58cf c3bb 6dae 13bc 9cf2 8f3d
000001d0: d6a4 8a3d 5275 86bc e436 513b 4958 0a3d
000001e0: 9f5c dc3c 639e ae3c b631 113d 2694 b83d
000001f0: 9159 31bd a929 293b 441c 9ebd e5f6 9e3d
00000200: 4b1b 86bd 6b9c 89bd 0c17 f9bb beb3 44bd
00000210: 3b48 c33d 2e59 e3b9 7d26 a8bc 29fb 6b3d
00000220: 95c7 b9bb 9e56 d5bd 7085 99bc ebf1 2f38
00000230: 1f88 10bc 6258 533c ac03 f7bd 1a0f 803d
00000240: fb48 0cbd 7906 c23d 69ac be3b e47f 8f3d
00000250: b6b5 d0bb 0341 53bd bba7 6ebd 014d d53d
00000260: 4c88 10bd bc37 503d 3b1f a53d d737 c73d
00000270: 3e80 e23d fb64 433d ebf8 8c3c 8020 d0bb
00000280: 9149 6abd df72 c2bc 56af 823c ca03 b53b
00000290: 5cb3 a73d 9ca0 c1bc 9936 ba3d f36e fc3d
000002a0: 268e 803d f1dc b53d 6523 9ebd 47be 3dbd
000002b0: 77a5 f3ba 8d42 0a3d 4503 83bc a4d5 a0bd
000002c0: 8bce 323d bcfc 5c3d 6f49 bdbd 6b18 ea3c
000002d0: 22f9 a2bd 625d 003c da4c e2bc 1c95 bdbd
000002e0: 5c26 103e 3b97 e23b 93b7 bd3c 784c f13d
000002f0: 120b 97bb be02 be3d 97bf e03d 5271 263d
00000300: d8d7 2abd f2b2 c23c dfc0 f13c 8f9b 753d
00000310: 44d8 9d3d e5f1 73bd 5100 093d c2e2 babd
00000320: c959 30bd ea26 cc3c 0f88 6bbd b68c 1f3c
00000330: 8fd5 29bc 7b23 67bd 1265 a23d 7973 7fbd
00000340: 4c7a 883d cbbe 3dbd bf91 39bd 829a 8fbc
00000350: 3dd7 cfbd e6db debd 3cd8 913d f67a e83c
00000360: 8440 cd3d 957a 603d 54f2 b5bd a644 313d
00000370: 2de9 05bc 3c5b 22bd 51ad 9bbb 8034 e03c
00000380: a74f 01bd aa0e 84bd 1844 d3ba 2c7a 5d3d
00000390: 8346 afbc f5c5 cb3c dcb8 68bd dc45 37be
000003a0: bce3 b8bd ca46 913d 3fb2 52bd e26f 4ebd
000003b0: 4433 b93d 3918 2abc 5678 e93d c8b6 073e
000003c0: 596c 163e f15a c03d 45d6 0e3d ebe1 30bd
000003d0: 3000 90bd a2fd 65bd d2ca cdbd 5cf1 debc
000003e0: 33ff 22bd c71a ea3c 1993 f43c b734 9ebd
000003f0: c1f4 cd3d 83c1 aebd cb89 a13c 3c98 123d

fc2.bias f4 [128]
0.07875387 0.0565913 -0.07241065 0.011173135 0.006754105 -0.032282665 -0.027897408 0.07256723
0.03006583 0.009535466 -0.013560119 0.007503673 0.035715632 0.014324694 0.113780394 0.030500019
0.033264704 0.035972 -0.05873789 -0.03009484 -0.06645034 -0.09287855 -0.015843187 0.09911227
-0.08071314 0.112154275 0.011959196 0.03673861 0.08739535 0.03931464 0.09205853 0.040297106
0.023777839 0.02351373 0.0666049 0.08174071 0.020413302 0.047244966 0.04764081 -0.004307604
0.044857323 -0.048193205 -0.10874716 -0.06609301 -0.05653851 0.08385775 -0.02856117 0.14348626
0.10690967 -0.026228188 -0.044521134 0.027642807 0.12151536 0.06565884 0.069520846 0.11514024
-0.08631253 0.08714723 0.13318793 0.08192129 0.13850072 0.0422056 0.02041723 -0.07483045
0.04683722 0.02481093 0.031388372 0.10952214 -0.061739717 -0.06966791 0.051397435 0.021787165
0.023924148 -0.082931824 0.00422653 0.06633337 -0.0117496075 0.08405564 0.07268283 -0.029893354
0.011534735 -0.068796635 -0.05926023 0.054969236 0.07725727 0.038031515 0.11697146 -0.005582289
0.109563485 0.006880773 -0.02961772 0.04179469 0.039754793 0.010251765 -0.028817628 -0.052735656
-0.014227707 0.054225124 0.03955111 0.01791152 0.010201285 0.05323647 0.03607193 -0.037592538
-0.013101822 -0.06752834 -0.088429905 -0.007980912 0.030217906 0.12546362 0.036454193 -0.095959194
-0.03337049 -0.005505511 -0.0069569084 -0.046654265 0.02684189 -0.007129805 0.015011292 0.024766495
0.034273338 0.04789287 0.065268934 -0.0023484658 0.08923125 -0.046581615 0.104190245 -0.067418404
00000000: b649 a13d 47cc 673d 094c 94bd 860f 373c
00000010: 8a51 dd3b d43a 04bd 1b89 e4bc 219e 943d
00000020: 9e4c f63c a53a 1c3c 432b 5ebc 5fe1 f53b
00000030: 8e4a 123d 1fb2 6a3c b205 e93d 2ddb f93c
00000040: 9240 083d 6057 133d 2497 70bd 7489 f6bc
00000050: 1e17 88bd 1c37 bebd 92c9 81bc 60fb ca3d
00000060: ee4c a5bd 24b1 e53d 81f0 433c 3a7b 163d
00000070: 55fc b23d 6308 213d 2f89 bc3d 940e 253d
00000080: bec9 c23c de9f c03c 2668 883d ac67 a73d
00000090: cc39 a73c f083 413d 0323 433d cd26 8dbb
000000a0: 50bc 373d 3d66 45bd d5b6 debd c65b 87bd
000000b0: ed94 67bd 9dbd ab3d 1df9 e9bc 10ee 123e
000000c0: 75f3 da3d 7fdc d6bc cb5b 36bd 2b73 e23c
000000d0: 0cdd f83d 2478 863d f260 8e3d a5ce eb3d
000000e0: a0c4 b0bd 3f7a b23d 6b62 083e 59c6 a73d
000000f0: 22d3 0d3e c7df 2c3d 0942 a73c b540 99bd
00000100: 63d8 3f3d 4b40 cb3c 1891 003d 254d e03d
00000110: c9e2 7cbd 0dae 8ebd 1e86 523d ff7a b23c
00000120: 93fc c33c 29d8 a9bd b47e 8a3b cad9 873d
00000130: 6d81 40bc 5d25 ac3d bcda 943d e8e2 f4bc
00000140: 2ffc 3c3c 40e5 8cbd dbba 72bd 6c27 613d
00000150: 0f39 9e3d efc6 1b3d bc8e ef3d a2eb b6bb
00000160: d262 e03d 1c78 e13b dca0 f2bc e930 2b3d
00000170: ecd5 223d 05f7 273c f212 ecbc 5801 58bd
00000180: 541b 69bc 2a1b 5e3d 5800 223d 2ebb 923c
00000190: 4a23 273c 7c0e 5a3d 29c0 133d a2fa 19bd
000001a0: 06a9 56bc 4c4c 8abd bd1a b5bd 5fc2 02bc
000001b0: 8b8b f73c 8979 003e fe50 153d 4186 c4bd
000001c0: 7faf 08bd 9367 b4bb c7f6 e3bb 8b18 3fbd
000001d0: 86e3 db3c 24a1 e9bb ecf1 753c 1be3 ca3c
000001e0: 3362 0c3d 502b 443d b8ab 853d b8e8 19bb
000001f0: e0be b63d 5dcc 3ebd b261 d53d a912 8abd

fc3.weight f4 [4, 128]
0.10420186 -0.15960744 0.03840025 0.038500633 -0.08440211 0.08624072 0.19348632 -0.17366461
-0.091802 -0.0631883 -0.061898455 -0.024989298 0.262259 -0.17005412 -0.045298576 0.00040266998
0.13950877 -0.020497527 0.012878022 0.091434255 -0.11941621 -0.0056499084 -0.06336857 -0.024373138
-0.07016385 -0.21046638 -0.0012259352 -0.15079744 -0.27916545 -0.0058582444 0.0884232 0.27677792
0.1274596 -0.10403013 -0.13899153 -0.06533172 0.007830269 -0.02827349 -0.07447387 0.010582125
0.08259161 0.10868784 0.008076727 0.0016475327 0.041500524 -0.022636963 -0.0031430097 -0.003953744
-0.038207114 -0.022960484 -0.02480139 -0.04313803 -0.22936518 -0.022129975 -0.23837546 -0.029676242
0.119999856 -0.1288006 -0.0016477276 -0.053530734 0.2497176 0.07498499 -0.08685493 0.024068188
0.090324156 -0.12995183 0.10460832 -0.08555602 -0.011571318 0.080132015 -0.21035016 -0.21659902
0.071353875 0.027290907 -0.09175154 -0.12449512 -0.12534536 0.27042022 -0.12154273 0.08344814
-0.113427326 -0.036161568 0.083222136 0.10224356 -0.10518635 -0.051521964 0.17622933 -0.18425745
-0.10096648 0.0158936 0.077571906 0.04894309 0.068677105 -0.08987892 -0.111823276 0.041528463
-0.1363058 0.0046402174 -0.10784289 -0.0060715675 -0.0014296608 -0.157331 -0.16679986 0.13427421
-0.00481706 0.107878335 0.01641592 0.02153248 0.09566454 0.28547427 -0.16758093 0.107102305
-0.22366789 0.07557572 0.121730186 0.01699709 0.3811539 -0.29930952 -0.28703964 -0.1869538
0.037042394 0.029077591 0.040747583 -0.107767075 -0.09988631 -0.16443913 0.19733363 0.035442825
-0.008620762 -0.002178206 -0.056982554 0.052093703 0.34754407 0.03538793 0.35625777 0.02017619
0.10964223 0.04453025 0.017836954 -0.020843929 -0.16455445 0.030908445 -0.1351852 -0.069304995
0.117010884 0.012032734 -0.048670698 0.012577175 0.19259472 0.06304688 -0.049923837 0.033257224
0.08981566 -0.024114624 0.14019375 0.059162 0.0795106 0.038698867 -0.0023173906 0.09505042
0.1098825 0.029565632 0.0015626465 -0.067706406 0.09108918 -0.087434575 -0.035631865 0.07028943
0.0023773457 -0.0069881165 -0.01975736 0.114100605 0.09061315 -0.07842673 0.09982516 -0.050586533
0.13397591 -0.084320396 0.15993045 0.12008277 -0.06275966 0.06158295 -0.004906334 0.043481153
-0.08442907 -0.0014550054 -0.054007877 -0.052865613 0.034014646 0.18863933 -0.060309947 -0.04148504
-0.08759914 0.16154699 0.18417975 -0.04822854 -0.05775588 -0.003678033 -0.22940998 0.08956617
-0.06026733 0.16167173 -0.051932357 -0.0321194 0.11758831 -0.02645009 -0.049584195 0.27923566
-0.00419222 0.13405009 -0.17042553 0.089726105 -0.038467042 0.06499066 -0.14353673 -0.17641085
0.079692 -0.027469095 0.0943003 -0.015930975 0.12785621 -0.03862115 0.13078375 0.022554621
0.03477273 0.080152914 0.07666416 0.016115202 0.107049115 0.16084486 0.049163148 -0.040757414
-0.04335514 0.17391874 0.07345701 0.006217349 0.09296923 -0.036801033 -0.12031403 0.25982478
-0.07916111 -0.061130013 0.26771432 0.09651959 -0.06462379 -0.06410785 -0.11305937 -0.03881962
-0.04232542 -0.006989166 0.20870869 -0.036993228 0.06736922 -0.009773034 0.16035427 -0.05464761
00000000: c967 d53d 2270 23be 9549 1d3d d7b2 1d3d
00000010: 03db acbd f99e b03d 4721 463e 23d5 31be
00000020: b002 bcbd de68 81bd 3c89 7dbd 5bb6 ccbc
00000030: d046 863e ab22 2ebe 008b 39bd 731d d339
00000040: 63db 0e3e 6eea a7bc 57fe 523c e241 bb3d
00000050: 7c90 f4bd de22 b9bb 61c7 81bd 2daa c7bc
00000060: 11b2 8fbd 8084 57be 8faf a0ba a56a 1abe
00000070: c6ee 8ebe 84f6 bfbb 3917 b53d d6b5 8d3e
00000080: c584 023e c00d d5bd cc53 0ebe a3cc 85bd
00000090: 874a 003c ce9d e7bc c285 98bd a660 2d3c
000000a0: ca25 a93d bb97 de3d 4054 043c 06f2 d73a
000000b0: 74fc 293d 2771 b9bc f4fa 4dbb 698e 81bb
000000c0: 107f 1cbd a017 bcbc 492c cbbc 81b1 30bd
000000d0: b5de 6abe ec49 b5bc b218 74be 971b f3bc
000000e0: 7cc2 f53d 4ee4 03be 90f8 d7ba 0b43 5bbd
000000f0: f8b5 7f3e bb91 993d ffe0 b1bd a62a c53c
00000100: dffb b83d 1812 05be e33c d63d ff37 afbd
00000110: a095 3dbc 411c a43d 0866 57be 22cc 5dbe
00000120: fb21 923d 2e91 df3c 3be8 bbbd 4cf7 febd
00000130: 895a 00be 8574 8a3e 65eb f8bd dce6 aa3d
00000140: 964c e8bd 271e 14bd 5e70 aa3d 1265 d13d
00000150: f16b d7bd b208 53bd 7675 343e fcad 3cbe
00000160: 84c7 cebd 4c33 823c 05de 9e3d 8d78 483d
00000170: 95a6 8c3d 7012 b8bd 9a03 e5bd c019 2a3d
00000180: bf93 0bbe f70c 983b bcdc dcbd 00f4 c6bb
00000190: 7563 bbba 611b 21be 95cd 2abe 2e7f 093e
000001a0: 6ed8 9dbb 51ef dc3d ae7a 863c e264 b03c
000001b0: c5eb c33d af29 923e 569a 2bbe 7458 db3d
000001c0: 3209 65be 71c7 9a3d ad4d f93d 7b3d 8b3c
000001d0: 9b26 c33e 193f 99be dcf6 92be d170 3fbe
000001e0: c4b9 173d 2134 ee3c f0e6 263d fcb4 dcbd
000001f0: 3291 ccbd bb62 28be d411 4a3e 7f2c 113d
00000200: 193e 0dbc 3cc0 0ebb 8a66 69bd 3560 553d
00000210: 4cf1 b13e eff2 103d 6b67 b63e 8a48 a53c
00000220: 1b8c e03d 5a65 363d ce1e 923c e3c0 aabc
00000230: f680 28be b533 fd3c fd6d 0abe c7ef 8dbd
00000240: 67a3 ef3d f224 453c ed5a 47bd 7f10 4e3c
00000250: 8d37 453e b91e 813d f07c 4cbd ba38 083d
00000260: 46f1 b73d 088c c5bc f38e 0f3e da53 723d
00000270: 74d6 a23d b482 1e3d 5ddf 17bb cba9 c23d
00000280: 130a e13d a033 f23c b7d1 cc3a a8a9 8abd
00000290: f78c ba3d e610 b3bd b8f2 11bd e8f3 8f3d
000002a0: 3ecd 1b3b 92fc e4bb 30da a1bc 94ad e93d
000002b0: 6393 b93d 329e a0bd 2271 cc3d d333 4fbd
000002c0: fb30 093e 2cb0 acbd cfc4 233e f5ed f53d
000002d0: 2388 80bd 673e 7c3d 50c5 a0bb 4b19 323d
000002e0: 26e9 acbd e1b5 beba 5d37 5dbd 9d89 58bd
000002f0: f152 0b3d ab2a 413e 9007 77bd 38ec 29bd
00000300: 2e67 b3bd 936c 253e 9e99 3c3e 4a8b 45bd
00000310: 6e91 6cbd 270b 71bb 73ea 6abe 786e b73d
00000320: e0da 76bd 468d 253e 06b7 54bd a28f 03bd
00000330: 24d2 f03d dcad d8bc cc18 4bbd faf7 8e3e
00000340: e45e 89bb 6d44 093e 0884 2ebe 52c2 b73d
00000350: 9e8f 1dbd d319 853d 4bfb 12be 0ca5 34be
00000360: 8f35 a33d de06 e1bc 8420 c13d ad81 82bc
00000370: bdec 023e 3631 1ebd 2dec 053e 78c4 b83c
00000380: da6d 0e3d 3627 a43d 1902 9d3d 0704 843c
00000390: 913c db3d 84b4 243e 4c5f 493d 3ff1 26bd
000003a0: 2995 31bd c117 323e a170 963d e7ba cb3b
000003b0: a766 be3d aebc 16bd 3467 f6bd c107 853e
000003c0: 381f a2bd 7763 7abd da11 893e 10ac c53d
000003d0: 7a59 84bd fa4a 83bd ac8b e7bd 5201 1fbd
000003e0: 6b5d 2dbd 6005 e5bb bbb7 553e 3686 17bd
000003f0: e0f8 893d 131f 20bc e933 243e 2cd6 5fbd

fc3.bias f4 [4]
0.042149145 -0.018136702 -0.005333797 0.0016458521
00000000: 95a4 2c3d 6c93 94bc 22c7 aebb a2b9 d73a
