agent_critic.pth (torch_old, 61535 bytes, 8 tensors)

fcs1.weight f4 [128, 33]
00000000: be3f 323e 0000 e739 a01d 2fbc b832 15be
00000010: 50c7 02bc a468 1fbd 5810 933d ffd1 c0bd
00000020: e4c9 ae3d a84a 83bc 4904 88bd 3a27 09be
00000030: 569d 78bd e06b 97bc 1da9 babd b86d 063e
00000040: 0c62 213d 4861 e23c 6448 f83d 009d e63b
00000050: 84d9 afbd e66b 133e 1e45 cdbd 700c 02bd
00000060: beb6 13be ac14 ec3d 3c6c 623d 94d3 40bd
00000070: 99b6 85bd d85d 293e 00d2 bcbb e0f0 d6bb
00000080: 64d1 0cbd 2038 283c 7692 01be 3890 303e
00000090: 05e5 bbbd 75ab b1bd 6884 213e f007 623d
000000a0: 36fc 113e 4264 923d 48a3 0cbd fc0c ab3d
000000b0: 20e5 b23c c0df c9bc 6deb 8abd 4a31 023e
000000c0: 0898 c63d 98c6 f5bc a845 9e3d 9c04 193e
000000d0: 80f1 783b 7c57 253d da80 2d3e 5a8f 87bd
000000e0: def7 2abe 24ba 523d afc2 b8bd f422 293d
000000f0: ec88 4abd e078 903c 3c61 ffbd 3df8 abbd
00000100: 9464 673d ac3e 203e b09c 643d 4d8b abbd
00000110: d46d 92bd 2c63 103d 60a3 063e 144b 22be
00000120: 38c5 67bd 65b9 b8bd 64b9 1b3d 9777 21be
00000130: 002a 763d 54b1 2f3e 3069 efbd f4f9 bd3d
00000140: 1484 f03d ef4e 81bd 8cff ea3d fa84 28be
00000150: 65fb 17be 854e 1ebe aa5b 07be 9420 32be
00000160: 0474 e13d 1c37 a53d 6450 6e3d 3c62 2fbd
00000170: 5673 88bd e0c9 453c 7cb2 6d3d d8cf 303d
00000180: d0b4 9a3c 1026 7d3c 4847 b63d 189b d83d
00000190: d8f3 22bd 3cc6 173e dcf2 9b3d 8e01 0d3e
000001a0: 0e5f 99bd 68c1 ff3d 7cea 5dbd 30b8 93bc
000001b0: b4d9 87bd 0003 b73c b6b1 143e 246d a93d
000001c0: 10c9 8e3d c416 10bd e8fc 01be f095 22bc
000001d0: c094 bebc fc0b ab3d 631b cbbd 208d c93d
000001e0: c461 643d 5050 143d 7012 2d3d 25fa 03be
000001f0: e464 533d 0a18 323e 48ed 7d3d d609 183e
00000200: d6c0 2dbe a82a a63c de4a 9fbd 0974 adbd
00000210: a376 2abe b0b2 dabc 031c 12be 605a 393c
00000220: 0843 843c 8d98 04be c01c b73d 00d9 0d3e
00000230: 74af e33d e0ba e4bd a8bb dcbc ed89 19be
00000240: 5662 853d 2128 0dbe 98e3 09be 4887 053e
00000250: 00aa 3bbb 1478 b93d 4c01 3bbd 500e 8e3c
00000260: 92aa 72bd d003 50bc 6c2a 6f3d f02d 133d
00000270: 9290 25be 80b4 12be e8ff d23c 5cc5 2e3e
00000280: b038 a33c 5035 1bbc 0827 3cbd 8459 023e
00000290: 6ccd 143e 1814 d03d e0d5 f53d b668 853d
000002a0: c381 1abe 2c10 06be d772 00be fc18 f63d
000002b0: 80b6 ddba fcc5 ea3d d96b 24be a06c df3d
000002c0: 40fc 11be 20aa 07bc 5d7b 18be 636f e7bd
000002d0: 4095 933d 07e8 00be b099 7b3d a075 7f3d
000002e0: 4441 343d dcd9 bf3d 40a5 e2bc 287a e3bd
000002f0: 1013 f5bc cc15 37bd a08f 7a3c 4448 4d3d
00000300: e8a4 e93d 7f29 25be 44cc c6bd 5170 23be
00000310: c4cb 96bd ec7b 253e cc81 c6bd 905b 5b3d
00000320: f241 c7bd 628e 013e 6dcc 22be 90b0 81bc
00000330: b2d3 c5bd 056e 1fbe a141 17be 1277 5ebd
00000340: 3e94 0c3e 8486 d43d 8c8f a93d 1868 163e
00000350: e011 603d 588d db3d d854 953d 602c 423c
00000360: f065 59bc 90ee d73d 61e6 bfbd 786b 86bc
00000370: e23d 013e 2e20 e3bd 00e3 c63d f021 e73d
00000380: f4b9 543d e753 9abd d4e9 79bd d431 473d
00000390: dece e0bd 2c7f a63d cc18 ed3d 7081 d23c
000003a0: 4e27 fcbd 9ab0 e0bd de81 0fbe a4b1 3cbd
000003b0: b447 4d3d 5cfd 0d3e 0040 4a39 366c 0cbe
000003c0: d85c 433d 320e 803d a0c6 1b3e 7cbb 043d
000003d0: e0dd e7bc 38b7 f3bd e83d e23d 38dd 033e
000003e0: 44a6 2e3e 3c6e b33d 8850 adbd 5ae0 15be
000003f0: b0b9 603d 9638 84bd dc60 fb3d f4a4 9c3d
0.17407128 0.00044059753 -0.0106882155 -0.14570129 -0.00798209 -0.038918152 0.07180852 -0.094150536
0.08534601 -0.01602681 -0.06641442 -0.1339387 -0.060696922 -0.018484056 -0.09114287 0.13127792
0.039400145 0.027634278 0.121231824 0.007037759 -0.0858641 0.14396629 -0.10022949 -0.031750143
-0.1442518 0.1152738 0.055279 -0.047076777 -0.06528968 0.16539705 -0.0057623386 -0.0065594763
-0.034379378 0.0102672875 -0.12653527 0.17242515 -0.091745414 -0.08675281 0.15773165 0.05518335
0.14256367 0.07148029 -0.034335405 0.08352086 0.021837771 -0.024642825 -0.06783185 0.12714115
0.096969664 -0.030001923 0.077281296 0.14943165 0.0037985742 0.040366635 0.16943684 -0.06619139
-0.16696116 0.05144705 -0.09021508 0.0412931 -0.049446985 0.017635763 -0.12469718 -0.08396957
0.056492403 0.15648907 0.05581349 -0.08376179 -0.07149854 0.035250828 0.1314826 -0.15848953
-0.056584567 -0.09019736 0.0380186 -0.15768276 0.060098648 0.17157489 -0.11689985 0.092761904
0.11743942 -0.063138835 0.11474523 -0.16456977 -0.14841993 -0.1545964 -0.13218561 -0.1739524
0.11008456 0.08067152 0.058182135 -0.042818293 -0.066626236 0.0120720565 0.058031544 0.043166965
0.018885046 0.015450969 0.089003146 0.10576457 -0.03978333 0.14821714 0.07614681 0.13770124
-0.07488833 0.12488061 -0.0541787 -0.018032163 -0.066333205 0.022340298 0.14520916 0.0827277
0.069719434 -0.03517796 -0.12694132 -0.009923443 -0.023264289 0.08351895 -0.09917333 0.098413706
0.0557573 0.036209404 0.04225391 -0.12888391 0.05160989 0.17391983 0.061993867 0.14847502
-0.16968092 0.020284012 -0.07777952 -0.084693976 -0.16646819 -0.026696533 -0.14268498 0.011313051
0.016145244 -0.12948819 0.089410305 0.1385231 0.111174494 -0.11168456 -0.02694495 -0.14994021
0.06512897 -0.13784839 -0.13465726 0.13039887 -0.0028635263 0.09056106 -0.045655534 0.01734081
-0.0592447 -0.0126962215 0.058390066 0.03593248 -0.1616843 -0.14326668 0.025756791 0.17067474
0.019924492 -0.00947316 -0.04593566 0.1272946 0.14531487 0.101600826 0.12003684 0.06514113
-0.15088563 -0.13092107 -0.12543808 0.12016484 -0.0016915351 0.11463544 -0.16056766 0.109093904
-0.14256382 -0.008280307 -0.1489081 -0.11300542 0.072062016 -0.12588511 0.061425865 0.062368035
0.044007555 0.09367725 -0.027666688 -0.11107284 -0.029916316 -0.04469852 0.015293032 0.050117746
0.114084065 -0.16129111 -0.09706929 -0.15960814 -0.07363084 0.16160554 -0.096927255 0.053554118
-0.09729375 0.12651971 -0.15898295 -0.015831262 -0.09659518 -0.15569313 -0.14771129 -0.054312773
0.13728425 0.10377219 0.082793325 0.14688146 0.054704547 0.107203186 0.07291573 0.0118514
-0.013268933 0.10543549 -0.09370113 -0.016408667 0.12621263 -0.11090122 0.097112656 0.1128577
0.05193515 -0.07535534 -0.06101401 0.048631504 -0.10976957 0.08129725 0.11576995 0.025696486
-0.12312184 -0.10971184 -0.14014384 -0.04606785 0.05011721 0.1386618 0.00019288063 -0.13713154
0.047695965 0.062527075 0.15212488 0.03240536 -0.02830404 -0.119001806 0.11046964 0.12877357
0.17055613 0.0876126 -0.08462626 -0.14636365 0.054864585 -0.064561054 0.12274334 0.0764865

fcs1.bias f4 [128]
00000000: 56bf c8bd 041b 1e3d 06e7 1cbe 602c 82bb
00000010: fca1 413d cc98 f53d 3c6c ce3d aff6 20be
00000020: b8a9 243e 60c2 fe3c 3fae 2fbe b4a7 203e
00000030: 0857 fabc a0d6 95bc e7d8 03be 3eec 63bd
00000040: d226 f7bd c09a 87bb ea05 0d3e 6673 86bd
00000050: 805f b5ba ecc6 783d 7885 f33d 8b99 b3bd
00000060: a60e b5bd 087d c83d d04c 2b3e b6c6 1c3e
00000070: b456 f43d 4cb9 2abe fcfc 74bd baec 06be
00000080: c8f8 8a3d 70a8 f43c 3077 67bd 0f7a 1abe
00000090: 45f9 adbd b034 22bc 5011 393c 5c10 afbd
000000a0: 149e fe3d 349d 143e 26e4 1c3e 1c46 203d
000000b0: 0029 b63c d67a 04be 3c68 e53d 1064 003d
000000c0: c01c 9d3d d85b 783d fe1b 203e b179 22be
000000d0: b82b 1abd b471 133e 6054 7d3c 5c8c e93d
000000e0: 7013 eb3c 6c08 b63d 48bc 17be a851 da3d
000000f0: f326 bbbd 1ebf 0bbe 69b8 03be 604f 62bc
00000100: f03d 773d 3089 583c d4fd e1bd a416 23be
00000110: a246 0bbe 0cc5 113e fa95 003e 90c6 ec3d
00000120: d01b 4dbc 72c3 2fbe 007c 44b9 50f3 ea3c
00000130: 440b 1b3e b6d6 1cbe 9d2a 23be acf3 9f3d
00000140: 04f8 ea3d 884b 49bd c8b3 89bc 5492 a33d
00000150: 7c38 c2bd 0850 8cbd 348b 2e3e 4cb5 0a3e
00000160: 1006 a2bd 884a b33d a86c 9e3d f2ef 0b3e
00000170: 6a89 e4bd 9b0e 06be 7ca6 2e3e 8b1b 83bd
00000180: 3a9d 0c3e 8488 ad3d 830c ddbd 52e2 8ebd
00000190: b801 213e 2a7e 183e d0a2 6abc 149d 043d
000001a0: 10dc b63c 14c0 d93d e0ce 49bd ca9c 8f3d
000001b0: 6095 c53d 1484 223e 761e afbd 0034 0d3a
000001c0: 4682 933d 5626 213e b256 f7bd 6573 b2bd
000001d0: 0e80 123e 9ed8 21be 6808 29bd 0cd2 06bd
000001e0: 584e 8abc 101e 1a3e f09d 2bbe 285f 983c
000001f0: d8e1 e4bd 0472 ee3d 00d9 f13b c027 89bb
-0.098021194 0.038599983 -0.15322503 -0.003972575 0.04727362 0.11992034 0.10079238 -0.15719102
0.16080368 0.031098545 -0.17156313 0.15688974 -0.030559078 -0.018290818 -0.1287571 -0.05564522
-0.12067951 -0.0041383207 0.13771787 -0.06564979 -0.0013837665 0.06073658 0.118906915 -0.0876952
-0.088406846 0.09789473 0.1672852 0.15310177 0.119306 -0.16672248 -0.059811577 -0.13176242
0.067857325 0.029865474 -0.05651015 -0.15085624 -0.0849481 -0.009900257 0.0112956315 -0.08548042
0.12432495 0.14513093 0.15321407 0.03912936 0.022236347 -0.12937483 0.11201522 0.031345427
0.07671499 0.060634464 0.15635678 -0.15866734 -0.03763935 0.14398843 0.015462011 0.114037246
0.028695792 0.08888325 -0.14817917 0.10660106 -0.09138288 -0.13647124 -0.12863316 -0.01381287
0.060361803 0.013216302 -0.11034742 -0.15926605 -0.13601163 0.14235324 0.12557212 0.1156131
-0.012518838 -0.171644 -0.0001873821 0.028680474 0.15141016 -0.1531628 -0.15934224 0.078101486
0.114730865 -0.049144298 -0.01680936 0.07986894 -0.0948343 -0.06851202 0.1704529 0.13545722
-0.079113126 0.0875445 0.07735568 0.1366575 -0.11159022 -0.13091509 0.17055696 -0.06401738
0.13731852 0.08473304 -0.10793402 -0.06976761 0.15723312 0.14891878 -0.014321044 0.032376364
0.02232173 0.10632339 -0.049269557 0.07012327 0.09647632 0.15870696 -0.08550732 0.0005386472
0.07202582 0.1573728 -0.12077083 -0.08713416 0.14306661 -0.15805289 -0.041267782 -0.03291516
-0.01688306 0.1505053 -0.16759467 0.018600062 -0.11175889 0.116428405 0.0073806047 -0.004185647

fca1.weight f4 [32, 4]
00000000: 6665 d9be 06bb 853e 9042 09be e8e5 b73e
00000010: 8462 1abe 2e99 ecbe 52c9 b63e d8fa 7cbe
00000020: 781c f6be 92df aebe 9cc3 a7be c4d4 b73e
00000030: d8fa ed3e b0fc 923d 2428 a7be 90fe 50bd
00000040: c0fa da3c e0ac c9bc 2860 da3e b4b5 d0be
00000050: 8e6a 9bbe 1085 e8bd 820c d6be 94a2 a5be
00000060: 6cf2 993e 50dc 7cbe f0f5 d93d 3479 ab3e
00000070: 308b babd 50b0 0b3e 0ccc 1f3e f496 a0be
00000080: 5cc4 abbe 2078 d8bc b6d3 b03e 00cf acbd
00000090: 9c52 51be 9c86 d83e 5aa5 c33e 7c0f 063e
000000a0: 20d0 993e 809e 8b3c f8bb ed3e a428 ccbe
000000b0: 804e d2bb e074 e83c 508c 0a3d 3e0a a2be
000000c0: 5001 a6bd 70a3 e93e 9829 fbbe caeb 8abe
000000d0: 1077 013e ac27 24be 7878 d7be 98cd d8bd
000000e0: fc93 3c3e 0872 26be 6012 283d 8023 f8be
000000f0: 741b 05be 56b6 ab3e 8048 d1bc a25e d03e
00000100: cab0 b9be 68cf 153e 28c3 ad3e 5026 7dbe
00000110: 4c71 f73e 4062 013c aec1 a63e 3067 d4bd
00000120: 300f 15be e6b7 f6be aa78 b9be c8b7 8dbe
00000130: f051 4e3d e0bb 8e3c 3837 163e 702d 413e
00000140: 9448 efbe f832 38be 3cac 8d3e bc18 a3be
00000150: b4d7 cebe 6816 d8bd ec8f dd3e 0085 103b
00000160: d8b0 86bd 44d9 073e 841d 3ebe 0805 253e
00000170: a03f df3c d841 ff3d f0fa 483d 7022 bfbe
00000180: a805 95bd e0d6 c03d 3a5f 9c3e 08bf 843e
00000190: 10fb f73d a86e e6bd 4c1b 1c3e 50d8 6fbe
000001a0: 7c89 c23e 803b 043e f4c3 8fbe d42e 6dbe
000001b0: e829 49be 5262 de3e 20d1 82bc 8e7c bfbe
000001c0: 4ad8 943e f4b9 123e 8e0b 85be 9ac0 d53e
000001d0: 5ca6 733e d01e ff3d 806e bf3b 80b1 963d
000001e0: ca7b ae3e 60f1 c33d 7aed bd3e 6019 47be
000001f0: ea7a ae3e f6da c0be e43a 2c3e 80c7 4cbe
-0.42460173 0.2611925 -0.13404298 0.35917592 -0.15076643 -0.46210617 0.3570047 -0.24705064
-0.48068595 -0.34154946 -0.32766426 0.35904515 0.4648044 0.071771026 -0.32647812 -0.05102402
0.026730895 -0.024618566 0.42651486 -0.40763628 -0.30354732 -0.11353505 -0.41806418 -0.323506
0.30067766 -0.24693418 0.10642612 0.33490908 -0.09108579 0.13641477 0.15605181 -0.31365168
-0.33548248 -0.026424468 0.34536523 -0.084379196 -0.20441669 0.422902 0.3821209 0.13091844
0.300416 0.017043352 0.4643247 -0.39874756 -0.0064180493 0.028376043 0.03382522 -0.3164844
-0.08105719 0.45632505 -0.4905517 -0.27133018 0.12643075 -0.16030759 -0.42084098 -0.10586089
0.18415827 -0.16254437 0.04103315 -0.48464584 -0.12998754 0.3353755 -0.025547266 0.406972
-0.36267692 0.146299 0.33937955 -0.24721646 0.48328626 0.00789696 0.3256964 -0.10371244
-0.14556575 -0.48187178 -0.36224872 -0.27679276 0.05037111 0.01742357 0.14669502 0.1886499
-0.4673506 -0.17988193 0.27670467 -0.31854808 -0.40398943 -0.10551149 0.43273866 0.002205193
-0.06576699 0.13266474 -0.18565947 0.161152 0.027252018 0.124637306 0.049067438 -0.3733096
-0.072764695 0.09415984 0.30541402 0.25926995 0.12108433 -0.11251575 0.15244788 -0.2342236
0.37995517 0.12913322 -0.28079188 -0.23162395 -0.19644892 0.43434387 -0.01596886 -0.37399715
0.29071265 0.14328748 -0.25985378 0.41748506 0.2379393 0.12457049 0.00584203 0.07358074
0.3407882 0.09567523 0.37095243 -0.19443274 0.3407815 -0.37667054 0.1681934 -0.19997978

fca1.bias f4 [32]
00000000: 204f 37bd 70a6 183e 5c61 c3be c022 763d
00000010: 0ebd c93e 52b7 a83e 4cdb e13e 64f7 913e
00000020: 1823 fc3e ca7b 9abe 3ae5 ca3e 507e b73e
00000030: 00d2 353d 74a0 9e3e f055 1e3e 6848 79be
00000040: 2c70 9c3e fc37 aabe 0028 2f3c dc1c cc3e
00000050: 44bb 7fbe 408d bf3e e806 dabd f8df ca3e
00000060: 404f 97bc d0ea 2ebe be9d ac3e 3a33 e7be
00000070: 3000 4fbe 88ff 9dbd e447 cfbe 3001 0f3d
-0.044753194 0.14907241 -0.38160217 0.060091734 0.3940205 0.32952362 0.44112623 0.28509057
0.49245524 -0.3017257 0.3962801 0.35838556 0.044389725 0.3098179 0.1546247 -0.24344027
0.3055433 -0.33245838 0.010690689 0.39865768 -0.2497378 0.37412453 -0.106458485 0.39624
-0.018470407 -0.17081761 0.33714098 -0.4515627 -0.20214915 -0.07714754 -0.40484536 0.034913242

fc2.weight f4 [64, 160]
00000000: c12e 953d 00f4 153a 5e66 2fbd f066 963b
00000010: 6448 dc3c 7cf8 1fbd f044 673c 1cfc 2fbd
00000020: 6cf8 ab3c e0c5 5bbb 8aca 3b3d 21c4 59bd
00000030: 75c3 24bd 73a6 95bd 08bf 4cbc 888e 2d3d
00000040: 4e3f 043d 941d f0bc 7372 62bd a599 973d
00000050: 30a6 393d c64e 81bd 8628 0c3d baa1 4b3d
00000060: e2c7 95bc f1e8 873d ae2e 3d3d 0004 83ba
00000070: 0aed 253d e46e 113d d09a 67bc d950 8abd
00000080: 8f23 01bd 48fc 50bc e6e3 213d 40e9 dc3b
00000090: 907a 74bd 0ef7 5d3d bb65 963d a617 513d
000000a0: 7ed4 533d ccac debc b6b1 4e3d a0cc 843c
000000b0: d6df 383d fc2d be3c 5f96 15bd 2e7c 6bbd
000000c0: 04c7 bc3c 10d4 32bc 04b4 b2bc 7f1a 953d
000000d0: 79a4 8d3d 5c70 82bd 4278 93bc f5be 1dbd
000000e0: 47be 8bbd 52c0 03bd 31c0 38bd e12a 863d
000000f0: 8064 153d fa76 6c3d d071 c9bc d8b2 febc
00000100: b07b ccbb c0c0 cf3b 90ac 77bc 6c81 9c3c
00000110: 4827 97bd 4017 003c a801 2d3d d83d 2e3d
00000120: 1e51 593d 7e43 c4bc cc33 0bbd 0135 9ebd
00000130: 40a7 d93a 6657 88bc 20c1 023b 6073 55bd
00000140: fcf2 5fbd 3672 9abc b014 71bd eb3e 903d
00000150: 9d64 8c3d b881 353d 8ed6 443d 32ac 553d
00000160: 026c 7c3d 58a3 acbc b8b5 a1bd d478 4bbd
00000170: e2de 77bd 00c9 d53c 7430 73bd dec7 633d
00000180: 081a 2d3d 60e8 9f3b 2f56 21bd f9a6 8bbd
00000190: d6b3 29bd 669f 4d3d 4640 9ebd c056 523b
000001a0: 3f4f 9ebd f23c 183d 5230 323d a2df 793d
000001b0: 27c8 43bd 66f6 4c3d d541 8f3d d845 febc
000001c0: dead 293d 4fb2 90bd 68c1 a6bc a30a 913d
000001d0: 3059 c33b 7c49 abbc 8045 5e3a fe03 4c3d
000001e0: 401f 80bd 05ec 973d 48fe a93c 9bce 2cbd
000001f0: d288 dabc 6384 80bd 410a 91bd 181c f63c
00000200: 971b 83bd 26f3 d3bc 0098 b5ba e60a a0bd
00000210: 518a 833d c45f 193d a6c7 fabc e080 8abb
00000220: 251c a03d 6802 123d ebd4 983d 0e54 79bd
00000230: 58e0 22bc 60e0 70bc 56a8 80bd cac6 5d3d
00000240: d232 703d 54b9 31bd 8969 10bd 2ccb 3abd
00000250: c4da fe3c 031d 9fbd 00e4 31bc e082 69bb
00000260: 42cd 9ebd 6069 26bd b1d2 8fbd 80c9 63ba
00000270: 92cd 4e3d 2f5d 20bd 4267 553d b4fe 36bd
00000280: e872 26bc 807c 9fbc cfd2 a0bd ed7e 963d
00000290: 23df 17bd 7e85 3d3d e6bb 623d 44fc a3bc
000002a0: 7a3f 47bd 6cbc 53bd 499b 843d e8e2 1bbd
000002b0: 92ed d8bc 6517 8b3d a0bf 143b 50de 0e3c
000002c0: 392f 10bd 6c52 12bd 744a 48bd f6aa 243d
000002d0: 2959 8bbd b0a0 3f3c 122b a8bc 7a0f 6ebd
000002e0: 6004 b9bc 84bc 223d d63a 583d 0066 09ba
000002f0: 2cf9 cbbc ba87 92bd 0e59 4e3d 0ac7 753d
00000300: d79d 813d 0344 933d e0b8 f2bb 4ec4 133d
00000310: 0fa5 9b3d b615 8cbc e433 bd3c ea72 223d
00000320: 30a1 16bd 00cd 8f3a c6b3 4b3d aae2 74bd
00000330: 76d7 70bd 5241 8abd 094c 863d 2917 3abd
00000340: 3ae7 05bd 1243 7e3d f02a f6bc f7bf 9b3d
00000350: 1a78 6b3d 80a4 c33a 8b27 99bd cf41 863d
00000360: 5204 603d 187d 19bc 2269 553d b642 85bd
00000370: 489e 75bc e42f 80bc a3fa 953d 18fb 7fbc
00000380: 6c23 2abd 260d 623d 1864 4e3c 6e0a fabc
00000390: 0e84 793d 6c87 eb3c ca5e 6c3d d529 94bd
000003a0: a6df 94bc b409 7bbd 4057 833a 9d2c 993d
000003b0: 1541 853d 7244 7c3d 4ab4 733d 4014 75bd
000003c0: 2a62 5d3d c01f 733c 205d d5bb 53e9 92bd
000003d0: ac83 883c 8072 7abd a013 1b3c c80d 213c
000003e0: 528d 1a3d f74c 813d 7e31 643d 2037 a4bc
000003f0: fb4f 93bd c71e 90bd 0a21 9abc b426 d23c
0.07284308 0.0005720258 -0.042822234 0.004589908 0.026889987 -0.039055333 0.014115557 -0.04296504
0.02099248 -0.003353469 0.045847453 -0.05316556 -0.040225465 -0.07307138 -0.012496717 0.042372257
0.032286935 -0.029310979 -0.05528493 0.07402352 0.045324504 -0.06313853 0.034218334 0.04971478
-0.018283788 0.06636227 0.046187095 -0.0009995699 0.04050926 0.035506144 -0.014136031 -0.06753702
-0.031528052 -0.012755461 0.03952398 0.0067416728 -0.059687197 0.054190688 0.07343622 0.051047944
0.05171632 -0.027182005 0.050462447 0.016210854 0.04513534 0.023215286 -0.03652036 -0.057491474
0.023044117 -0.010914817 -0.021814354 0.07280444 0.06916136 -0.06369087 -0.01800168 -0.03851219
-0.06823402 -0.032165833 -0.045105163 0.06551147 0.036472797 0.057730652 -0.024590403 -0.031091139
-0.0062403306 0.0063401163 -0.015116826 0.019104682 -0.07380539 0.007818043 0.042237908 0.042539448
0.053055875 -0.023957964 -0.033984944 -0.077249534 0.001660563 -0.016643237 0.0019951537 -0.052111983
-0.054675087 -0.018853288 -0.05885762 0.07043251 0.06855128 0.044313163 0.048056178 0.05216617
0.06162644 -0.021073982 -0.07895988 -0.049675778 -0.060515292 0.02609682 -0.05937238 0.05561053
0.042261153 0.004879996 -0.03938883 -0.06818957 -0.04143127 0.050200842 -0.07727103 0.0032095164
-0.07729959 0.037167497 0.043503113 0.06100429 -0.047798302 0.05003967 0.06994978 -0.031039163
0.04142558 -0.0706526 -0.020355895 0.07082107 0.0059615597 -0.020909064 0.0008478984 0.049808495
-0.062559605 0.07418064 0.020751134 -0.04218922 -0.02667657 -0.06275251 -0.07082034 0.030042693
-0.06401747 -0.025872778 -0.0013854504 -0.07814579 0.06422866 0.037444845 -0.030612778 -0.004226789
0.07817868 0.035646826 0.07462486 -0.060871176 -0.009941183 -0.014701933 -0.062821075 0.05414466
0.058642216 -0.043389633 -0.035256896 -0.045603916 0.031110175 -0.077692054 -0.010857582 -0.0035630986
-0.077539936 -0.040627837 -0.07022608 -0.00086893886 0.050489016 -0.039151367 0.052100427 -0.044676498
-0.010159232 -0.019468546 -0.078527085 0.07348428 -0.037078034 0.046269886 0.055354975 -0.02001775
-0.04864452 -0.051693365 0.06474931 -0.03805819 -0.02648047 0.067915715 0.0022697225 0.008719996
-0.035201285 -0.035723135 -0.04889913 0.040202104 -0.06804115 0.011696026 -0.02052835 -0.05812023
-0.022585094 0.039730564 0.052790485 -0.00052413344 -0.024899088 -0.07154794 0.050377898 0.06000427
0.06328934 0.071907066 -0.0074072927 0.036075883 0.07599842 -0.017100196 0.023096032 0.03966037
-0.036774814 0.0010971129 0.049731992 -0.059786476 -0.05879923 -0.0675074 0.06557471 -0.045432243
-0.032691218 0.062075682 -0.030049771 0.07604974 0.057487585 0.0014926344 -0.07478245 0.06555521
0.05469162 -0.009368204 0.052102216 -0.06506865 -0.0149913505 -0.015647836 0.07323196 -0.01562383
-0.041537687 0.05518832 0.012597106 -0.030522551 0.060916953 0.028751098 0.057707585 -0.07234541
-0.01817305 -0.06128855 0.0010020509 0.074792124 0.06506554 0.061588712 0.05949811 -0.059833765
0.054048695 0.014839113 -0.0065113455 -0.07173409 0.016664349 -0.061144352 0.009465128 0.009829946
0.03773243 0.06313508 0.055711262 -0.020045817 -0.071929894 -0.0703712 -0.018814582 0.02565322

fc2.bias f4 [64]
00000000: 7e62 1abd 753e 9f3d e027 3bbc c2b1 673d
00000010: fe35 3e3d 045e c63c 0018 173b b590 913d
00000020: a408 093d 227f bcbc 3c63 82bd 004d c63a
00000030: ed22 9f3d 8202 393d e283 49bd 9c97 df3c
00000040: 707f d1bc f442 1e3d d112 813d 6665 1abd
00000050: b0cf eebb b0cb fcbb 4269 283d d365 8a3d
00000060: 7c91 063d a62c 493d b691 2ebd 3871 8f3c
00000070: e852 a63c 644c 803c 2052 703c 7618 fdbc
00000080: 2fdb 04bd a5e9 9a3d 26a5 0d3d dcad c73c
00000090: 241e 1f3d 92a6 6d3d 9490 72bd 001f b23b
000000a0: 49f9 02bd 00a6 a63b 68a8 1d3d 0098 84bd
000000b0: 38d5 9c3c 7ee7 223d 2013 78bb bad9 123d
000000c0: d79b 913d 3062 42bc 2f4e 9a3d 14eb 96bd
000000d0: c018 923b 8452 cc3c 05f8 9bbd d575 983d
000000e0: 001b 163d d012 09bc ec61 ff3c bd09 35bd
000000f0: 8a80 473d 80ed 823a 1849 22bd e8e2 7bbc
-0.037691586 0.077755846 -0.011423081 0.056566007 0.04643821 0.024214752 0.0023055077 0.07107679
0.033455506 -0.02300984 -0.06366584 0.0015129149 0.077703334 0.045168407 -0.04919804 0.027293973
-0.025573462 0.03863807 0.06302417 -0.037694357 -0.007287942 -0.007714711 0.041116007 0.06757703
0.03285359 0.049114846 -0.04261943 0.017510042 0.020303205 0.015661426 0.014668018 -0.030895453
-0.032435592 0.075640954 0.034581326 0.024374895 0.038847104 0.058020182 -0.05921991 0.0054358244
-0.031976018 0.0050857067 0.038490683 -0.06474304 0.01914464 0.03977155 -0.0037853196 0.03585217
0.07109802 -0.01186423 0.075344436 -0.07369056 0.004458517 0.02494169 -0.07615665 0.0744435
0.036646843 -0.008366302 0.031174622 -0.04419874 0.04870657 0.0009988993 -0.03962049 -0.015373923

fc3.weight f4 [4, 64]
00000000: a014 aabb 807d 323b 5cde f1bd eab3 e73d
00000010: e0e1 06bc c202 debd 9095 3d3d ccdd 153d
00000020: 249f a93d 56b6 d0bd 70cc 17bc e601 c53d
00000030: 286e 81bc 54db e7bd a436 4fbd 0057 1a3b
00000040: f8d3 e0bc c079 c83d b824 da3c 7441 0f3d
00000050: 7827 be3c 1cfd 56bd 884c b43c deb4 b7bd
00000060: faec 9f3d 0cf8 1cbd 66df a83d 3c5c 0bbd
00000070: 8067 efbd e47a 5e3d eee7 9cbd 1845 5cbd
00000080: e00e a8bc 00a1 7cbd 58f6 8fbc a4c3 a43d
00000090: 089a 9fbc 5e31 dabd 1083 4abd 1613 e53d
000000a0: 5cdc c8bd c099 523d c0b9 28bc 6acf c73d
000000b0: 64c9 e53d de29 913d fac8 dfbd 8a37 cf3d
000000c0: f8e4 90bd 4832 eabd 10d1 3a3d 98e0 f5bd
000000d0: 784c d03c 2448 d1bd 608a fabb 34f8 78bd
000000e0: b272 be3d 4854 ba3d 1029 db3d 4061 56bd
000000f0: 7062 be3c 4a55 da3d e06c b4bb d2d7 b33d
00000100: 7a22 e5bd 2e8d c03d 5007 aabc 2060 b2bc
00000110: 0cac 20bd 9833 e23d 6216 afbd ae9b f33d
00000120: bc36 df3d b460 c6bd b29f aabd 38d8 cfbd
00000130: 48ec 7f3d 48ab 1f3d ec32 5abd 348b d0bd
00000140: 8085 04bd 7093 4f3d 142e d63d 0880 9cbc
00000150: 40c4 0bbc 3006 a1bc 5642 b7bd 6cb5 ebbd
00000160: c407 3a3d 00d1 493a 7096 2fbd 7230 fc3d
00000170: ca5c f93d 0872 b5bc 8089 ed3d 0c0f f53d
00000180: 3423 9f3d 96bb de3d f8d6 7bbd 1690 893d
00000190: a4a1 1fbd 641b 433d a0ad 8cbb 28b4 143d
000001a0: f890 213d ec78 8dbd d2a7 ae3d 883f fd3c
000001b0: 1023 efbc 805b 18bb b832 a9bc 9e66 a0bd
000001c0: feec e33d 1053 c03c 5633 e0bd b8a3 f83d
000001d0: 40f2 3abc d8bf 5c3d 30b9 363c 00ec 44ba
000001e0: 0ca8 5fbd da92 e4bd d639 a7bd be30 ec3d
000001f0: 28eb 743d 1c17 74bd 7e79 efbd 102c 95bd
00000200: 9083 8bbc 6c03 ef3d 6e55 893d 2ce3 02bd
00000210: fc9a 4e3d 9e07 f53d 086f ecbc d436 e7bd
00000220: 507b 0fbc d407 61bd fc7f 513d 2a7d e0bd
00000230: 50db 043d 34b2 9c3d 3072 23bc 5c80 a23d
00000240: f875 ed3d 96e1 893d 8064 f93b bc0a 2ebd
00000250: 7897 de3d a0c0 7f3c e0ae 7fbd 12c0 c73d
00000260: d039 3bbd 8ed7 96bd ea79 963d 00cf 7bba
00000270: 9405 cc3d 8270 cc3d 507c 81bd 9627 e43d
00000280: c09c 47bd 4645 d23d c09d ea3d f84a 933c
00000290: 8a2f dbbd a860 cf3d 044f 93bd a08c d3bb
000002a0: 8adb c13d 4aee 91bd c021 ad3b 4434 b73d
000002b0: d0cb 303c 488f c3bc d48a 6f3d e0e4 163c
000002c0: 984a cebd 58ec acbd b0ab 0a3d a0a1 af3b
000002d0: c2a7 c03d a4bf 6e3d 14a4 1e3d 7cf2 25bd
000002e0: 68ed 9ebd f672 f03d 5641 c13d 2c76 e53d
000002f0: f4ac f7bd e04f e1bb 38b5 f5bd 74e8 923d
00000300: 20fa 27bd 309b 17bd 5044 fa3d 321d ac3d
00000310: 5426 9bbd dc9c 023d 8454 8bbd 0cd7 a13d
00000320: eaf3 a63d 8c9b d23d 3479 fa3d d84a 9ebc
00000330: e6c1 cabd 4814 edbc d09c d13d 2c5f 13bd
00000340: 9cdd ba3d bc26 17bd 1268 dc3d cc37 363d
00000350: b4b4 f63d 80f5 613b 7692 fb3d 60de 0b3c
00000360: cc64 f63d 0054 6539 607d 03bc a0a1 9abb
00000370: 1c40 87bd a09e 12bd 2026 1bbc 8895 07bd
00000380: 8802 bc3d dcc5 7ebd 2014 5fbc 0485 02bd
00000390: d41c c1bd 0c48 2cbd 5605 bebd 6e87 bdbd
000003a0: 10ca dd3d 9ace c2bd beae ebbd 3863 f0bc
000003b0: f2db 84bd 6257 8cbd d8e7 8fbc 5c58 eb3d
000003c0: 2c5e fcbd 6e0c cfbd 8a29 d8bd 6035 cebb
000003d0: 0210 b23d 08c1 82bd e4f6 9dbd 5e77 f6bd
000003e0: 0024 afbc d0cc d6bd 0030 8239 dca1 a8bd
000003f0: 7402 d63d d0dc aabc 9ce8 36bd 40a2 813b
-0.005190447 0.0027235448 -0.1180999 0.11313613 -0.008232564 -0.1084037 0.046285212 0.036588475
0.08282307 -0.10191028 -0.00926505 0.09619503 -0.015799597 -0.113211304 -0.05058922 0.0023550391
-0.027444825 0.09788847 0.026628837 0.03497453 0.02321218 -0.052487478 0.02200915 -0.089700446
0.078088716 -0.038322493 0.08245735 -0.03402351 -0.11689663 0.054316416 -0.076614246 -0.05377683
-0.020514905 -0.06167698 -0.01757352 0.08045128 -0.019482628 -0.10653947 -0.049441397 0.11185281
-0.09807655 0.05141616 -0.0102981925 0.09756358 0.11220053 0.07088064 -0.10927005 0.10118015
-0.07074922 -0.11435372 0.045609534 -0.120057285 0.025427088 -0.10218838 -0.00764589 -0.06078358
0.0929922 0.090981066 0.107011914 -0.05233884 0.023240298 0.10660799 -0.005506143 0.08781399
-0.111882165 0.09401928 -0.02075544 -0.021774352 -0.039226577 0.11044997 -0.08549191 0.11894928
0.10899112 -0.096864134 -0.08331241 -0.10148662 0.062481195 0.038981706 -0.05327122 -0.10182801
-0.032353878 0.050677717 0.104580075 -0.019104019 -0.008530676 -0.01965627 -0.089481995 -0.11509213
0.045417562 0.0007698685 -0.042868078 0.12313928 0.12175901 -0.0221491 0.11598492 0.119657606
0.07770386 0.10875623 -0.061484307 0.06716935 -0.038972512 0.047633544 -0.0042931587 0.036304623
0.039444894 -0.0690783 0.08528103 0.030914083 -0.029191524 -0.0023247898 -0.020654067 -0.07832073
0.11129187 0.023477107 -0.109472916 0.12140602 -0.011410296 0.053893894 0.011152551 -0.00075119734
-0.05460362 -0.11160822 -0.08165328 0.11532734 0.059794575 -0.05959235 -0.11693095 -0.07283795
-0.017030507 0.116705745 0.067057475 -0.03195493 0.050440773 0.119643435 -0.028861538 -0.112897545
-0.008757427 -0.054939106 0.051147446 -0.10961373 0.032435715 0.07651177 -0.009975955 0.07934639
0.115947664 0.0673248 0.0076108575 -0.042490706 0.10868734 0.01560989 -0.062422633 0.097534314
-0.04570943 -0.073653325 0.07347472 -0.00096057355 0.099620014 0.09982397 -0.06322539 0.11140363
-0.048733473 0.10267119 0.1145587 0.017980084 -0.10702427 0.101258576 -0.071928054 -0.006455973
0.09465702 -0.07125528 0.0052835643 0.08945516 0.01079078 -0.023872033 0.058482006 0.0092098415
-0.100728214 -0.084435165 0.03385514 0.0053598434 0.09406997 0.05828823 0.038730696 -0.040514454
-0.077601254 0.11740677 0.0943629 0.1120418 -0.12093535 -0.006875977 -0.11997455 0.07173243
-0.041010022 -0.037013233 0.12220061 0.08404006 -0.0757567 0.031887874 -0.068032295 0.07902345
0.08151992 0.102835745 0.12230149 -0.019322798 -0.099002644 -0.028940335 0.10234988 -0.035979435
0.091243 -0.036902174 0.10762037 0.044486806 0.12046185 0.0034478605 0.122837946 0.008536905
0.12030944 0.00021870434 -0.008025497 -0.004718974 -0.06604025 -0.035795808 -0.009469539 -0.03310159
0.0918017 -0.062200412 -0.013615638 -0.031865135 -0.09429327 -0.042060897 -0.092783615 -0.09254347
0.10829556 -0.09512062 -0.11507939 -0.029344186 -0.06487264 -0.068526044 -0.017566606 0.114914626
-0.12322649 -0.10109793 -0.10554798 -0.006292984 0.086944595 -0.06384474 -0.07713106 -0.12034486
-0.02137947 -0.10488284 0.00024831295 -0.08233997 0.10449687 -0.020857245 -0.044655427 0.0039561093

fc3.bias f4 [4]
00000000: 8037 e1bc 184c d6bd 6263 d93d 2e14 ecbd
-0.027492285 -0.104637325 0.10614659 -0.115272865
