agent_critic.pth (torch_old, 60754 bytes, 7 tensors)

fcs1.weight f4 [128, 33]
000000 c6 f7 94 bd 33 ea 83 3d cd 59 00 be 55 8e dd bd
       -0.072738215 0.06441154 -0.12534256 -0.10818163
000010 df 63 bf 3d f5 08 fc 3c 2d e1 b6 3c 04 37 0c 3e
       0.09345221 0.03076599 0.022324169 0.13692862
000020 8f 89 96 bb 53 d3 65 bd 0c af 01 be b0 fa a7 3d
       -0.004594035 -0.056109738 -0.12664431 0.08202112
000030 e7 2c ae bb dd e3 43 bd da 8e 3f 3e b2 47 0c 3e
       -0.0053154114 -0.04782473 0.18706837 0.13699225
000040 9b 15 89 3d 99 3c 3f 3d 4f e5 0c be 02 78 47 3d
       0.06693574 0.04668865 -0.1375935 0.048698433
000050 51 f9 c7 bd c5 dd c4 3d 3d df 39 3e 03 5d b9 bd
       -0.0976435 0.09612612 0.18151565 -0.09050944
000060 78 d9 8d bd 53 fb 84 bd 77 c4 c4 bd 34 04 86 3c
       -0.069262445 -0.06493249 -0.09607785 0.016359426
000070 3d 25 bb 3c 9e 4a 05 be 8d 55 c8 bd 26 42 07 be
       0.022844905 -0.13016745 -0.097819425 -0.13208827
000080 da 26 8a 3e ad 46 0a be 55 b5 c0 bd 0b 43 2e be
       0.26982766 -0.13503523 -0.09409586 -0.17017762
000090 d4 5c 24 be ac e1 1f 3d cc d8 3c 3d 52 7a 5d bd
       -0.16051036 0.039033577 0.04610519 -0.054071732
0000a0 e9 73 f0 bd 8c 1a 78 bc a0 b5 ca bd 94 35 c7 bc
       -0.11740858 -0.015143048 -0.098979235 -0.02431754
0000b0 28 47 72 bd 29 8f 9f 3d 58 f2 bb bd 13 ee 1a 3e
       -0.05914989 0.077909775 -0.09177083 0.1512988
0000c0 dd 77 d6 3d 50 c8 46 bd b4 48 3d bc 1a 53 af bc
       0.10472081 -0.048530877 -0.011552978 -0.02140193
0000d0 1b 20 a9 bd 48 90 c8 3b 93 6d 26 3d 96 ff da bd
       -0.08258077 0.0061207153 0.040631842 -0.106932804
0000e0 1d 75 4a 3c a5 a1 49 3d 46 af 81 bd e0 a0 06 be
       0.012357024 0.049226422 -0.06332259 -0.13147306
0000f0 4d 72 2e bc 89 43 bb 3d 88 35 ee bc d9 0f 23 be
       -0.010647369 0.09143741 -0.02907826 -0.15924014
000100 60 32 96 3c 3f da 46 3f c7 a8 ce bd 75 76 46 be
       0.018334568 0.7767677 -0.100907855 -0.19381125
000110 44 d8 3f bd 7d 0f 9a 3d 27 13 b9 3d a1 e2 8c bd
       -0.046837106 0.075224854 0.09036856 -0.068791635
000120 2e fd 29 3d 17 58 cd bd db db 2e bb 67 50 1e 3e
       0.041501217 -0.100265674 -0.0026681337 0.15460359
000130 78 c5 1c be 0a 36 2e bd 18 a5 1b bd e5 10 f8 3d
       -0.15309703 -0.042532004 -0.037999243 0.121125974
000140 1b 43 3b 3d 66 fc 84 bc ec 76 94 3d c7 31 62 3d
       0.045718294 -0.016233634 0.07249245 0.055223253
000150 55 e1 85 3d e1 2d 18 3a 82 43 e6 bd aa 2f 4f bd
       0.06537119 0.00058051763 -0.11243345 -0.050582565
000160 38 f8 80 bb f9 4e c6 3d 1d d8 c6 3d ca f4 fd bc
       -0.00393584 0.096830316 0.09709189 -0.031000514
000170 30 6e 7d bd 4c 8e 02 be 2a 42 45 3d 10 f1 a5 3d
       -0.06187266 -0.12749594 0.048158802 0.0810262
000180 0b 45 ba 3d 78 da 46 bd 85 8b e6 bd b0 f3 3d be
       0.090952 -0.04854819 -0.1125708 -0.1854999
000190 fd d6 44 3d f6 ff f2 bd 91 11 ee 3d c9 5f a0 3d
       0.04805659 -0.11865227 0.11624444 0.078307696
0001a0 40 4f 62 3c 94 2f 6c 3d 80 20 27 3d 55 5f db bd
       0.01381284 0.05766256 0.04080248 -0.107115425
0001b0 64 0e b6 bd 2e f9 93 3d 8f 8e b5 3c 7e 8d 2f bd
       -0.088894635 0.07225262 0.022162704 -0.042859547
0001c0 04 94 dd ba af 13 d9 3d 89 40 2b 3e 6b de 24 3e
       -0.0016905074 0.105994575 0.16723837 0.1610047
0001d0 e1 81 80 bd e4 a6 f3 bb bb 29 cf bc 0a 02 d4 3a
       -0.062747724 -0.0074356664 -0.025288453 0.0016174924
0001e0 91 0a 0c bd a3 68 a1 bd 20 70 ca 3d c9 c0 c7 bd
       -0.034189764 -0.07881286 0.098846674 -0.09753568
0001f0 49 c5 0f 3e db 17 de bd 5d d3 07 3e dc 3a 86 bd
       0.14040102 -0.10844394 0.13264222 -0.06554195
000200 24 b2 0f 3d 8f d9 00 be a0 2e 93 3b 24 d7 95 bc
       0.035081998 -0.12582992 0.004491642 -0.018291064
000210 8d 33 1c 3e 3c fc b2 bd 36 9e 7e bd 5b 2c 14 3e
       0.1525404 -0.08739516 -0.0621626 0.14470045
000220 a4 32 a8 bd 85 fb 91 bc ff d2 c2 bd d0 dd 11 3e
       -0.08212784 -0.01782013 -0.095129006 0.14244771
000230 d9 e6 5d bb 49 dd 03 3e 69 e4 80 3d ed 54 86 3d
       -0.003385952 0.12877382 0.06293566 0.06559167
000240 18 66 e9 3d 3d 10 f3 3d ea 8a 3b 3d 56 e2 58 3d
       0.11396426 0.118683316 0.045786776 0.052950226
000250 56 47 7f 3d 63 ef c7 3d 84 07 50 bd 32 9c 84 bc
       0.06232389 0.09762456 -0.050788417 -0.016187761
000260 42 74 7e 3d 6d bc df 3d 3d 5c 0c 3e 0b 20 39 3c
       0.06212259 0.10924611 0.13707061 0.011299144
000270 44 de c3 3c af 99 b3 bd 79 99 00 be 5a e6 f5 3c
       0.023909695 -0.08769547 -0.12558545 0.030017067
000280 76 16 fc 3d 90 4f bf 3d 7e c0 f5 bd 08 ac ca bd
       0.123089716 0.09341347 -0.119996056 -0.098960936
000290 f7 e8 1e bf 1a c9 35 be 9b 1a a1 bd 57 b0 e5 bd
       -0.62074226 -0.17752495 -0.07866403 -0.11215275
0002a0 1a 9c ae bd db aa e4 3c 28 a6 fc bd 0e ea b3 3d
       -0.08525868 0.027913501 -0.12336379 0.08784877
0002b0 bd 2a 94 3d 42 77 3d 3c 87 19 02 3d 6f e8 b5 3c
       0.07234714 0.011564078 0.031762626 0.02220556
0002c0 39 db 78 ba ba 61 44 bd 98 18 96 3d 4f 96 9b 3d
       -0.0009493116 -0.04794476 0.0732891 0.075970285
0002d0 6a 1e 2c bd b3 df a4 3c af 76 59 bc e3 c1 31 3d
       -0.042021193 0.0201262 -0.013272925 0.043397795
0002e0 4e b5 f3 ba be fa 04 3c 11 5d 8b 3d 3b 7f a5 3c
       -0.0018593462 0.008116422 0.068048604 0.02020227
0002f0 0d e7 48 bb a3 83 e6 3c 46 a5 0d 3d da c4 d2 bd
       -0.0030655295 0.028138941 0.034581445 -0.10291453
000300 cd 82 3e bc 6d 48 b9 3d b8 53 15 3e f9 56 2f 3e
       -0.011627865 0.09047017 0.14582717 0.17123021
000310 34 1c a3 bd 2d 79 74 bf bf 8a 98 bd 91 fd 1e be
       -0.07964364 -0.954974 -0.07448339 -0.15526415
000320 50 c8 68 bd e8 91 ca 3d 4a df 37 be da 67 8f bd
       -0.056831658 0.09891111 -0.17956272 -0.0700223
000330 d9 35 ae 3d c2 da 33 bd 8b 99 1b bd 52 ca 37 bd
       0.085063644 -0.043909796 -0.037988227 -0.044870682
000340 2c f7 17 3d b2 71 4e bd ba 33 a6 3d 29 32 e0 bd
       0.037100956 -0.050401397 0.08115335 -0.10947067
000350 11 75 f0 3d 76 cf 5c 3c 34 58 1f be 52 d3 83 3d
       0.11741079 0.013477197 -0.1556099 0.064367905
000360 1d 6a 8c bd ca de a3 bd e3 56 83 bd 4a 22 31 bd
       -0.06856177 -0.08001478 -0.06413057 -0.04324559
000370 38 33 3a 3e 8f bc 15 bd b9 0f cb 3d e9 3f f4 3d
       0.18183601 -0.036556777 0.09915108 0.119262524
000380 8c 11 88 bc bf 33 95 3d da fe b6 3d 34 d7 be 3d
       -0.01660993 0.072852604 0.08935328 0.093183905
000390 87 bd 13 3c fa 86 01 be dc d9 4f bd 88 1b a6 3d
       0.009017355 -0.12649146 -0.050744876 0.0811072
0003a0 54 25 d1 3d dd 97 35 3d 4d 71 d8 bd cb 01 91 3e
       0.10212198 0.04433428 -0.105684854 0.2832168
0003b0 98 4c 22 3e c6 f9 e2 bb 0d 0b e0 3d fd 09 31 3e
       0.1584953 -0.006926748 0.10939608 0.17288966
0003c0 25 50 a1 bd 4d 0b fc bd c4 73 e2 3d f9 3e 60 3b
       -0.078766145 -0.12306843 0.11057237 0.0034217222
0003d0 13 d0 be 3c be 19 e5 3d c9 48 ba bd 92 92 2d 3e
       0.023292577 0.111865506 -0.09095914 0.16950443
0003e0 90 9f 60 ba ed a1 9b bd 28 f7 42 bd 57 36 c1 3c
       -0.00085686985 -0.07599244 -0.047598988 0.023585482
0003f0 d8 f8 aa bc 4a da 3e bd c3 d4 87 3d a4 86 9f bd
       -0.020870611 -0.046594895 0.06632378 -0.077893525

fcs1.bias f4 [128]
000000 af 8a b2 3d 3a 2f 21 3d 79 ca 79 bc 2b 72 a0 3d
       0.08717858 0.03935168 -0.015246027 0.07834276
000010 70 2d 1c 3e 2e ec 10 3e 91 7e f6 bd 31 25 1f be
       0.15251708 0.14152595 -0.120358594 -0.15541531
000020 ad 7c 65 3d 6c 9b 7c bd 19 7d 02 be e5 47 85 bd
       0.056027103 -0.06167166 -0.12743033 -0.065078534
000030 28 93 28 be 21 c5 48 bd 16 d6 cb bd 38 1b bd 3d
       -0.16462386 -0.04901612 -0.09952943 0.09233707
000040 d6 d0 cf 3d 5e 5f 52 bc a2 d5 82 bd 67 29 d3 3d
       0.10147254 -0.01284012 -0.063884035 0.10310631
000050 e8 43 32 3e 76 27 dc 3d 9f cd 2f 3d dd d4 50 3d
       0.17408717 0.10749714 0.042920705 0.050984252
000060 9b fc 15 bb 31 1d d3 3c ac 92 c1 3d da 44 b8 bd
       -0.002288616 0.025770755 0.094518036 -0.089975074
000070 70 ee 3b be a7 14 33 be fc 0e ef 3d c0 aa d5 bd
       -0.18352675 -0.17488347 0.1167278 -0.104329586
000080 44 7f d7 ba 4c f0 a0 3d 2c 65 58 bd 4d 7c 10 be
       -0.0016441126 0.07858333 -0.05283086 -0.14109917
000090 10 82 3b be d1 1f 0d bd 54 3a a5 bd 7b d0 8e bc
       -0.18311334 -0.03445417 -0.08067766 -0.017433396
0000a0 6f 97 1f be cc 5d df 3b 16 d0 0d 3e 7e 57 e3 3c
       -0.15585111 0.0068166014 0.1384891 0.02775168
0000b0 b9 71 e0 3a 41 95 a6 3d be 81 1d 3e c0 e8 01 3e
       0.0017123736 0.08133937 0.15381524 0.12686443
0000c0 f0 3c 27 bd 06 a0 3a bd 92 c8 4f bd ca 48 de 3d
       -0.0408296 -0.045562766 -0.050728388 0.10853727
0000d0 33 4f 31 bc 99 a7 30 3d 38 9a 2f 3e fd 06 34 3e
       -0.010822105 0.043128584 0.17148674 0.17580791
0000e0 94 d7 f6 bd ce fe 5d 3d 77 0a 16 3e 5d 9a 83 3d
       -0.12052837 0.05419808 0.1465243 0.06425927
0000f0 ea 54 11 3e 6d 3d 5c 3d af 75 07 3d 1e 78 41 bd
       0.14192548 0.053769518 0.033071216 -0.047233693
000100 63 66 1c be 8d 41 8e bd 06 0b d8 3d 38 b6 5a bd
       -0.15273432 -0.069460966 0.105489776 -0.053396434
000110 5b 64 2a 3d 88 eb 20 3e 03 56 3f 3d 33 99 ea bd
       0.041599613 0.15714848 0.046712887 -0.11455002
000120 f6 4f a6 3d 0e a3 89 bd 45 7a a0 3d 04 11 5d bd
       0.0812072 -0.06720553 0.07835821 -0.053971305
000130 ce d7 45 be 82 24 0f 3d 68 76 40 3e 44 72 83 bd
       -0.19320604 0.034946926 0.18795168 -0.06418279
000140 c3 8c 92 bd c8 0f d5 bd 25 68 b6 3d 75 e9 08 3e
       -0.071557544 -0.10403401 0.08906583 0.13370307
000150 e1 bc be 3c a6 95 8d 3d 8b 45 c8 3c a5 f6 b3 bb
       0.023283424 0.06913309 0.024447223 -0.005492049
000160 9e f5 1d be 40 fb 97 3d 64 6e c4 bc de 75 90 bd
       -0.15425727 0.07420969 -0.02397842 -0.070537314
000170 df 3b 2a 3c 88 48 21 3e 00 68 6f bd fa 86 9f bd
       0.010390251 0.15750325 -0.05844879 -0.077894166
000180 c2 b9 0b be 7f 0f 1d bd 3c 87 67 bd 6d 32 2d be
       -0.1364508 -0.038344856 -0.056525454 -0.16913767
000190 b4 c9 24 3e 30 fa db 3d 13 2d 14 3e 95 f9 f3 bc
       0.16092569 0.10741079 0.1447032 -0.029782096
0001a0 8a b1 00 be 38 ca 1e 3e e8 f5 17 be a2 05 08 bd
       -0.12567726 0.15506828 -0.148399 -0.033208497
0001b0 71 2f 16 3e 3c 8f e1 bc 03 78 f7 bc 7f a9 1a 3e
       0.14666535 -0.02753412 -0.030208593 0.1510372
0001c0 9e 8a b9 3d 25 a8 e6 bd a6 d6 59 bd 03 79 81 bb
       0.09059642 -0.1126254 -0.05318322 -0.0039511933
0001d0 2b e4 85 bd 33 18 8e bc 24 9d f0 bc a5 62 da bd
       -0.0653766 -0.017345523 -0.029371805 -0.10663346
0001e0 80 18 15 be c9 b8 df bd 0b 5c 09 be 61 76 1e bd
       -0.14560127 -0.10923917 -0.13414018 -0.038687114
0001f0 7a 0b 73 bd e2 80 75 3d da cb 0e bd 41 40 bb bd
       -0.059337117 0.059937365 -0.034862377 -0.09143115

fca1.weight f4 [32, 4]
000000 48 1c be 3c 71 a0 fe bd 11 a1 65 be a3 1f c7 3e
       0.023206845 -0.124329455 -0.22424723 0.38891324
000010 85 fa 9b be 0e 95 98 be 8b 2e 0e be f0 2d ac bd
       -0.3046457 -0.2980122 -0.13884942 -0.084071994
000020 c4 d2 ac be e4 2a cb 3e e0 15 8e 3e c4 3c db 3b
       -0.3375455 0.3968116 0.27751064 0.0066905934
000030 1d bf aa be 84 90 8d be da 68 cc bd fb 5a d0 3e
       -0.33348933 -0.2764932 -0.09980936 0.40694413
000040 4b 7c 1d 3e 2c aa 83 bd 47 61 e9 3e 32 29 29 3e
       0.15379445 -0.06428942 0.4558203 0.16519621
000050 ee d4 05 3f ff a0 d8 3e 50 fd 47 be b2 fa c1 be
       0.5227803 0.4231033 -0.19530225 -0.37886578
000060 ef c4 a5 3e df e4 93 3e ee 9b fb 3e c8 5a 53 3e
       0.3237681 0.28885552 0.49142402 0.20640099
000070 eb 21 b5 bc f7 63 44 be a5 74 1b 3e 98 63 12 3e
       -0.0221109 -0.19178759 0.15181215 0.14295805
000080 d8 cd 21 bd af 0b 35 3d 25 d9 ec 3e 7b 1e e1 3b
       -0.03950295 0.044200595 0.46259418 0.0068700886
000090 bb e8 37 bd 83 7d ce be 69 42 16 3e 63 b8 c9 be
       -0.044899683 -0.40330133 0.14673771 -0.39398488
0000a0 30 88 c0 3b e5 dc 3f be 76 ac 67 be 45 f6 51 3e
       0.00587561 -0.18736608 -0.22624382 0.205041
0000b0 67 4e e0 3e e1 a6 cc be c1 86 d9 be 4f 53 97 3e
       0.43809816 -0.39971069 -0.42485622 0.29555747
0000c0 61 75 0a be cb 2d 1f 3d fb 86 ad be af 0b 50 be
       -0.13521339 0.03886203 -0.33892044 -0.20316957
0000d0 1a 3f 23 be 91 f5 9d be f3 ac d9 be 14 2e 95 3e
       -0.1594204 -0.30851415 -0.42514762 0.29136717
0000e0 ad 67 cf 3d c0 55 1b 3e c2 9d d3 3d 31 56 73 3e
       0.101271965 0.1516943 0.10332824 0.23763348
0000f0 50 79 67 be a0 2f df 3d 5c 77 b1 3e 40 0e 61 3e
       -0.22604871 0.108977556 0.34661376 0.21978092
000100 8e fc 06 be 71 22 e4 3d 6a ab 7d 3e 64 f6 ec be
       -0.1318228 0.11139382 0.2477242 -0.4628173
000110 cb 27 03 bd 93 b6 16 3d e5 21 d5 be e1 d6 23 be
       -0.03202037 0.03679521 -0.41627422 -0.15999939
000120 cd 82 b2 3e 94 8d 26 3e 0d a5 86 3c 35 81 d6 be
       0.34865418 0.16264945 0.016436124 -0.41895452
000130 5d 16 06 3f 73 1e a0 be e1 57 fa bd 36 71 69 be
       0.52377874 -0.3127323 -0.12223793 -0.22797093
000140 05 cc 9e 3e c2 31 8a be b6 c8 01 3f 24 d3 01 3e
       0.3101503 -0.26991087 0.50696886 0.126782
000150 32 08 e1 be 53 25 51 3e c4 6e 73 3d 0c 5b 0d be
       -0.43951565 0.20424394 0.059431806 -0.13804263
000160 e8 13 40 be 3f 92 a7 be c4 ba 6e 3e a9 29 19 be
       -0.18757594 -0.32728764 0.23313433 -0.14957298
000170 c1 31 58 3e 5e ed 13 3e 4f 39 a4 be 8a a9 81 3d
       0.2111273 0.14446017 -0.32074973 0.06331165
000180 c0 74 8a be f1 55 66 3e a2 c8 82 be 11 0f 3e be
       -0.27042198 0.22493722 -0.25543696 -0.18560435
000190 c7 1c 9c be 80 70 de bd 95 04 99 3e e2 f5 6e bc
       -0.30490705 -0.108613014 0.29886308 -0.01458499
0001a0 15 a1 db 3e f2 08 ef be 1f 36 a9 be 7b d5 6a 3e
       0.42896333 -0.46686512 -0.33049104 0.22932999
0001b0 36 cf 7a 3d 5d 57 1e 3e 62 d0 ab be 51 dd 64 be
       0.061232768 0.15463014 -0.3355742 -0.2235005
0001c0 83 10 72 be bd a7 e5 3e e5 73 5d be 89 2a e3 be
       -0.23639111 0.44854537 -0.21626242 -0.4436839
0001d0 04 5e a8 3e ab 94 63 be e6 5d 21 3d 8d f1 c6 be
       0.32884228 -0.22224681 0.03939619 -0.38856164
0001e0 b1 67 36 be e1 48 03 be ab e5 5f be 2f ac 60 3e
       -0.17812993 -0.1282077 -0.21864955 0.21940683
0001f0 84 c5 7e bd 3f 3d b8 be 42 b3 87 bd 69 de 05 bc
       -0.062200084 -0.35984227 -0.066259876 -0.0081707025

fca1.bias f4 [32]
000000 4f c8 94 3d 31 53 00 3f ea c2 98 be ec 50 9e 3e
       0.07264768 0.5012694 -0.29836208 0.30921113
000010 a0 18 01 3f 11 e2 b1 be 21 d1 b1 3e 54 c6 df be
       0.504282 -0.34742787 0.34729865 -0.43706
000020 cb 4d 03 3d 50 d6 ef 3e 81 e5 ed 3d 76 4c 63 be
       0.03205661 0.46843195 0.1161604 -0.22197136
000030 1d 58 cf be 2f 46 2b 3d 41 78 ee 3e b3 e8 e3 3d
       -0.40496913 0.04181498 0.4657612 0.11128368
000040 03 bb 2a be ce 45 c8 be 7b 1e 49 3e f5 2a c2 be
       -0.16672902 -0.39115757 0.19640534 -0.379234
000050 4a b3 b6 be 5b 8d 97 bd 65 1e 8b 3d be 2c a2 3e
       -0.35683662 -0.07400008 0.06792907 0.3167476
000060 35 3e c5 bb 74 9c 92 3e b8 5c e7 bd c7 fd 08 3f
       -0.0060193785 0.2863499 -0.112969816 0.53512233
000070 e8 59 9c 3e 23 b4 7d 3e 02 c5 67 be b9 dc 0a be
       0.30537343 0.24775748 -0.22633746 -0.13560762

fc2.weight f4 [64, 160]
000000 7c 7d a0 3d b4 a1 f5 bb 0b 89 98 3d 1b bb 4f 3c
       0.07836434 -0.007496083 0.07448014 0.012678887
000010 50 78 1e 3d e8 6a 12 3d d2 73 66 bd 01 1b af 3b
       0.038688958 0.035746485 -0.0562628 0.0053437953
000020 f1 4f 81 3d 05 5f 3e 3c cf 65 9d 3c 24 b9 a8 bc
       0.06314076 0.011619334 0.019213585 -0.020596094
000030 72 aa 5d 3d 85 cc e0 bb 1b bc 9c 3c e2 24 b5 bc
       0.054117627 -0.006860318 0.019132664 -0.022112314
000040 d1 d1 5e bd 98 53 be ba 26 70 83 3d 98 c6 c3 bc
       -0.054399315 -0.0014520762 0.06417875 -0.023898408
000050 59 ef 2a bc da d3 91 3d 76 02 b7 bd 61 a4 94 bc
       -0.0104330415 0.071204856 -0.08936016 -0.018144788
000060 9c 13 94 3d 5e 26 13 bd 99 f0 58 bd 4d d0 c6 bc
       0.07230303 -0.03592526 -0.052963827 -0.024269247
000070 6a 99 10 bd 74 ad 77 3d 95 f2 f2 3c 1f d0 ad 3d
       -0.035302557 0.060468152 0.029656688 0.084869616
000080 f5 d5 30 3d 04 1d 3f bd e8 0f 9e bd ac f3 57 3b
       0.043172795 -0.04665853 -0.077178776 0.0032951636
000090 fe ae 89 bd 10 94 be 3d d2 39 9f bd 90 58 5f bd
       -0.0672283 0.093055844 -0.077747 -0.05452782
0000a0 87 dd db bd 77 f7 08 3d 5d 07 56 3d a5 b2 35 3d
       -0.10735612 0.033439126 0.052253116 0.04435982
0000b0 2e 2e 6b bd 36 71 80 3d d7 02 55 bd 05 5d 80 3d
       -0.057417087 0.06271593 -0.05200466 0.06267742
0000c0 8e 6f eb bc 04 60 35 3d 01 44 ab 3c 66 5d 35 3d
       -0.028739717 0.04428102 0.02090645 0.044278525
0000d0 51 5c 7d 3d cc fd 1e 3d 8b ae b3 bd da c1 ca bb
       0.061855618 0.03881626 -0.08773526 -0.0061876597
0000e0 a2 35 a2 3c e8 d6 62 3d 9b 4b c4 bc 78 a6 8a 3d
       0.019800965 0.05538073 -0.023961833 0.06770033
0000f0 9a af 2a bd f2 8a 86 3d 9a 44 31 bd a9 2f 0f bb
       -0.041671373 0.065694705 -0.043278314 -0.0021848476
000100 41 36 22 bc 16 82 1c 3c 4b c9 95 bd f2 19 95 bc
       -0.00990063 0.009552499 -0.07313784 -0.018200848
000110 64 69 8a 3d d9 08 92 3c 85 52 74 3c b1 9c ae bc
       0.06758383 0.017826485 0.014912252 -0.02131495
000120 c7 cd 53 3b d8 ef 94 bd 72 f3 09 bd b2 44 8a bd
       0.0032318698 -0.07272309 -0.033679433 -0.06751384
000130 ae 41 9b bd 2e 30 8b bb 45 59 25 3d 35 a2 5f bd
       -0.07580887 -0.004247687 0.040368337 -0.054598052
000140 3e 5b 12 3d ac 49 e8 ba d2 ec 69 bd c8 66 9a 3c
       0.035731547 -0.0017722151 -0.057110615 0.018847838
000150 da 9d 3d bc 1c 93 30 3d 90 eb 10 bd 1a cf b3 bd
       -0.011573279 0.043109044 -0.0353809 -0.08779736
000160 23 d1 3f bc 21 a4 89 b8 80 65 d5 3c fc a3 88 bd
       -0.011707577 -6.5632405e-05 0.026049376 -0.066719025
000170 e1 16 55 3c e9 59 8a bb e1 01 ec bd ba 2b ad 3b
       0.013005943 -0.004222144 -0.11523796 0.0052847536
000180 78 5f 06 bd 7b 9d d9 bc ce 6a 38 3d 44 34 47 bc
       -0.03280589 -0.02656435 0.045023732 -0.012158457
000190 92 89 4e 3d f7 a2 11 3d 84 42 b6 3d 78 6b 5d bd
       0.050424166 0.035555806 0.088994056 -0.05405757
0001a0 ce 74 97 bd a5 4e 0b 3d ea 5a 56 3d 02 9c 77 3d
       -0.073953256 0.03401055 0.052332796 0.060451515
0001b0 f6 78 8d 3d 16 8d fa 3c 5f 38 4d 3d d0 5b 97 3d
       0.06907837 0.030584853 0.050102588 0.07390559
0001c0 c3 a5 b1 bd 3f 61 10 3d c2 02 d6 bb 90 d8 9f bc
       -0.08674195 0.03524899 -0.0065310905 -0.019512445
0001d0 a7 95 f5 3c d1 cf 9e 3d 2d b3 96 bc c5 11 7d 3d
       0.029978586 0.077544816 -0.018395985 0.061784524
0001e0 7e fa 24 bd 18 bc 0c 3a 70 11 b2 bb 23 bc 1a bd
       -0.04027795 0.00053686043 -0.0054342076 -0.037777077
0001f0 08 bf 15 3d a3 01 ab 3d dd 32 b0 3d 59 9b 41 3d
       0.036559135 0.083499216 0.086034514 0.04726729
000200 8a 10 c0 3c 6d 7c bb bd 9a 67 9d 3d e8 a8 b3 bc
       0.023445386 -0.09154592 0.07685776 -0.021931127
000210 e9 23 ba bd 66 15 20 bc a7 0d 18 3d bb 49 35 bd
       -0.090888806 -0.009770727 0.037122395 -0.044259768
000220 3c b1 7b 3d d2 15 0b 3d 3a 97 65 bd a6 6b 80 3d
       0.06144832 0.033956356 -0.056052424 0.06270532
000230 f8 ec 3b bd 45 b0 2d bc 9e f6 59 3d de 4a ae bc
       -0.045880288 -0.010601108 0.053213708 -0.021275934
000240 85 77 ee 3c 6f 1f 21 bd 1c 70 83 3d d3 9d 64 bd
       0.029109726 -0.039336618 0.064178675 -0.055814575
000250 8e 4b 4e 3d 5c bb 02 bd 81 29 e2 bc 40 31 17 bc
       0.050365023 -0.03191696 -0.027607681 -0.009228051
000260 f9 a9 95 3d 8b 5e 9a 3b f3 1b 0d bd f5 0b 3f bd
       0.0730781 0.0047109774 -0.034450483 -0.046642262
000270 66 ff 41 bd 9f 7d f7 3c a2 36 8d 3b d2 11 3c 3d
       -0.047362708 0.030211268 0.0043094913 0.045915432
000280 82 e2 99 3c ed f8 c9 bb 9f e6 1f bd a2 cb 8a 3d
       0.018784765 -0.0061637075 -0.039038297 0.06777121
000290 13 91 4a 3d f1 6e 9a bc 9a d0 a5 bd 32 93 9c 3d
       0.04945476 -0.01885173 -0.08096428 0.07645263
0002a0 4b 32 d4 bd a7 c9 7b bc a1 0f 07 bc ca 6b 8a bc
       -0.10361155 -0.015367902 -0.008243472 -0.016897101
0002b0 0b 8c 0a bd dc 3b 00 3c a4 37 35 bd 1b b0 6d 3d
       -0.03382496 0.007826772 -0.044242516 0.058029275
0002c0 85 c9 4a bd 25 99 0c bd eb d4 42 3d 5f 4e 7e bc
       -0.04950859 -0.034325738 0.047566336 -0.015521615
0002d0 d4 16 0d bd f1 d2 0c bc 96 cb 42 3d 27 0f bb bd
       -0.0344456 -0.008595214 0.047557436 -0.091337495
0002e0 28 96 b8 3d 4d 33 d8 bb d5 c7 24 3d 0d d4 33 bc
       0.09013015 -0.0065979124 0.040229637 -0.01097585
0002f0 be 9c f4 3c f4 d2 1b be ea 5d ab bc 91 f8 e8 3a
       0.029859897 -0.15217191 -0.020918805 0.0017774274
000300 9d 59 e2 bc 1c b8 a4 bd ba 8e bc bc 14 6d 3c bd
       -0.027630622 -0.080429286 -0.023017276 -0.046002463
000310 33 48 24 bb 36 6a 81 bd 47 51 01 bc 3b 0a 8e bd
       -0.0025067448 -0.06319086 -0.007892913 -0.06935545
000320 7d 2a ee 3c 3c 4e 95 bc fb c5 74 3d 15 03 15 3d
       0.029072994 -0.018225782 0.05975912 0.036379892
000330 84 17 26 bd 64 6f 9b ba a8 38 cb bb 5b 9a 95 3b
       -0.04054977 -0.0011858759 -0.0062018223 0.0045655197
000340 c8 a6 86 3c 44 fe 75 bc f9 bb d6 bc f5 74 94 ba
       0.01643695 -0.015014235 -0.02621268 -0.001132636
000350 aa 95 1a 3c 4b ac 12 3d df 4f 53 3d c9 9a 52 bd
       0.009435097 0.035808843 0.051589843 -0.051417146
000360 27 d7 d8 3d dc e6 53 3d 52 41 87 3d 6c 75 6f 3d
       0.10587912 0.051733837 0.06604256 0.05846159
000370 d2 9e 85 3d 58 6f 60 bd ef a1 28 3d b1 73 be bc
       0.06524433 -0.054793686 0.041170057 -0.023248525
000380 13 ed 30 3d d9 d6 03 bd df 02 e7 3c 4b c5 27 3c
       0.04319484 -0.032187317 0.028199611 0.010239909
000390 a4 91 c1 3c a8 bc 60 3d c5 fc 30 3d f3 54 09 bb
       0.023629017 0.054867417 0.04320981 -0.0020955175
0003a0 a2 cc d7 3c a5 54 6b 3c 72 56 bc bc 68 cd 3d bd
       0.026342694 0.014363443 -0.02299044 -0.04633847
0003b0 2b 19 ef 3c d5 8b 59 bc 05 88 15 bd da 40 20 bd
       0.029186806 -0.013277967 -0.03650667 -0.039124347
0003c0 ce 94 34 bd 01 08 9a 3d 83 d3 1a bc 40 6c f6 3c
       -0.044087224 0.07521058 -0.009449842 0.030080914
0003d0 56 1b 9c 3c 97 05 1e 3d 8e 78 89 bd 44 35 59 bd
       0.019056004 0.03857955 -0.06712447 -0.053029314
0003e0 6f 64 46 3d 0f 7d 51 3d 91 95 0b bd d5 d6 78 bd
       0.048435625 0.051144656 -0.034078185 -0.060751755
0003f0 8a db 32 bd e8 21 71 3d 57 79 c8 bd 32 6f 0f bd
       -0.0436664 0.058870226 -0.09788769 -0.035018153

fc2.bias f4 [64]
000000 f6 31 3a bb 70 54 6a bd 45 15 ab 3d 8b 00 2f 3d
       -0.0028411127 -0.057209432 0.08353666 0.042725127
000010 02 12 aa 3d aa b0 de bc e2 df 9e 3d 3c 64 c5 3c
       0.08304216 -0.02718385 0.07757546 0.024095647
000020 63 04 5f bd aa bd 12 3d b0 a7 da 3d 57 49 ee bc
       -0.054447543 0.03582541 0.10676515 -0.029087706
000030 52 64 a4 3d a0 43 9c bd a9 17 1f bd 48 b1 9c bd
       0.08026947 -0.07630086 -0.038840923 -0.07651001
000040 63 d4 a5 3d 3e 91 e5 3b 15 03 e1 bd 75 f4 0d 3c
       0.0809715 0.0070058396 -0.10986916 0.00866424
000050 7d 21 0c 3c 26 7e 43 bc af 75 32 3c f7 3e b1 3d
       0.008552906 -0.011931932 0.010892316 0.08654588
000060 9e f4 91 bd ff 03 bf bd d9 a2 bf bd e3 cf e1 3c
       -0.07126735 -0.09326934 -0.093572326 0.027564948
000070 d9 0c b5 3c 8c b6 dc bd da e2 d4 bc 27 ef f9 3d
       0.022100853 -0.107770056 -0.025987078 0.12203818
000080 19 82 86 bb e2 ad f2 3d b6 43 18 3d d4 81 79 bc
       -0.0041048643 0.11849572 0.03717395 -0.015228707
000090 4b 63 dd bd 64 59 9c 3d aa f5 42 3b db c0 42 b8
       -0.10809954 0.076342374 0.0029748478 -4.6432815e-05
0000a0 af 6d 78 3d ad 89 56 3c 83 aa 60 bc 2b f6 98 bc
       0.060651477 0.013094348 -0.013712528 -0.01867207
0000b0 68 13 8a 3c 56 c8 05 3e 07 c9 83 bc 05 9e 0c be
       0.016854957 0.13064703 -0.016087068 -0.13732155
0000c0 82 d2 be bc 24 b2 a4 bd 13 0a 8f 3b 50 f7 a2 bd
       -0.023293737 -0.0804179 0.0043652146 -0.07957327
0000d0 b0 63 d9 3c 34 8d 93 3d b7 b7 79 3d 2e be d1 3d
       0.026536793 0.07204667 0.06096622 0.10241352
0000e0 0c 8c dc 3d bb 7a 38 3d 82 99 d7 3c e1 c8 a6 bb
       0.10768899 0.04503892 0.026318315 -0.0050898646
0000f0 05 1c 2c bd d1 39 ec 3d d7 44 89 3c a9 d5 89 3d
       -0.04201891 0.11534465 0.016756458 0.067302056

fc3.weight f4 [1, 64]
000000 05 26 00 bd ed 3a b4 bc 75 67 23 3d 9a ef a2 3e
       -0.03128626 -0.022000754 0.039893586 0.31823426
000010 f0 97 7e 3d de 3d f7 bc 7d 8d f7 3d 2f 3b 15 3d
       0.062156618 -0.030180868 0.120875336 0.036433395
000020 69 42 49 be a7 b8 17 3d d9 4d 9a 3d 29 08 4b 3e
       -0.1965424 0.037041333 0.075343795 0.19827332
000030 dc fa a6 3d 80 49 01 be f2 f8 d8 bd fd 6c 82 be
       0.081533164 -0.12625694 -0.105943576 -0.25473776
000040 fa c6 99 3d b3 c3 aa bc 25 88 79 bd f3 c2 2a bd
       0.07508655 -0.02084527 -0.060920853 -0.041689824
000050 68 de db 3d 14 c5 82 3d 5b ed 44 3d db 29 88 3d
       0.1073578 0.06385246 0.048077922 0.06648608
000060 80 4c 34 bd 3c 9e 04 be 8d 87 d4 bd 05 74 1a be
       -0.04401827 -0.12950987 -0.10377417 -0.1508332
000070 c8 08 ae 3d b8 1e 47 bd 0d d0 4a 3e e2 38 98 3d
       0.08497769 -0.04861328 0.19805928 0.074327245
000080 59 71 20 bd 47 30 12 3d e5 c6 57 bd 94 af 33 be
       -0.039170597 0.035690572 -0.052679915 -0.17547446
000090 45 41 f3 bc 18 24 1f 3d 92 69 e5 bd f6 1b 34 3d
       -0.029694209 0.03885278 -0.112017766 0.043971978
0000a0 c6 ed 9f 3e 0b 1b fd 3c fe a4 ae 3d 72 24 8f bd
       0.31236094 0.030896684 0.085275635 -0.06989373
0000b0 56 75 48 3d b2 32 f1 3c e4 22 7b bd a8 41 ff bd
       0.048940025 0.029443119 -0.06131257 -0.12463695
0000c0 bb e0 2d bd 78 92 5e bd 07 87 3b 3d 84 b0 8a bd
       -0.042450648 -0.054338902 0.04578307 -0.06771949
0000d0 6f 17 c2 3e 5b 47 9d 3d 61 7f 3f 3d 43 e7 86 3d
       0.37908503 0.076796256 0.046752337 0.065870784
0000e0 2c b5 a2 3c c9 58 9a 3d 8a f5 23 bd 52 ac fe bc
       0.01986178 0.07536466 -0.040029086 -0.031088028
0000f0 72 09 74 be 27 0c 25 3d 51 8c f8 3c b6 30 c4 3c
       -0.23831728 0.040294793 0.030340346 0.023949008
