agent_actor.pth (torch_old, 86517 bytes, 6 tensors)

fc1.weight f4 [128, 33]
000000 1b af 13 bb 67 5a 55 3e 4c ef 68 3d fe ad 90 bc
       -0.002253479 0.20835267 0.056868836 -0.017661091
000010 c8 c5 0c 3e e3 a2 3c bd 4e 1e e7 bd d4 fc b7 bb
       0.13747323 -0.04605378 -0.11285077 -0.0056148563
000020 bd 53 8d bd c2 66 93 3d 6c f9 24 bd 0c 3a eb bc
       -0.069007374 0.07197334 -0.04027693 -0.028714202
000030 6f 5c a6 bd 49 93 33 3d 10 4b 50 3e d9 b6 8e 3d
       -0.08123099 0.043841634 0.20341134 0.06968469
000040 cc ab 2c be d3 48 23 be 8e 47 1a bd d0 b7 80 bd
       -0.1686241 -0.15945749 -0.037665896 -0.062850595
000050 93 de 7a 3d c7 51 83 bc 75 23 1e 3e 1c 8e eb bd
       0.06124742 -0.016030205 0.15443213 -0.115017146
000060 b0 b3 c9 3d 83 d6 e7 3b d5 8d 4d be 24 11 ec bc
       0.09848726 0.0070751323 -0.20073636 -0.028816767
000070 7c 21 37 3e 6c 48 04 bd 0a b6 2b 3e 87 76 c3 bd
       0.17883867 -0.03229563 0.16768661 -0.09544092
000080 2a ac e0 be b9 4d ef bc f2 21 e9 bc 40 fc 55 3c
       -0.4388135 -0.029211866 -0.02845857 0.013060629
000090 26 7f ea 3d 16 2c 9e bc dd 7b 17 be d8 5d 25 3e
       0.11450033 -0.019308131 -0.14793344 0.1614908
0000a0 00 1b 3b 3e 75 62 c7 bd 41 ee 3f be 01 61 1b be
       0.18272018 -0.09735576 -0.1874323 -0.15173723
0000b0 78 c6 60 3d 06 6b 3b be e1 5b 67 be c0 51 cd 3d
       0.054876775 -0.18302545 -0.22593643 0.10025358
0000c0 05 5a 86 3d 86 5f 43 bd 14 0c 05 3d cb 05 2d be
       0.065601386 -0.04769852 0.03248222 -0.16896741
0000d0 35 00 39 3e b9 2c d7 3d 85 0b 5f 3e 93 03 45 3d
       0.18066485 0.10506577 0.21781738 0.04809911
0000e0 07 e5 e3 3d 45 bb 9e 3d c8 83 96 3c 55 ed ed 3c
       0.11127668 0.077505626 0.018373385 0.029043833
0000f0 e5 dd 7d bd 6e 51 1a bd b0 00 0c 3e 94 4b 9c 3d
       -0.061979193 -0.037675314 0.13672137 0.07631603
000100 a2 3f d8 bd 5e d5 8f 3d 5b 6d 25 be 01 a2 dc bd
       -0.10559012 0.070231184 -0.16154997 -0.10773087
000110 2f d9 35 3d 8b 8d 26 bd a9 76 ec 3c 12 6a 3d 3e
       0.044396576 -0.04066233 0.028865175 0.18497494
000120 f6 59 2a 3e 7d 10 d7 3d 47 af 16 3c 09 a0 56 be
       0.1663588 0.10501192 0.009197063 -0.20959486
000130 05 72 19 3e 3e 79 71 3c 85 0d cf bc 79 75 34 be
       0.14984901 0.014738379 -0.025275001 -0.17622937
000140 74 69 35 3e 4f 6e 80 be 40 7c c4 3d 22 80 f1 3c
       0.17716008 -0.2508416 0.09594011 0.029480044
000150 0c b4 92 3d 77 4b c5 3d ac d8 b5 bc e8 1e bf 3c
       0.071632475 0.096335344 -0.022198044 0.023330167
000160 26 2a 27 3d 4f 81 3d bd ac 9f 6d bd 35 d3 9e bc
       0.04081168 -0.046265896 -0.058013603 -0.01938782
000170 3b c4 3b 3e fc 01 7a be 5c 81 41 bc f0 22 e6 3c
       0.18336575 -0.2441482 -0.011810627 0.028092831
000180 45 75 89 3e 61 6e 81 bd fa f5 6a 3f 6a 38 ad bd
       0.26847282 -0.06319881 0.9178158 -0.08458026
000190 89 46 76 bd 8b ef 98 3d e9 7f 11 bd 2d 61 df 3b
       -0.06012586 0.07467564 -0.035522375 0.006817004
0001a0 71 00 13 be 9e 1a 09 3e b8 67 9e bc be 39 2f 3e
       -0.14355637 0.1338906 -0.019336566 0.1711187
0001b0 57 05 ee 3d 73 d8 c6 3d 76 a4 c2 bd 2b 55 ab 3c
       0.11622112 0.09709253 -0.09504025 0.020914635
0001c0 d8 2f ab bd e8 e7 57 bd af 51 03 3e d3 3d c7 3d
       -0.08358735 -0.052711397 0.12824129 0.09728589
0001d0 5f 74 8d 3d ed 0a 7d be eb 11 dc bb 37 6f 59 be
       0.06906962 -0.24711199 -0.006716003 -0.21233831
0001e0 9d 09 cf bd 42 1c e5 bd 10 c5 91 3c 5e 0f 1e be
       -0.101092555 -0.111870304 0.017794162 -0.1543555
0001f0 cd af 44 3e 4d 09 31 3e 88 5d d9 bc 15 bd 1d 3e
       0.19207688 0.17288704 -0.026533857 0.1540416
000200 92 45 03 3e 65 56 a1 3d 5c e7 8b bd 6b 31 e5 3e
       0.12819508 0.078778066 -0.06831238 0.44764265
000210 8b cc 5d 3d cb f0 f4 3d 45 a7 05 be 7b 9c 1a bc
       0.054150146 0.1195999 -0.1305209 -0.009436722
000220 67 ff 06 3e a2 ed c7 bc 34 27 40 be fc 58 1e bc
       0.13183366 -0.024405304 -0.18764955 -0.00966477
000230 f1 2c b5 bd 96 90 3e bd ea ca 4c be 2a 21 a5 3d
       -0.088464625 -0.046524607 -0.1999928 0.08062966
000240 f7 f0 4f bd 10 14 53 bc 79 e0 7d bd 6a c8 29 3e
       -0.05076691 -0.012883201 -0.061981652 0.16580358
000250 dc 07 c5 3d b5 59 2e bc dc 10 f5 b9 e7 9c b6 3c
       0.0962064 -0.010641505 -0.00046742603 0.022291614
000260 35 74 47 3e c4 18 99 3c 55 db 8a 3d ab 43 ed bd
       0.19477923 0.018688567 0.067801155 -0.11585172
000270 4b fb 04 be b5 58 d7 3d c4 02 78 bd b6 9e 15 bd
       -0.12986486 0.105149664 -0.060549513 -0.03652831
000280 7e d6 23 3e 18 ce a9 bc 11 6b fd 3b 88 ad eb bd
       0.15999791 -0.020728156 0.0077337106 -0.11507708
000290 bb ad 73 3e fb 16 07 be 43 b7 ee 3d 83 fe ee bd
       0.23796742 -0.1319236 0.11656048 -0.11669638
0002a0 0e 8c 49 3e 59 4a c5 bd d9 2f 2a 3e e2 31 10 be
       0.19682333 -0.09633321 0.16619815 -0.14081529
0002b0 0f db 5e be 79 69 26 3d 02 fd b5 bd 3e 5a 6e bc
       -0.21763252 0.04062793 -0.08886148 -0.014547883
0002c0 70 03 81 bc c9 5d 86 bd 85 5f c0 3d df 5b 3a be
       -0.01574871 -0.06560857 0.09393219 -0.18199109
0002d0 d4 02 06 3e e8 36 44 bd 27 97 e5 bd 3b 52 40 3e
       0.13087016 -0.047903925 -0.11210471 0.18781368
0002e0 24 15 0b 3e 63 a9 34 bb c2 0a d5 3d c1 d2 3b be
       0.13582283 -0.0027566783 0.104024425 -0.18342115
0002f0 ca 37 9e bd 7d 9e 08 3e ee d1 fb 3d d7 e4 c5 3d
       -0.07725485 0.13341708 0.122959 0.09662788
000300 e9 ce d5 bd af d2 bb 3d 43 9f 21 be 33 b1 ac 3d
       -0.104398556 0.09171044 -0.1578341 0.084322356
000310 30 f9 46 bd aa 77 0c 3f e5 29 a7 3d df 31 e0 3d
       -0.048577487 0.5487009 0.081622876 0.10947012
000320 60 c2 8b 3e ea f1 a6 bd 72 d9 c4 3d fb 26 6f 3d
       0.27296734 -0.0815161 0.09611787 0.058386784
000330 97 10 33 bd ca 06 ad bc b7 bb ba bc 4f 00 88 bd
       -0.043716993 -0.021121401 -0.022794588 -0.06640684
000340 8e 81 78 be 8d 5a 7f 3e d6 8d 01 3e af 35 93 3c
       -0.24268171 0.24936886 0.12651762 0.017969934
000350 54 c5 65 3e 59 38 33 3e b3 10 f1 3c 7f 8c 72 3e
       0.22438556 0.17501964 0.029426908 0.23686408
000360 e4 76 bf bd f6 e1 13 be 13 61 c7 bd 79 21 df 3d
       -0.093488485 -0.14441666 -0.09735312 0.10895056
000370 68 e6 35 3e b4 ab 9b bd 13 f3 cb 3d 31 21 01 3c
       0.17763674 -0.07601109 0.09958472 0.007881449
000380 fa 2c 44 be d8 36 03 be 31 89 31 bd 4c 7f d4 3d
       -0.19157782 -0.1281389 -0.043343727 0.103758425
000390 26 6e 11 bd 83 0b 01 be a2 b7 46 3e df ca 19 3c
       -0.035505436 -0.12602048 0.19405988 0.009386747
0003a0 9c 1b 7c bd 2f 6b bf 3c 38 dc 6c bc b3 df 20 be
       -0.061549768 0.023366539 -0.014456801 -0.15710334
0003b0 3f c0 1f 3e 78 13 14 bc 9b 67 4e 3e 49 13 9d 3c
       0.1560068 -0.009037845 0.2015671 0.019174235
0003c0 24 2e 5e bd 08 3f 41 bd e1 28 23 3c 42 7a 91 bc
       -0.054243222 -0.047179252 0.009958477 -0.017758492
0003d0 f4 a8 e2 bd 1b a8 7e 3d 51 75 01 be 1a 96 4a bd
       -0.110673815 0.062172037 -0.12642409 -0.049459554
0003e0 d8 a0 a7 3d 4d 8e d1 3c 44 c9 4c bd 8f 6e 8b be
       0.081849754 0.02558055 -0.04999663 -0.27232787
0003f0 11 7c 2e 3e e7 8a 17 be 45 93 1b 3e 3f 42 29 bd
       0.17039515 -0.14799081 0.15192898 -0.041322943

fc1.bias f4 [128]
000000 b0 08 2f 3d 5e f0 0b bd 47 01 80 3e fd c8 c8 3d
       0.042732894 -0.03416478 0.25000975 0.098039605
000010 5b 1d b7 bd dd e3 02 be 14 30 24 be 6d 64 e3 3d
       -0.08941146 -0.12782235 -0.16033965 0.11103139
000020 38 83 a3 bc 13 c8 5b bd 5f 5d bd bd f9 c1 21 3d
       -0.01996003 -0.053657603 -0.09246325 0.039491627
000030 d0 8c 4d 3e 71 e3 1f be 0d 35 12 3e 9c b3 1c be
       0.20073247 -0.15614106 0.1427805 -0.1530289
000040 31 42 d4 3d 10 26 17 bd bc 47 97 be de 80 03 b9
       0.103641875 -0.036901534 -0.29546916 -0.0001254114
000050 28 5a ea bd 65 36 f9 3d b5 5f c4 bd 73 9b 57 3d
       -0.11442977 0.12168578 -0.09588567 0.052638482
000060 fd a6 eb bd f8 97 a7 3d 88 45 31 bd 2f d4 de bd
       -0.1150646 0.081832826 -0.0432792 -0.108803146
000070 ad 44 8d bc 43 1c ab 3c 11 23 b0 3d ac 23 ba 3d
       -0.017244661 0.0208875 0.086004384 0.09088835
000080 e1 37 04 3e f9 e2 bd bd 45 d8 b5 3d f0 2f d2 3c
       0.12911941 -0.09271807 0.08879141 0.025657624
000090 47 42 10 be f9 cc 2f 3e f6 f8 87 bc a1 70 83 3d
       -0.14087783 0.17168035 -0.016598206 0.06417967
0000a0 bd 5d 7c 3d 74 4e a3 3d 50 4f 6a 3e 78 30 ac 3d
       0.061612833 0.07973948 0.22881818 0.08407682
0000b0 00 a3 df bc 6b 1b 86 3d 6d ef dc bd 33 c8 d2 bb
       -0.027299404 0.06548198 -0.10787854 -0.006432557
0000c0 f9 f5 5a bd ca a1 86 3b 99 df c9 3b 4b 2b b7 bd
       -0.053457234 0.004108642 0.006160688 -0.08943804
0000d0 c7 a4 b8 3d 75 14 7e 3d 58 94 d3 3d fc f7 01 be
       0.09015804 0.062031228 0.10331029 -0.12692255
0000e0 34 97 7b bd 9d 3d 3e 3e ec ce bc 3a ef 3c dc 3d
       -0.061423495 0.18578191 0.0014404929 0.1075381
0000f0 da e1 fa bb 9e 26 3d bd ff 3b 27 be 02 4e ef bd
       -0.007656318 -0.046179406 -0.1633148 -0.11684801
000100 ef 4c b7 bd 43 3f ad bd 2d 5b 38 3e 5d 23 bd 3b
       -0.08950221 -0.08459332 0.18003531 0.005772038
000110 32 9c 84 3d a7 0b 59 be 5e ee 0d be 71 92 70 3e
       0.064751044 -0.21195851 -0.13860461 0.23493363
000120 1a ad 8b 37 fc a8 e3 3d ce 3f b0 bc 1c 6d 05 3b
       1.6650698e-05 0.111162156 -0.0215148 0.0020359224
000130 63 ea 61 3d 7e 81 b8 bd f9 81 8c 3e cb 78 62 3e
       0.05515517 -0.09009074 0.2744291 0.22116391
000140 13 3d 6b bd f4 17 36 3e 01 cd 7f 3d 29 53 4e 3e
       -0.05743129 0.17782575 0.062451366 0.2014891
000150 42 ad 89 bd 6e c4 d5 bd dd d5 69 bd 6a a8 16 3c
       -0.067224994 -0.104378566 -0.05708872 0.0091954265
000160 96 7c 4a bd a2 24 7f bd c2 32 d4 bc 86 3c 31 3e
       -0.04943522 -0.062290795 -0.02590311 0.17308244
000170 39 2d e1 3d f2 b4 31 be ab 61 47 3e 7d cf 93 3c
       0.10994954 -0.17354181 0.19470851 0.018043274
000180 55 0c 79 3e 1a 7e c0 bd 10 f3 eb 3d 73 12 24 3e
       0.2432111 -0.09399052 0.1152097 0.16022663
000190 5f 19 23 3e 25 ad ec 3b 7c 1a 8e 3b f2 40 b4 3d
       0.15927647 0.007222789 0.0043366533 0.0880145
0001a0 95 04 99 bd 59 6e a2 bd ac da 47 3d c2 95 24 3e
       -0.07471577 -0.079312034 0.048792526 0.16072753
0001b0 3b b6 ad bc 98 52 b1 3d 3f 00 1d 3e 77 f1 9d 3d
       -0.021205058 0.08658332 0.15332125 0.077120714
0001c0 98 69 3c bd a3 1f e8 3d d8 90 82 3c 70 d8 b6 bd
       -0.04599914 0.11334159 0.015938208 -0.08928001
0001d0 8d 24 f3 bd 30 cf 25 3e d7 5a b3 3d 22 51 64 3e
       -0.11872206 0.16192317 0.08757561 0.22296575
0001e0 39 51 c4 ba 94 6a 27 be c0 d6 f9 bd e3 a4 42 be
       -0.001497782 -0.1634925 -0.121991634 -0.19008212
0001f0 69 29 07 bd 82 19 09 3d 7d c4 3d 3d 48 c7 f8 3d
       -0.032998476 0.03347159 0.046329964 0.12147385

fc2.weight f4 [128, 128]
000000 f0 9f 8a 3d b4 37 03 3e fe 89 cc 3c 45 6a d1 3c
       0.06768787 0.12814218 0.024968144 0.025563369
000010 50 96 2a bd ce 54 b0 3d 41 c8 57 3d c4 f9 41 bc
       -0.041647255 0.08609925 0.05268121 -0.011839334
000020 99 38 cf 3d a0 e4 1a 3d bf d1 c4 3d 64 2b ba bc
       0.10118217 0.03781569 0.096103184 -0.022725768
000030 4b 71 c6 3c 0b 28 23 ba 9e 94 4e 3d 34 da 0f bd
       0.024223944 -0.00062239234 0.0504347 -0.035120204
000040 e2 1b 5b 3d 1f 08 1d bd 70 94 5e bc 90 fb c0 3d
       0.053493388 -0.038337823 -0.013585195 0.09422982
000050 89 9c 9e bd 60 70 83 bc b1 7f 10 3d 61 6f 5b bd
       -0.077447005 -0.016044796 0.035278026 -0.053573016
000060 d9 d4 99 3d 45 f1 a7 3d d3 86 f5 3d f8 d7 a8 3d
       0.075113006 0.082003154 0.11988606 0.08244318
000070 47 e5 28 3d de cd d9 bd 76 ad c4 3d dc c8 1c be
       0.04123428 -0.10634969 0.096033975 -0.15310997
000080 2b da 91 bd 4c e5 db bc cf d1 2c 3d 0b 17 23 3e
       -0.0712169 -0.026842736 0.042192277 0.15926759
000090 e4 5d 90 3c af 13 ca 3d 3f fa 48 bd 23 ea 12 bd
       0.017622896 0.098670356 -0.04906678 -0.03586782
0000a0 7a 4d 51 3d 80 b9 48 bd 96 0d f3 bc 50 5c 79 3d
       0.051099278 -0.04900503 -0.029669564 0.06087905
0000b0 a2 0b 03 3e 40 70 4c 3d 31 bf 1b 3e c6 d0 b7 bd
       0.12797406 0.049911737 0.15209652 -0.08975367
0000c0 97 91 e4 bc 70 f0 b5 3d 86 26 5b 3d e4 be bc bc
       -0.027901454 0.088837504 0.053503536 -0.023040242
0000d0 74 38 fc b9 6b 54 67 3d 88 67 97 3d 5b 67 1d 3e
       -0.00048107246 0.05647699 0.07392794 0.15371458
0000e0 2e 2e c9 bd 6f b6 2c 3c 07 37 7e 3d 23 fb 91 bd
       -0.09823261 0.010541542 0.062064197 -0.07127979
0000f0 9e 75 a0 3c dd 7b 7c bc a2 ff 2b bd 1e a5 a5 3c
       0.019587334 -0.015410391 -0.041991837 0.020220336
000100 89 6a e2 3c 36 de 83 bd c2 4d 5f 3b 39 1d b2 bc
       0.02763869 -0.06438868 0.0034073447 -0.02174245
000110 a7 08 51 bd ad 31 d9 3d a8 02 22 3c 5e ec 4a 3e
       -0.051033642 0.10605178 0.009888329 0.1981673
000120 e6 47 18 bd 1b 55 44 3d 81 47 98 3d b6 68 d0 3d
       -0.037177943 0.047932725 0.07435513 0.10176222
000130 59 b3 b4 bd fe 88 a4 bc f6 75 a4 ba e6 78 f0 bb
       -0.0882327 -0.020084854 -0.0012547362 -0.007338631
000140 94 df c5 bd 17 e0 2e bd f2 79 5a 3d 12 78 03 3d
       -0.09661785 -0.042694177 0.053338952 0.03209693
000150 49 b7 8b 3d ee 93 63 bd 45 2a 06 3d 40 34 bf 3c
       0.06822068 -0.055561 0.032755155 0.023340344
000160 b4 bd 19 bd d0 bd ae bd 15 b9 4f bd 06 a7 e6 3c
       -0.03753443 -0.085322976 -0.050713617 0.028155815
000170 3a bb 9e 3d 18 35 c0 3d 76 75 9e 3c 9c e0 a2 bb
       0.077505544 0.09385127 0.01934312 -0.004970623
000180 40 89 ee 3d aa c4 ce 3c 8e d6 50 bc 58 b2 1c 3d
       0.11647272 0.025240261 -0.012746466 0.03825602
000190 f3 e7 71 3d 04 e5 2c 3e ae fb a7 bd cf 0b 01 3e
       0.059059095 0.16884238 -0.08202301 0.12602161
0001a0 fc 83 2c bd f8 b2 fc 39 69 50 b2 3d 39 d8 fd 3a
       -0.042118058 0.00048198528 0.08706743 0.0019366808
0001b0 28 b0 5f 3b d5 39 1d bd 6e 7c a7 bb 55 7f 1c 3d
       0.0034132097 -0.03838523 -0.0051112687 0.03820737
0001c0 bb e2 8d 3c 3b d1 0a 3c 0b 03 01 bc d6 47 85 3d
       0.017320028 0.008472736 -0.007874261 0.06507842
0001d0 6c e1 a6 3d 6d ad 49 bc 79 c4 18 bb ba 80 7e 3d
       0.081484646 -0.012309414 -0.0023310466 0.062134482
0001e0 6e 08 80 bb fb 9a b2 3c 6f 8f c5 3c c8 2a 5d 3e
       -0.003907255 0.021802416 0.024116246 0.21598351
0001f0 76 0e 2c bd 7a 99 d5 bc d4 4c 88 bd 79 9b 6d 3d
       -0.04200598 -0.02607416 -0.06655279 0.0580096
000200 eb be aa bd c9 7f 83 bd b6 2f c9 bd 50 8e 81 bb
       -0.08337196 -0.064208575 -0.09823553 -0.0039537326
000210 fd 80 11 3e 9a 72 7c bb a3 de 5b bc 1c 0d 92 3c
       0.14209361 -0.0038520456 -0.01341978 0.017828517
000220 cf 10 9d 39 5a 1a e6 bd 21 8b 1b 3c 63 6f 7a bc
       0.00029957897 -0.11235495 0.00949362 -0.015285346
000230 73 62 ce bb 72 ef f6 bc f4 97 8e bd 75 72 24 bc
       -0.006298357 -0.030143473 -0.069625765 -0.010037054
000240 01 b2 35 bd 9f 24 ae 3d 5f c9 ac bd 64 29 c9 3d
       -0.04435921 0.08503079 -0.08436846 0.09822348
000250 37 59 8a bc b7 40 45 bc 24 68 41 be 42 24 5f 3d
       -0.016888244 -0.012039355 -0.18887383 0.054477938
000260 23 45 17 bc 2d 3b 14 3d 68 ad b0 3d 12 ec 01 3d
       -0.009232792 0.036189247 0.086268246 0.031719275
000270 2b 04 14 3e b6 88 98 bb af 32 f8 bb d9 4c 12 3d
       0.14454715 -0.004654969 -0.0075744013 0.03571782
000280 7e df 89 bd a7 82 b5 bc c0 3e c1 bc 80 54 84 bd
       -0.06732081 -0.022157026 -0.023589492 -0.064614296
000290 32 28 d2 3d 0c cb 2b be f9 bd b2 3c e1 88 53 3e
       0.10261573 -0.16776675 0.021819102 0.20657684
0002a0 5c d1 f9 3c de 31 b7 3d ec 3c 1a be c8 33 d0 bd
       0.030495338 0.08945058 -0.15062302 -0.101661265
0002b0 6b 3b 2f bd 59 7b 6e 3d f0 9e 19 bd c0 0e bb bd
       -0.042781275 0.058223102 -0.03750509 -0.09133673
0002c0 53 4d a6 3c b2 c7 98 3d 5b 81 19 3d e7 4c 85 3c
       0.020300543 0.07459964 0.03747688 0.016272021
0002d0 da d4 97 bd 70 26 ae 3c d1 30 19 be 9d 70 ed bd
       -0.07413645 0.021258563 -0.14960028 -0.11593745
0002e0 25 69 f9 3d 31 f3 17 3d d7 18 be bc 40 4b 17 3e
       0.12178258 0.03709716 -0.023205204 0.147748
0002f0 92 10 be 3c d9 68 e9 3d 83 48 ae 3d c5 74 53 3d
       0.02320126 0.11396951 0.08509924 0.051625032
000300 d3 27 de bc e2 dc be 3d fe 90 11 3c d8 dc cb 3d
       -0.027118599 0.09319474 0.0088846665 0.09954232
000310 3c 22 12 3e 0b ac 45 bd 49 a3 12 3d 33 85 71 be
       0.14270872 -0.048259776 0.035800252 -0.23585968
000320 10 4b 67 bd cb 09 4e bd df 79 95 3c 7f 4a 56 bd
       -0.05646807 -0.050302308 0.01824659 -0.05231714
000330 ab 2f 1e 3b 91 99 94 bd a7 db ce 3c 71 7f 4a bd
       0.00241373 -0.07255853 0.025251223 -0.049437944
000340 d9 b9 d2 3d 42 43 c4 bd e8 7f 1b bd af 86 ee bd
       0.10289354 -0.09583141 -0.037963778 -0.116467826
000350 6f 00 86 be 33 13 36 be 16 b5 69 bc 98 26 99 3d
       -0.26172206 -0.17780761 -0.014264366 0.07478064
000360 b3 1f 3b 3e cf fd 31 3d 85 53 b9 bd e2 03 44 3d
       0.18273811 0.04345494 -0.09049133 0.047855265
000370 ea 93 06 3c 45 6b d1 bc 37 bb a3 3c a6 b8 e4 3d
       0.008213976 -0.025563845 0.019986732 0.111680314
000380 5b 01 5b bc 39 86 2d be d2 f8 83 bc b8 d5 12 bd
       -0.013367022 -0.16945733 -0.016109858 -0.03584835
000390 51 9f 61 bd b0 ef e7 bd 76 df c2 bd 74 cb 78 be
       -0.055083577 -0.11325014 -0.09515278 -0.24296361
0003a0 0f 33 27 bd de c1 51 3d 3d 09 58 be ec f6 b2 bc
       -0.040820178 0.051210277 -0.21097274 -0.021846257
0003b0 b2 dd e3 3d cc 7e ba bc d6 62 32 3e 9c 68 69 3c
       0.111262694 -0.02276554 0.17420515 0.014246132
0003c0 fb e7 bb 3d 2e af 86 3d 1e 64 3f 3d c0 96 47 bd
       0.09175106 0.065763816 0.04672634 -0.04872775
0003d0 e6 0d c0 bd 36 88 62 bd 60 43 f3 bd 07 b3 0d be
       -0.09377651 -0.055305682 -0.11878085 -0.13837825
0003e0 f1 33 01 bd 6b 19 a6 bd 54 85 21 3e 3a d5 3e be
       -0.031543676 -0.08110317 0.15773517 -0.18636027
0003f0 81 4a 78 3d a9 97 93 bd 54 fd d6 3c 1b c5 44 3d
       0.060617927 -0.07206661 0.026243843 0.048039537

fc2.bias f4 [128]
000000 c9 1e 57 3d f4 2b 71 3d b9 15 dd bd de 70 34 bb
       0.052519593 0.058879808 -0.10795159 -0.0027533094
000010 0d 59 41 bb 80 2b 12 bd 13 f4 1d bd aa 1d 99 3d
       -0.0029502541 -0.035686016 -0.038562845 0.07476361
000020 ce c7 b6 3c a2 4a 01 3d 1c da d8 3b 51 fa 07 3d
       0.022312071 0.031565316 0.0066177975 0.033197705
000030 da 2f 35 3d ea 73 07 3d 87 cc a2 3d c0 63 40 3c
       0.044235088 0.03306953 0.07949167 0.011742532
000040 55 92 66 3d 32 1a 61 3d 6b 09 44 bd ce 38 5e bd
       0.056291897 0.054956622 -0.047860544 -0.054253392
000050 a2 29 65 bb 30 30 ea bd 1b 27 47 bc 76 b2 e6 3d
       -0.0034967442 -0.11434972 -0.01215532 0.112645075
000060 cc d2 14 bd 5d 6d a2 3d c4 88 94 bb 13 fc 50 3d
       -0.036333844 0.07931016 -0.0045329053 0.051021647
000070 69 fe b5 3d c4 fe 0a bc cd 63 d6 3d 23 5f a4 3c
       0.088864155 -0.008483592 0.10468254 0.020064896
000080 00 d2 4e 3d 0c c1 bb bc 30 83 46 3d a4 1a 86 3d
       0.05049324 -0.0229192 0.048464954 0.0654805
000090 d4 24 6e bc 71 23 67 3d fb 76 83 3d a2 b1 1a bd
       -0.014535148 0.056430284 0.06419178 -0.03776706
0000a0 67 f7 b4 3c 9b 20 1b bd 05 49 11 be c5 f2 5a bd
       0.022090627 -0.037872892 -0.14188011 -0.05345418
0000b0 01 77 1d bd af b6 e2 3d 60 06 5f bd 7d 28 2a 3e
       -0.03844357 0.110700004 -0.05444944 0.16617008
0000c0 27 bd a1 3d 27 9e 9c bb ea 9a 08 bd 97 3e 4c 3d
       0.07897406 -0.0047795954 -0.033350863 0.049864378
0000d0 21 bc f4 3d a4 46 49 3d a4 ab 86 3d 3b d5 ec 3d
       0.11949945 0.049139634 0.065757066 0.11564108
0000e0 64 eb ec bd 05 c7 12 3d f3 9e 16 3e 23 54 96 3d
       -0.11568335 0.03583433 0.14709072 0.073402666
0000f0 f3 e9 ee 3d b1 8d b1 3b f4 ea 35 3b be ed c8 bd
       0.11665716 0.0054185023 0.0027758451 -0.09810971
000100 d0 c2 db 3c 54 45 9d 3b 00 cc 38 3d de 07 d8 3d
       0.026826292 0.0047995243 0.045116425 0.105483755
000110 79 c7 9a bd db 56 b7 bd f2 83 69 3d e6 11 74 3c
       -0.07557578 -0.08952113 0.0570106 0.014896845
000120 c5 a7 a3 3a f0 b5 a3 bd 35 f4 bb 3c 54 18 a3 3d
       0.0012485912 -0.07993686 0.022943595 0.079636246
000130 02 0e ca bc 46 88 92 3d 17 95 ab 3d c3 90 22 bc
       -0.024664883 0.07154898 0.08378046 -0.009922209
000140 44 90 de 3c 52 ef 8d bd cf 78 7c bd 75 27 83 3d
       0.0271684 -0.06930412 -0.06163865 0.0640401
000150 c2 c6 73 3d 11 ed 42 3d f4 d2 ab 3d 22 73 91 bc
       0.059515722 0.047589365 0.083898455 -0.017755095
000160 72 0f fb 3d 93 e8 c6 3b a9 c9 4e bb 4c 3d 3c 3c
       0.12258805 0.0060702055 -0.0031553304 0.011489224
000170 b4 eb f4 3c b3 d1 37 3b 7c 38 30 3c 9e 46 31 bd
       0.029897548 0.0028048574 0.010755654 -0.043280236
000180 3c 89 d3 bc cf 3b 33 3d d9 1c 6a 3d 01 04 30 3d
       -0.025822274 0.04375821 0.057156418 0.04297257
000190 d3 4c 6c bb 6f 18 bb 3d 5e 7f 90 3c 7d 52 9d bd
       -0.0036056533 0.0913552 0.017638858 -0.07681749
0001a0 20 61 f8 bc 0f 17 6f bd 9e c7 91 bd db db 92 3c
       -0.03031975 -0.0583716 -0.07118152 0.0179271
0001b0 e5 d4 c2 3b 3c 63 dc 3d fe d2 3f 3d 11 8e a1 bd
       0.005945789 0.10761115 0.046832077 -0.07888425
0001c0 6e 32 2b bc 2f 35 e5 bc b2 7a fd bc c4 ce 5b bd
       -0.010449035 -0.027979461 -0.030942295 -0.053663984
0001d0 c7 d1 88 3d 77 c4 d9 bc 89 75 12 3c 32 f7 2e 3d
       0.06680637 -0.02658294 0.008939155 0.042716213
0001e0 2e 99 5f 3d a0 5e 91 3c fb 7f 95 3d 3f be 10 3a
       0.054589443 0.017745316 0.07299801 0.0005521513
0001f0 77 35 c3 3d e6 1f b9 bd b3 6c c6 3d 3b 13 db bd
       0.09531682 -0.09039287 0.096887015 -0.10697027

fc3.weight f4 [4, 128]
000000 24 57 f7 3d d6 24 94 be 75 8c d3 3c df eb 27 3d
       0.12077168 -0.28934354 0.025823811 0.04099643
000010 4f a5 7f bd 66 64 94 3e 05 4c 94 3e 5f c7 9c be
       -0.06241351 0.28982848 0.28964248 -0.30620858
000020 48 49 9f bd de a5 95 bd 38 06 a3 bd 42 42 8e bc
       -0.07777649 -0.07307027 -0.079601705 -0.017365579
000030 f7 73 cb 3e 99 ef 63 be 21 d8 bc bc 6c ec 9d bb
       0.39736912 -0.22259368 -0.023052277 -0.0048194434
000040 a8 d8 93 3e 66 15 3c bd 2e 7f 99 3c 97 24 94 3d
       0.28876233 -0.045918845 0.018737402 0.072335415
000050 f5 c4 0d be 7e 8e a9 bd d5 aa 8b bd 7d 94 a7 bc
       -0.13844664 -0.08279131 -0.06819693 -0.020456547
000060 64 6a 5d be 88 4f 5a be f2 6e 6b bd d0 a4 34 be
       -0.21622616 -0.21319401 -0.057478853 -0.17640996
000070 ee 09 97 be 2c 2f 6f 3d 62 14 dd 3d 8f d5 9d 3e
       -0.29499763 0.058394596 0.10794903 0.30826995
000080 25 43 4f 3e 50 51 55 be 31 82 6a be 2e 3b eb bd
       0.20240457 -0.208318 -0.22901227 -0.11485897
000090 5b 67 53 bc 3f bd 13 bd c3 8e bb bd bd c6 44 3c
       -0.01290306 -0.03606915 -0.09158089 0.0120102735
0000a0 f4 3e c7 3d 9c 0c 04 3e e3 50 aa 3c 8e 04 f1 3d
       0.09728804 0.12895435 0.020790523 0.11768447
0000b0 a9 44 41 3d dc 33 aa bb c0 6c 25 bc 23 97 bf ba
       0.04718462 -0.0051941704 -0.010096729 -0.0014617186
0000c0 da ea cd bd df 40 12 bd 29 a3 3f be 46 79 b9 bd
       -0.1005456 -0.035706397 -0.18714584 -0.09056334
0000d0 5e f4 73 be 63 8f d9 bc d9 8f 8a be 34 8c 99 3c
       -0.23823687 -0.02655763 -0.27062872 0.018743612
0000e0 27 9c 3a 3e 68 78 51 be 4c f3 03 3b 19 f1 c5 bd
       0.1822363 -0.20456088 0.002013403 -0.09665126
0000f0 d0 e2 8a 3e b2 10 42 3e c2 28 83 be 82 cf f4 3c
       0.2712617 0.18951681 -0.25617033 0.029884104
000100 26 2c cc 3d c1 23 b9 be e1 b4 11 3e c3 1d c7 bd
       0.09969358 -0.3616009 0.14229156 -0.097224735
000110 0a 5f d0 3a 9b 83 d7 3d 82 8e 5a be d3 e2 ce be
       0.0015897464 0.105231486 -0.21343425 -0.40407428
000120 ea 2e a0 3d 14 3e 5e 3c 51 27 bc bd b2 a7 51 be
       0.07821448 0.013564605 -0.091871865 -0.20474127
000130 af fc 91 be cb 40 9e 3e f2 15 57 be 7f 6e 09 3d
       -0.28513095 0.30908808 -0.21004465 0.033552643
000140 ba 17 0d be bc 0f 93 bc 28 63 d5 3c c8 08 16 3e
       -0.13778582 -0.017951839 0.026048258 0.14651787
000150 37 9f 49 be 5c 4c a0 bd 70 a8 e9 3e 72 a8 3b be
       -0.19689642 -0.078270644 0.4563632 -0.18325976
000160 27 52 04 be c3 56 72 3c fa b2 b2 3d bb a0 8d 3d
       -0.12921964 0.014791193 0.08725543 0.069154225
000170 ea 14 36 3e 84 4b 0b be 75 cc 48 be 87 98 81 3d
       0.17781416 -0.13603026 -0.19609244 0.063279204
000180 35 4d 51 be 94 59 fe 3c 36 72 b0 bd ed f8 d4 bc
       -0.20439608 0.031048574 -0.08615534 -0.025997603
000190 7a d1 d6 bc 83 14 92 be 12 8e 78 be c7 e0 9c 3e
       -0.026222933 -0.28531274 -0.24272946 0.30640242
0001a0 98 fe a8 ba ba 40 14 3e c2 c6 f3 3c 05 1e b7 3c
       -0.0012893258 0.14477816 0.029757861 0.022353182
0001b0 5d d3 d7 3d 72 a4 91 3e d0 c3 a5 be bb b9 6b 3e
       0.10538361 0.28445774 -0.32375956 0.2302007
0001c0 be 96 fe be 54 8c 08 3e 44 5e 49 3e 8f d2 82 3e
       -0.49724382 0.13334781 0.19664866 0.25551268
0001d0 9d 9c 1b 3f 78 d1 b5 be 94 c0 0f bf 75 21 61 be
       0.6078585 -0.35511374 -0.56153226 -0.21985419
0001e0 9d 6f 12 3d 69 87 65 3d 2b 68 dc 3c e6 33 99 bd
       0.035750974 0.05603734 0.02690514 -0.07480602
0001f0 32 9d 2a be 18 2e 23 be 6a 41 4d 3e 48 bc da 3c
       -0.16661528 -0.15935552 0.20044485 0.026701108
000200 0b ae 9e bc cb 3a 18 bd 80 81 ad bd 90 67 82 3d
       -0.0193701 -0.037165444 -0.08471966 0.06367409
000210 6e f1 12 3f 0e 38 72 3d a1 ec 10 3f 99 a7 a3 3c
       0.5739964 0.05913549 0.5661107 0.019977378
000220 09 1a 6f 3e 97 77 91 3d 24 78 89 3c 2a 2a b8 bc
       0.23349775 0.07102888 0.01678092 -0.022481043
000230 47 68 5a be ea 75 14 3d 03 30 bd be 5a 4d a4 bd
       -0.21328841 0.036245264 -0.36950693 -0.08022566
000240 37 df ce 3e a6 aa de 3c 0e 37 70 bd 2b 42 ea 3b
       0.40404674 0.02718098 -0.058646254 0.007149001
000250 df 9c a8 3e 90 cb 31 3e f6 ca 67 bd 24 c9 09 3d
       0.32932183 0.17362809 -0.056590043 0.03363909
000260 d6 be 27 3e 6d a7 a2 bc 3c 7f 86 3e d1 41 4c 3d
       0.16381392 -0.019855225 0.26268947 0.049867455
000270 4a 7c 9a 3d 06 c2 3b 3e c3 de b7 bb ad 7f ba 3d
       0.075432375 0.18335733 -0.005611272 0.091063835
000280 5c 57 03 3e f8 b9 39 3e 5c 4a 44 bd 73 e9 d3 bd
       0.12826294 0.18137348 -0.047922477 -0.10347261
000290 c3 65 80 3e 7c aa cd bd 03 28 3b bd b3 b6 a7 3e
       0.25077638 -0.10042283 -0.045692455 0.32756576
0002a0 58 f3 fc bb fd 07 5a bc e6 59 cf bc 9b e2 b8 3e
       -0.0077194385 -0.013307569 -0.025311422 0.36110386
0002b0 cf 94 01 3e a1 b8 b4 bd 19 59 4b 3e 1c a2 43 bd
       0.12654422 -0.08824278 0.19858207 -0.04776202
0002c0 d3 3b 89 3e 8a 86 c9 bd 92 ed 40 3e 7f 1a 5a 3e
       0.26803455 -0.098401144 0.18840626 0.2129917
0002d0 a9 c9 00 be e7 13 b3 3d 17 9d e5 bb 2b 6e e4 3d
       -0.12576927 0.087440304 -0.007007252 0.11153825
0002e0 34 e4 45 3d f7 3c f6 3c 58 42 99 bd 9b c6 08 be
       0.048313335 0.030058367 -0.07483357 -0.13357012
0002f0 1e 1c 97 3c 8f cf 09 3f 7b 1e dc bd 7b f4 85 bd
       0.018446025 0.53832334 -0.10748001 -0.065407716
000300 8c a2 ce bd 7e a8 ca 3e ba 50 a8 3e 24 35 92 bd
       -0.10089597 0.39581674 0.3287409 -0.07139042
000310 bd ba e5 bd 85 09 1f bc e2 b3 9c be 23 46 35 3d
       -0.11217258 -0.0097068595 -0.3060599 0.04425634
000320 04 bb 8b bd 57 e9 6b 3e 69 9b 78 bd be 69 e0 bd
       -0.0682278 0.23038231 -0.060695086 -0.10957669
000330 56 56 61 3e f5 ab 16 bd d4 2c 61 bd bb 77 b5 3e
       0.22005591 -0.036785085 -0.054974392 0.3544291
000340 f1 39 59 3c 86 34 25 3e fd 99 c7 be e0 a2 f2 3d
       0.013258443 0.16133317 -0.3898467 0.11847472
000350 c1 95 fd bd e0 ef b8 3d c1 3c 5c be f3 02 42 be
       -0.12382079 0.090301275 -0.21507551 -0.18946438
000360 64 81 aa 3d 2c 06 e1 bc 35 94 31 3e 4d 3f 03 bd
       0.083254606 -0.027468763 0.17341693 -0.03204279
000370 6c 11 3f 3e d2 1c 98 bd 0a 7c f7 3d 41 57 d0 3c
       0.1865899 -0.07427372 0.120842054 0.02543223
000380 43 76 2d 3e 29 8e 64 3d fe d1 e7 3d 1f 88 c1 3c
       0.16939645 0.055799637 0.1131935 0.023624478
000390 0e c5 01 3e 32 6a 75 3e e1 c6 07 3d bf e2 af bd
       0.12672827 0.23966292 0.03314865 -0.0858817
0003a0 9b 3d 86 bd c7 2b 4e 3e d2 dc e9 3d d9 d3 be 3b
       -0.06554719 0.20133887 0.11419071 0.005823594
0003b0 42 2c a7 3d f0 e4 43 bd 57 cd c9 be 28 d6 bf 3e
       0.081627384 -0.047825754 -0.39414474 0.37468076
0003c0 15 7d e5 bd 13 de d8 bd 6f d9 06 3f fa ca 93 3e
       -0.11205498 -0.10589232 0.5267553 0.28865796
0003d0 86 dc a3 bd 53 30 ad bd 70 22 10 bf d1 21 17 bd
       -0.08001046 -0.08456483 -0.5630255 -0.036897484
0003e0 f9 17 4e bd 24 cd 18 bc 46 81 4b 3e 1d a2 91 3d
       -0.05031583 -0.009326253 0.19873533 0.07110999
0003f0 38 3c 1e 3e a8 a2 80 3d 59 4d 25 3e e4 84 d1 bd
       0.15452659 0.06281024 0.16142787 -0.10230425

fc3.bias f4 [4]
000000 e9 ff 0a 3d 19 28 8c bc 20 ba 09 bd af cc 5f bc
       0.03393546 -0.017108964 -0.03362477 -0.01365964
