agent_actor.pth (torch_old, 86517 bytes, 6 tensors)

fc1.weight f4 [128, 33]
-0.0619208 -0.1740597 -0.1231069 0.10569888 0.042202428 -0.008539379 -0.010984212 -0.0496893
-0.069987305 0.04046306 0.106666744 0.09136641 0.0044144243 -0.16720045 -0.008071378 0.09201461
0.11066148 -0.058006987 -0.027487546 0.016424537 -0.02570799 -0.025855944 -0.15978223 0.17122966
0.15488854 0.08899817 -0.053269237 -0.01202561 0.14444065 0.13741633 -0.095643245 -0.13925669
-0.17302181 0.07766649 0.17237812 -0.06312448 0.12484223 -0.15684319 0.17270282 -0.07925716
-0.115481324 0.039532498 -0.1513537 -0.047709182 -0.14192867 -0.111412436 -0.040716752 -0.026112556
-0.15660773 -0.11281164 -0.07961795 -0.049792394 0.05231458 0.010755181 0.06737174 0.104331166
-0.09446486 -0.13426352 0.098166406 -0.018382117 0.048080474 -0.009680867 0.08032668 0.122653544
-0.053391814 0.03577572 -0.09718408 0.011727124 -0.1408689 0.14280128 0.14569747 -0.070228934
-0.11172884 0.11484307 -0.06395878 0.1382109 0.05079253 0.09939012 -0.03665431 0.10241437
0.0047964603 -0.02271767 0.032108814 -0.012247324 0.026602522 -0.17305166 -0.11420758 -0.010732159
0.14899206 0.04531738 0.06884955 0.06856011 0.05790475 -0.06711494 0.16912875 -0.0041652173
-0.008436695 -0.14439867 -0.061897762 0.10440293 -0.117575005 0.085532665 -0.033625245 -0.14714271
-0.03166902 -0.03270136 -0.0534918 -0.013721272 0.0043929815 0.023330048 -0.14668126 -0.13123079
-0.03820491 0.021866724 -0.08096226 -0.072734535 -0.08145966 -0.07784551 0.020537704 0.10593638
0.021401465 0.0011148155 -0.055679105 -0.06911833 0.11288139 -0.13632932 0.037312776 -0.027185068
-0.072388895 0.117963254 0.17360154 0.062486842 -0.1241284 -0.0056938827 -0.15719436 0.14020789
-0.14017007 -0.07326779 -0.027922496 0.04487261 -0.074668735 0.14571404 -0.00449574 -0.119368896
-0.12710293 0.14559233 0.06588848 0.025665894 -0.014940605 -0.09508564 0.11911854 0.031282738
-0.03826496 -0.17261052 -0.061903507 0.084201574 0.11706382 -0.10474189 -0.14867058 0.11165747
0.13706735 0.17013013 0.15806332 0.016523853 -0.04714571 0.16313702 -0.11771873 0.03633967
-0.17086846 0.0664908 0.039558604 -0.16536327 0.018589407 -0.08363985 -0.061738096 0.08181682
0.105552286 -0.0034062415 -0.16603395 -0.014542475 -0.08686719 0.13172096 0.008606523 0.08793053
-0.08650344 0.104427725 -0.045678765 0.0924772 -0.12676989 -0.027445644 -0.13444084 0.0115685165
0.15313703 0.06722754 0.00555709 -0.14939255 0.16477704 -0.031682894 0.03937027 -0.14625737
0.10950187 0.103750974 0.12880582 0.05217886 0.011141166 0.026958466 0.066743195 -0.028738871
-0.08016517 0.15556237 -0.15305068 -0.10882105 -0.08931147 -0.1492295 -0.15346324 -0.060359918
0.15349415 -0.10367154 -0.113251284 -0.1522438 -0.14466977 0.15409848 0.070477545 0.13277918
0.12468538 0.071049914 0.1635383 -0.02707626 -0.046538934 -0.072467335 -0.0747765 0.04890749
0.024334535 -0.11627528 -0.00567396 -0.045905024 -0.038725406 -0.13752332 -0.11606478 -0.07564271
0.085682034 0.14627126 -0.006942719 -0.15067288 -0.1470379 0.027299464 0.075126246 0.10121569
-0.17400472 0.16830966 -0.14681917 0.058489114 -0.026619896 0.12381545 -0.12185207 0.1706622
00000000: aaa0 7dbd b53c 32be 781f fcbd a878 d83d
00000010: 74dc 2c3d c0e8 0bbc 20f7 33bc 0287 4bbd
00000020: 8155 8fbd 98bc 253d 1874 da3d 501e bb3d
00000030: e0a6 903b 9836 2bbe d03d 04bc 2872 bc3d
00000040: 7ca2 e23d bc98 6dbd 902d e1bc c08c 863c
00000050: 9099 d2bc d8cf d3bc f49d 23be d456 2f3e
00000060: 1a9b 1e3e ac44 b63d d830 5abd 1007 45bc
00000070: 40e8 133e deb6 0c3e 9be0 c3bd 4e99 0ebe
00000080: a12c 31be 9c0f 9f3d e483 303e 6847 81bd
00000090: 48ad ff3d 809b 20be 02d9 303e 9451 a2bd
000000a0: 7981 ecbd d4ec 213d 77fc 1abe b46a 43bd
000000b0: c055 11be 342c e4bd 9cc6 26bd 00ea d5bc
000000c0: c75d 20be ca09 e7bd bc0e a3bd 1cf3 4bbd
000000d0: d047 563d 8036 303c 32fa 893d 94ab d53d
000000e0: cb76 c1bd 607c 09be 780b c93d 1896 96bc
000000f0: 08f0 443d 809c 1ebc 5082 a43d c831 fb3d
00000100: 60b1 5abd 9089 123d 7208 c7bd 2023 403c
00000110: f03f 10be 803a 123e b831 153e 30d4 8fbd
00000120: 17d2 e4bd d832 eb3d d2fc 82bd 2887 0d3e
00000130: d40b 503d 0c8d cb3d d422 16bd a0be d13d
00000140: a02b 9d3b 681a babc 8884 033d 00a9 48bc
00000150: 88ed d93c 7434 31be aae5 e9bd f0d5 2fbc
00000160: 6091 183e b89e 393d fe00 8d3d 3e69 8c3d
00000170: 882d 6d3d 8f73 89bd 1630 2d3e 607c 88bb
00000180: 103a 0abc 3fdd 13be 8288 7dbd 34d1 d53d
00000190: 2acb f0bd c02b af3d a0ba 09bd 94ac 16be
000001a0: 60b7 01bd dcf1 05bd 381a 5bbd 30cf 60bc
000001b0: 00f3 8f3b a81e bf3c 9d33 16be 5d61 06be
000001c0: c07c 1cbd d821 b33c 8bcf a5bd d8f5 94bd
000001d0: 52d4 a6bd 776d 9fbd b03e a83c 2cf5 d83d
000001e0: 2052 af3c 001f 923a c60f 64bd e98d 8dbd
000001f0: 5c2e e73d ea99 0bbe 48d5 183d 38b3 debc
00000200: a140 94bd b896 f13d 9ac4 313e 34f2 7f3d
00000210: 0837 febd c093 babb 8ff7 20be a892 0f3e
00000220: be88 0fbe 6c0d 96bd b8bd e4bc 58cc 373d
00000230: eceb 98bd 1036 153e 0051 93bb ae77 f4bd
00000240: 4527 02be 2816 153e 8af0 863d 4841 d23c
00000250: 70c9 74bc 43bc c2bd 6cf4 f33d 5422 003d
00000260: b8bb 1cbd d0c0 30be 888e 7dbd e071 ac3d
00000270: 28bf ef3d eb82 d6bd 1a3d 18be acac e43d
00000280: 625b 0c3e 9836 2e3e 5adb 213e 085d 873c
00000290: dc1b 41bd 640d 273e 8416 f1bd e8d8 143d
000002a0: 24f8 2ebe 542c 883d 3408 223d fd54 29be
000002b0: d048 983c 5f4b abbd 16e1 7cbd 948f a73d
000002c0: cc2b d83d 403b 5fbb ce04 2abe 9043 6ebc
000002d0: 6de7 b1bd dce1 063e 6002 0d3c ec14 b43d
000002e0: b728 b1bd 34de d53d a819 3bbd b064 bd3d
000002f0: f7cf 01be b0d5 e0bc dcaa 09be e089 3d3c
00000300: f4cf 1c3e 98ae 893d 4018 b63b 5cfa 18be
00000310: 50bb 283e ecc5 01bd b842 213d 7ec4 15be
00000320: 8442 e03d 647b d43d ace5 033e 80b9 553d
00000330: 7089 363c 00d8 dc3c a8b0 883d c86d ebbc
00000340: a32d a4bd be4b 1f3e 51b9 1cbe 92dd debd
00000350: efe8 b6bd 9ecf 18be 7825 1dbe f63b 77bd
00000360: 922d 1d3e bf51 d4bd 4af0 e7bd cce5 1bbe
00000370: 5024 14be fecb 1d3e 8856 903d 44f7 073e
00000380: 0c5b ff3d 9e82 913d 9676 273e 08cf ddbc
00000390: 9c9f 3ebd c169 94bd 6c24 99bd 3853 483d
000003a0: 3859 c73c bc21 eebd a0ec b9bb e806 3cbd
000003b0: 889e 1ebd ead2 0cbe 5fb3 edbd 91ea 9abd
000003c0: 107a af3d 22c8 153e c07f e3bb fe49 1abe
000003d0: 1a91 16be 20a3 df3c cadb 993d 2c4a cf3d
000003e0: 4b2e 32be 5e59 2c3e c457 16be 4892 6f3d
000003f0: f811 dabc f492 fd3d 948d f9bd 12c2 2e3e

fc1.bias f4 [128]
-0.08484401 0.15858212 0.05783266 0.009025678 0.058096558 0.01920119 -0.041642338 0.14698637
0.03905277 -0.02000682 -0.11687854 0.024749562 -0.07226995 -0.10368877 0.06530605 -0.086073294
0.09262991 -0.105056204 -0.040997192 -0.056922697 -0.0207088 0.0734781 0.1738902 0.00028662384
-0.028758079 0.17049178 0.15844652 0.016681686 0.1142782 0.030732363 0.0064677745 -0.109235816
0.07356419 -0.115344316 0.06668872 0.1277676 -0.0028911382 -0.062454842 0.14286289 0.008710057
-0.16080263 -0.11998607 0.05757518 0.13199362 0.062524006 -0.044146046 -0.12429421 -0.03384112
0.15942901 -0.1532816 0.16227931 -0.044671506 0.03565146 0.09522131 0.02655974 -0.08536817
0.12306076 -0.08750027 0.082095355 -0.16788849 -0.020511582 0.10889286 0.14269581 -0.049461886
0.101890236 0.050555453 -0.07570746 0.14595011 -0.11811552 0.14503098 -0.13249607 -0.04631166
0.14114988 0.09877649 -0.008627877 0.13621649 -0.1539707 -0.115499705 0.05344741 -0.0029576719
0.016759008 0.040439084 -0.13167964 -0.008108512 -0.085547715 0.02810964 -0.091106035 0.14142269
0.15733632 0.07868123 0.07998875 -0.1318149 -0.058323823 -0.117632404 -0.043234944 -0.060076743
-0.0046286583 0.039753735 -0.03857477 -0.098877326 -0.008189172 -0.052222647 -0.022934318 -0.04460512
-0.033409283 0.15222526 -0.101505384 -0.11254048 -0.10635548 -0.0038497746 -0.063497216 0.12657335
-0.16185665 -0.16332264 0.009169444 -0.025196373 -0.095001206 -0.085168876 0.10047123 -0.16120839
0.017941073 -0.09006856 0.02175425 0.147686 0.10033402 -0.085899316 -0.102912135 0.1139766
00000000: b2c2 adbd 5a63 223e f0e1 6c3d 70e0 133c
00000010: a8f6 6d3d d04b 9d3c 2891 2abd 9883 163e
00000020: ccf5 1f3d 58e5 a3bc 045e efbd 98bf ca3c
00000030: 4402 94bd c75a d4bd 2ebf 853d 3247 b0bd
00000040: c0b4 bd3d b527 d7bd acec 27bd c627 69bd
00000050: 80a5 a9bc b07b 963d 4610 323e 0046 9639
00000060: 1096 ebbc 6695 2e3e ce3f 223e 08a8 883c
00000070: b00a ea3d 70c2 fb3c a0ef d33b 07b7 dfbd
00000080: d2a8 963d a439 ecbd 1894 883d 82d5 023e
00000090: 4079 3dbb a6d0 7fbd a64a 123e a0b4 0e3c
000000a0: 72a9 24be 42bb f5bd f4d3 6b3d 5629 073e
000000b0: 960c 803d 7cd2 34bd f68d febd fc9c 0abd
000000c0: 5c41 233e daf5 1cbe 8c2c 263e 78f9 36bd
000000d0: 4407 123d 6403 c33d d093 d93c 82d5 aebd
000000e0: 4807 fc3d 5733 b3bd 9c21 a83d f6ea 2bbe
000000f0: e807 a8bc 3803 df3d da1e 123e 8c98 4abd
00000100: d4ab d03d 3c13 4f3d 830c 9bbd f273 153e
00000110: 8de6 f1bd 0083 143e 0dad 07be 4cb1 3dbd
00000120: 9889 103e 544b ca3d f05b 0dbc 567c 0b3e
00000130: 7faa 1dbe 1c8b ecbd aceb 5a3d 80d5 41bb
00000140: 304a 893c 74a3 253d 07d7 06be 90d9 04bc
00000150: a433 afbd 3046 e63c cd95 babd 1cd1 103e
00000160: c61c 213e a023 a13d 24d1 a33d 7cfa 06be
00000170: f6e4 6ebd 42e9 f0bd 2017 31bd 0813 76bd
00000180: 00ac 97bb d0d4 223d 9400 1ebd 3280 cabd
00000190: e02b 06bc 6ae7 55bd c0e0 bbbc dcb3 36bd
000001a0: 2cd8 08bd f0e0 1b3e 0ee2 cfbd a07b e6bd
000001b0: e7d0 d9bd 804c 7cbb d40a 82bd 729c 013e
000001c0: c0bd 25be 0d3e 27be 703b 163c a068 cebc
000001d0: fe8f c2bd 056d aebd dcc3 cd3d d013 25be
000001e0: 28f9 923c dd75 b8bd f835 b23c 003b 173e
000001f0: ec7b cd3d fbeb afbd 99c3 d2bd 906c e93d

fc2.weight f4 [128, 128]
-0.009229489 -0.08274675 -0.044929866 0.042289205 0.0739514 -0.0040441677 -0.015756749 0.014919698
0.011800781 -0.045185287 0.0881437 0.023974352 0.070027016 -0.00204055 -0.04353629 -0.06375651
0.06399468 -0.022626512 0.0008870363 0.01768227 -0.012930453 -0.015562333 0.030706614 -0.07699595
0.015422732 0.0077507347 -0.067236066 -0.036257226 -0.029968567 0.0038363114 -6.1154366e-05 0.042457618
-0.06812759 0.07179073 0.06471241 -0.08385914 -0.009982944 -0.047168907 -0.001864627 -0.08396546
-0.08800831 0.043667667 0.034827292 0.009593129 -0.080647424 0.004893832 -0.07813707 0.043607675
-0.008992337 -0.049623318 -0.08546101 0.047185324 -0.0326737 0.053579725 0.041820996 0.076503076
0.0048078895 0.008158922 -0.06080353 0.0045083314 -0.06485292 0.004001841 0.025755525 -0.020935245
0.024709709 -0.08024217 0.03870552 0.08445834 -0.07352269 -0.06771703 0.0024119392 -0.06379651
-0.06406345 -0.011209324 0.008004613 -0.039071888 0.083934315 0.029767856 0.07010909 0.08578063
-0.044527058 -0.06524439 -0.05397594 -0.0032821894 -0.06082791 -0.0065042526 -0.039641332 0.0052398145
-0.054956064 0.08631263 0.08090242 0.0706436 -0.052771058 0.07194147 -0.043737955 -0.019070946
-0.036998674 -0.004163973 0.0033302978 -0.013887472 -0.018283643 -0.08317785 0.024062544 -0.0063745007
0.018117383 -0.033042867 0.010919593 -0.026781633 -0.03185308 0.07108552 -0.0008190274 0.0022453442
-0.03487933 0.04629325 -0.07394014 0.03650468 0.014203846 0.028280832 -0.08653025 0.057025723
-0.014753565 -0.066070326 -0.07549566 -0.072331905 0.0025935918 -0.009053536 -0.06925115 0.053760774
0.059513368 -0.029134758 -0.006267935 -0.008975036 -0.06487792 -0.01443655 -0.06788994 -0.083108366
-0.08533899 -0.05768641 -0.046562195 0.002313219 -0.004104495 0.06538216 -0.0783253 0.055266477
0.03076446 -0.024197705 -0.06624395 0.008934282 0.059861563 -0.070319474 0.04849743 0.043442212
-0.018550701 -0.07883937 -0.0108637735 0.05534219 0.07574207 -0.0039993897 -0.07187317 0.037568323
0.06042307 0.049343966 0.081416525 0.082631744 0.05610367 0.004167974 -0.059555665 0.07155741
-0.05240425 -0.04393968 0.036834992 -0.013096198 0.020247705 -0.06938567 0.07621194 0.04636132
0.057125337 0.023832671 -0.05645581 -0.050959617 -0.022072673 0.06931462 -0.06560006 0.0054381266
0.012351558 0.076604195 -0.026648104 -0.020792715 0.007897362 0.07708537 0.06838841 -0.06540551
-0.023913532 -0.060999237 -0.06547157 0.062660836 -0.08655804 -0.022048764 -0.024497032 0.06975474
0.064153545 0.031726405 0.05077613 -0.05505743 -0.05212426 0.06991658 0.059100665 0.03425373
0.05703879 0.013815306 -0.029856142 -0.019779883 -0.087846674 -0.011351302 0.022518672 0.08682919
0.06026963 -0.020914532 0.05917529 -0.070534065 0.041455396 -0.075252555 0.06559124 0.07281556
-0.020926192 0.032497793 0.00067181885 0.05250258 -0.08737811 0.037403665 0.08437479 -0.043841023
0.05437871 -0.0361054 -0.009881929 -0.07921749 0.025433451 -0.015672825 -0.020407334 0.011894807
-0.011179008 -0.026124388 0.048448272 -0.06303739 -0.014051482 0.004892066 0.052264325 -0.06492688
0.0013355836 0.03394954 -0.07155339 -0.051574383 0.07054994 -0.038198214 0.05999898 -0.08426978
00000000: 4837 17bc 2177 a9bd 6108 38bd 7237 2d3d
00000010: d573 973d f084 84bb 4c14 81bc c071 743c
00000020: 1058 413c 3514 39bd af84 b43d dc65 c43c
00000030: 536a 8f3d c0ba 05bb 1c53 32bd c692 82bd
00000040: a50f 833d 3c5b b9bc 0088 683a 68da 903c
00000050: 40da 53bc 28f9 7ebc 708c fb3c 0db0 9dbd
00000060: a0af 7c3c e0f9 fd3b 10b3 89bd 7582 14bd
00000070: a480 f5bc a06a 7b3b 0040 80b8 0ae8 2d3d
00000080: 7a86 8bbd 0507 933d f187 843d 57be abbd
00000090: 808f 23bc 2f34 41bd 8066 f4ba 15f6 abbd
000000a0: b33d b4bd dedc 323d 10a7 0e3d 802c 1d3c
000000b0: 7a2a a5bd 705c a03b 5406 a0bd f69d 323d
000000c0: 9854 13bc d241 4bbd 2f06 afbd 6645 413d
000000d0: dcd4 05bd 6a76 5b3d 7e4c 2b3d a5ad 9c3d
000000e0: 808b 9d3b 00ad 053c 1f0d 79bd a0ba 933b
000000f0: 9cd1 84bd e021 833b 40fd d23c 6480 abbc
00000100: 046c ca3c 0256 a4bd ae89 1e3d 7ff8 ac3d
00000110: 1093 96bd 3aaf 8abd a011 1e3b bfa7 82bd
00000120: b333 83bd 50a7 37bc c825 033c d809 20bd
00000130: c1e5 ab3d b8db f33c 5b95 8f3d c1ad af3d
00000140: 0162 36bd da9e 85bd e015 5dbd 001a 57bb
00000150: b026 79bd a021 d5bb f35e 22bd c0b2 ab3b
00000160: 9c19 61bd adc4 b03d 2bb0 a53d 97ad 903d
00000170: 7726 58bd 0d56 933d 9226 33bd ac3a 9cbc
00000180: ec8b 17bd f071 88bb 2041 5a3b 4888 63bc
00000190: 94c7 95bc 2659 aabd d01e c53c 30e1 d0bb
000001a0: e86a 943c f557 07bd 18e8 323c 2865 dbbc
000001b0: 6078 02bd 4995 913d 00b4 56ba a026 133b
000001c0: a1dd 0ebd fe9d 3d3d ee6d 97bd ee85 153d
000001d0: 40b7 683c 34ad e73c c636 b1bd ce93 693d
000001e0: f0b8 71bc e14f 87bd 789d 9abd c022 94bd
000001f0: 40f9 293b 4855 14bc 8cd3 8dbd 4234 5c3d
00000200: 4ac4 733d 04ac eebc 4063 cdbb 080c 13bc
00000210: b7de 84bd 4887 6cbc e209 8bbd b834 aabd
00000220: 35c6 aebd 9648 6cbd 00b8 3ebd 6099 173b
00000230: 007f 86bb 15e7 853d 0469 a0bd 1a5f 623d
00000240: c005 fc3c 443a c6bc e8aa 87bd 1861 123c
00000250: 6631 753d a803 90bd 3ea5 463d 76f0 313d
00000260: a4f7 97bc 8976 a1bd f8fd 31bc 7eae 623d
00000270: a91e 9b3d 500d 83bb 3e32 93bd 3ee1 193d
00000280: 2e7e 773d e61c 4a3d b5bd a63d d53a a93d
00000290: f6cc 653d 8093 883b a4f0 73bd b18c 923d
000002a0: d7a5 56bd 18fa 33bd 4ae0 163d 7091 56bc
000002b0: 84de a53c 131a 8ebd 0115 9c3d 5ee5 3d3d
000002c0: 42fc 693d bc3c c33c 353e 67bd 08bb 50bd
000002d0: c0d1 b4bc d3f4 8d3d 5359 86bd 5032 b23b
000002e0: 305e 4a3c a9e2 9c3d 204d dabc 7c55 aabc
000002f0: f063 013c efde 9d3d 390f 8c3d 53f3 85bd
00000300: 50e6 c3bc 56da 79bd f515 86bd 5354 803d
00000310: 5745 b1bd 9c9f b4bc 00ae c8bc 93db 8e3d
00000320: ef62 833d 8cf3 013d a2fa 4f3d e683 61bd
00000330: 4080 55bd 6d30 8f3d 8a13 723d a44d 0c3d
00000340: 82a1 693d 9859 623c de94 f4bc 6c09 a2bc
00000350: f5e8 b3bd d0fa 39bc 1479 b83c 81d3 b13d
00000360: 4add 763d f454 abbc ca61 723d 2a74 90bd
00000370: 22cd 293d 031e 9abd b354 863d 5320 953d
00000380: 686d abbc 681c 053d 001d 303a f20c 573d
00000390: 4bf3 b2bd 9634 193d b1cc ac3d a592 33bd
000003a0: 36bc 5e3d 42e3 13bd d0e7 21bc c83c a2bd
000003b0: d059 d03c 4c64 80bc 482d a7bc 70e2 423c
000003c0: 2828 37bc d002 d6bc b271 463d bf19 81bd
000003d0: 3038 66bc a04d a03b 1e13 563d 62f8 84bd
000003e0: c00e af3a ac0e 0b3d 958a 92bd a93f 53bd
000003f0: 7d7c 903d bb75 1cbd 7ec1 753d a295 acbd

fc2.bias f4 [128]
0.06004449 0.083426885 -0.072181925 0.0035184845 -0.009077422 0.0051455274 -0.039180342 0.07011763
0.019176573 -0.011436433 -0.07076839 -0.07534729 -0.070326366 0.028471366 -0.0797888 -0.037420627
0.050826155 0.08053767 -0.084297344 -0.045550216 -0.0008914694 0.07761385 -0.06311055 -0.028105404
0.0025152937 0.02247943 -0.018005088 0.059180774 0.01090122 -0.08326916 0.0077552944 0.08391216
0.014694981 -0.0184621 0.060642682 -0.00013885647 0.0006708503 -0.0569313 0.002672173 0.028320625
0.06323718 0.05684901 0.014390148 0.042826228 0.056667708 -0.07093567 0.07769749 0.0145637095
0.08760134 0.04617936 -0.082760856 0.0184611 0.046758108 -0.042638935 -0.08817836 -0.047676545
-0.07384469 -0.029633164 0.043130033 -0.011949077 0.06772449 0.08041676 0.05592484 -0.030665953
0.009545743 0.087370716 0.036967717 0.013788439 -0.041485533 0.08447587 0.07135824 0.05454033
-0.08473742 0.065530516 -0.06888595 0.01364401 0.08052931 -0.016244344 0.07377001 -0.07227007
0.064742334 0.008406222 -0.06353384 0.026552968 0.034201816 0.039028727 0.03442002 0.025484942
0.040737562 0.020353049 0.010347255 -0.08124774 -0.044794142 -0.008540608 0.024692565 0.085557394
-0.008364581 0.06995954 0.008769177 -0.013160646 0.047802888 -0.025472932 0.0019836277 -0.018091373
0.06957697 -0.0517061 0.032611944 0.048676826 -0.0164866 -0.025855891 -0.05584762 -0.048356827
0.085389964 0.064426444 0.028751872 -0.05613311 -0.07064579 0.08487821 -0.06473504 -0.0019613355
-0.05469837 -0.07796365 -0.009489775 -0.027110033 -0.048554305 0.071351044 0.031872213 0.0014346465
00000000: 36f1 753d b7db aa3d 1ed4 93bd 6096 663b
00000010: 78b9 14bc d09b a83b 917b 20bd d599 8f3d
00000020: 3018 9d3c e05f 3bbc 05ef 90bd ae4f 9abd
00000030: 4507 90bd c83c e93c 4f68 a3bd 5f46 19bd
00000040: 162f 503d eff0 a43d 16a4 acbd dd92 3abd
00000050: 80b1 69ba 03f4 9e3d 1b40 81bd 4e3d e6bc
00000060: a0d7 243b c826 b83c 687f 93bc 8a67 723d
00000070: 089b 323c 0589 aabd 2020 fe3b 23da ab3d
00000080: 38c3 703c d43d 97bc 7664 783d 009a 11b9
00000090: 00dc 2f3a cb30 69bd a01f 2f3b a800 e83c
000000a0: 7f82 813d 82da 683d a8c4 6b3c 8e6a 2f3d
000000b0: 661c 683d b846 91bd dd1f 9f3d a09c 6e3c
000000c0: 5568 b33d 9226 3d3d 867e a9bd bc3b 973c
000000d0: 6e85 3f3d 2aa6 2ebd db96 b4bd 7b48 43bd
000000e0: e33b 97bd 40c1 f2bc 1ea9 303d 10c6 43bc
000000f0: 23b3 8a3d 8bb1 a43d 7211 653d 2a37 fbbc
00000100: c065 1c3c 6bef b23d 766b 173d e8e8 613c
00000110: bcec 29bd af01 ad3d 4524 923d ae65 5f3d
00000120: d08a adbd dd34 863d 1414 8dbd 208b 5f3c
00000130: 8dec a43d dc12 85bc bb14 973d 5502 94bd
00000140: a197 843d 40ba 093c 081e 82bd 9c85 d93c
00000150: 3417 0c3d 96dc 1f3d 02fc 0c3d ccc5 d03c
00000160: 6edc 263d 70bb a63c 8887 293c 3765 a6bd
00000170: 107a 37bd e8ed 0bbc 1048 ca3c b738 af3d
00000180: 980b 09bc f346 8f3d 98ac 0f3c c09f 57bc
00000190: f6cc 433d 9cac d0bc c0ff 013b 5c34 94bc
000001a0: 5f7e 8e3d c7c9 53bd 1a94 053d 5a61 473d
000001b0: e80e 87bc bccf d3bc 79c0 64bd cf11 46bd
000001c0: efe0 ae3d 03f2 833d 0c89 eb3c d5eb 65bd
000001d0: bdae 90bd a1d4 ad3d ce93 84bd c089 00bb
000001e0: 660b 60bd 68ab 9fbd 007b 1bbc dc15 debc
000001f0: e1e0 46bd 7f20 923d 708c 023d c00a bc3a

fc3.weight f4 [4, 128]
-0.023900062 -0.01722993 0.019703865 -0.019028626 0.06269231 -0.021851957 0.001489751 0.08337604
0.07311145 0.06188283 0.015693814 0.014175557 -0.0012072772 0.08732209 0.0160105 -0.00045116246
-0.046517793 0.06457027 0.042845123 0.011171252 0.068032585 0.042852484 0.07233166 0.07979102
-0.032583244 0.039198704 -0.009361766 -0.031013388 0.08107384 0.027690835 0.083069764 -0.087505706
0.055465735 -0.041802328 0.003303498 -0.028820742 -0.02780255 0.0024731457 0.013843223 -0.025954977
-0.004180275 0.059461735 0.0041519254 0.057177268 -0.024447776 0.043286674 0.04629407 0.059735157
-0.06192848 -0.063957945 -0.023295045 -0.0045958012 -0.06576115 0.0025231019 -0.045664582 -0.078920946
0.05472303 0.043121897 0.074928276 0.03454852 -0.037392873 -0.021234468 0.063181944 -0.05304228
-0.043770336 0.074880265 0.08133095 -0.06771943 -0.05667318 -0.084278814 -0.0030213892 0.039592423
0.0032776147 -0.020055346 0.040473126 -0.01643613 0.08390381 0.013878979 0.08609287 0.07676379
-0.043635536 -0.0046314225 -0.0140942335 -0.044145882 0.07079417 -0.012614995 -0.045007512 -0.06613836
-0.07670372 -0.07069159 -0.0043845996 0.03802041 0.061684437 0.014296621 -0.046490524 0.07114815
0.03740918 0.032991506 0.04006525 -0.062895745 -0.052545372 0.042687707 -0.050865114 -0.07871193
-0.07443089 0.061294116 -0.03917987 -0.066170365 0.08182631 0.044601835 0.018763453 -0.041924786
-0.016410403 -0.028796624 -0.022461079 0.021319732 -0.045331907 -0.005858071 0.07575207 -0.07364507
-0.04085152 0.051416136 -0.024692781 0.07816438 0.03444636 0.04393377 0.046764903 0.06235888
-0.06623283 -0.08534233 0.05521322 0.066493265 -0.07720501 -0.047340594 -0.06789322 -0.02229479
0.06441117 0.020241022 -0.06939963 0.0624632 -0.025652595 0.039163075 0.08539473 0.08118854
-0.041551944 -0.059244305 -0.015620135 -0.04061342 0.057009272 0.027211867 0.074567296 -0.05904828
0.04851777 0.08014818 0.06046862 0.034103617 -0.08169337 -0.051804397 -0.06396269 -0.077174954
0.0018031672 0.056155242 -0.013141289 -0.06884265 0.07021641 -0.061321545 0.07685333 0.08084782
0.063416354 0.070251755 -0.041861746 -0.021768965 0.061778896 -0.028356727 -0.052449465 -0.08537673
0.0845753 -0.06463593 0.060110323 0.0071486756 0.082223736 -0.020680249 -0.08130037 0.065819494
0.07250837 0.056749515 -0.060129642 -0.063222125 0.0131036565 -0.008282617 0.0430777 -0.0033528358
0.021343976 -0.020975307 -0.04632944 -0.065358326 -0.010885611 -0.0249044 0.08234427 8.005649e-05
-0.08421773 -0.05550743 -0.05838781 0.08518147 -0.011514202 -0.06218929 0.06922933 0.023035236
0.016284332 -0.08744259 0.07218475 -0.064055234 0.045844816 0.058477737 -0.0025800169 -0.05500251
0.041570358 -0.057328027 0.044869296 0.0255121 -0.03237195 0.0022587255 0.02891548 -0.067325935
-0.04924306 0.046969958 -0.034732755 -0.06748953 0.057736345 -0.05642286 -0.017447859 0.059523992
-0.084850274 -0.063575655 0.06859944 0.042449377 0.021193534 -0.062896 -0.027755827 -0.06651903
0.073591955 0.08816881 -0.009855263 0.054180793 -0.07295197 0.022493191 -0.068476416 -0.058679357
0.036113136 0.009378582 -0.005278811 0.02677942 -0.07643267 0.0033318251 0.04250034 -0.006444134
00000000: 10ca c3bc c825 8dbc 006a a13c ece1 9bbc
00000010: d364 803d e002 b3bc c043 c33a 0fc1 aa3d
00000020: 75bb 953d da78 7d3d 5090 803c 9840 683c
00000030: 803d 9eba edd5 b23d 7428 833c 008a ecb9
00000040: 7189 3ebd 6b3d 843d 5e7e 2f3d a007 373c
00000050: ab54 8b3d 1686 2f3d 9f22 943d 7969 a33d
00000060: 0276 05bd d28e 203d 1862 19bc ca0f febc
00000070: 0b0a a63d e4d7 e23c 7b20 aa3d 3136 b3bd
00000080: 0a30 633d eb38 2bbd 807f 583b 7a19 ecbc
00000090: 2cc2 e3bc 8014 223b b0ce 623c 889f d4bc
000000a0: b0fa 88bb 268e 733d e00c 883b b632 6a3d
000000b0: b446 c8bc 5e4d 313d da9e 3d3d daac 743d
000000c0: b8a8 7dbd 62fc 82bd 40d5 bebc 6098 96bb
000000d0: c8ad 86bd a05a 253b c90a 3bbd 4ea1 a1bd
000000e0: 4225 603d 96a0 303d ff73 993d c082 0d3d
000000f0: 4529 19bd e8f3 adbc 8965 813d dd42 59bd
00000100: 8648 33bd d35a 993d d790 a63d 7cb0 8abd
00000110: 2322 68bd 5f9a acbd 8002 46bb aa2b 223d
00000120: 40cd 563b 1c4b a4bc 26c7 253d 10a5 86bc
00000130: c3d5 ab3d a864 633c 7551 b03d 5536 9d3d
00000140: 2dbb 32bd 30c3 97bb 80eb 66bc 50d2 34bd
00000150: 89fc 903d 20af 4ebc cc59 38bd 8c73 87bd
00000160: d716 9dbd c1c6 90bd b0ac 8fbb 4abb 1b3d
00000170: d2a8 7c3d 603c 6a3c d96c 3ebd 1fb6 913d
00000180: 5e3a 193d 1a22 073d 761b 243d 7ccf 80bd
00000190: d139 57bd 4ed9 2e3d f057 50bd b833 a1bd
000001a0: 396f 98bd 8a0f 7b3d 127b 20bd 5484 87bd
000001b0: 8d94 a73d 6ab0 363d d0b5 993c 53b9 2bbd
000001c0: 1c6f 86bc e6e6 ebbc 4c00 b8bc b8a6 ae3c
000001d0: f3ad 39bd 10f5 bfbb e723 9b3d 3ad3 96bd
000001e0: ec53 27bd ba99 523d 8448 cabc a514 a03d
000001f0: a017 0d3d e6f3 333d 8e8c 3f3d 066c 7f3d
00000200: 14a5 87bd f6c7 aebd 4227 623d 9f2d 883d
00000210: a91d 9ebd 36e8 41bd 9a0b 8bbd 90a3 b6bc
00000220: 01ea 833d 80d0 a53c 6521 8ebd 6ad9 7f3d
00000230: 6425 d2bc 7669 203d 6fe3 ae3d 2d46 a63d
00000240: 5f32 2abd 28aa 72bd 98eb 7fbc 425a 26bd
00000250: 8e82 693d 6ceb de3c bdb6 983d 9cdc 71bd
00000260: 92ba 463d bb24 a43d f2ad 773d 3cb0 0b3d
00000270: db4e a7bd d930 54bd dffe 82bd e70d 9ebd
00000280: 4058 ec3a 0a03 663d 904e 57bc 60fd 8cbd
00000290: 9fcd 8f3d 4d2c 7bbd 4765 9d3d 8b93 a53d
000002a0: 6fe0 813d 27e0 8f3d 3977 2bbd d454 b2bc
000002b0: de0b 7d3d 5e4c e8bc 40d5 56bd ffd9 aebd
000002c0: d135 ad3d d85f 84bd 3e36 763d 703f ea3b
000002d0: eb64 a83d a069 a9bc cf80 a6bd 5fcc 863d
000002e0: 457f 943d 2e72 683d 804a 76bd 9a7a 81bd
000002f0: b8b0 563c d0b3 07bc 3e72 303d 40bb 5bbb
00000300: 90d9 ae3c 68d4 abbc f0c3 3dbd 96da 85bd
00000310: 9059 32bc 5004 ccbc 1da4 a83d 00e4 a738
00000320: 587a acbd c25b 63bd 0e28 6fbd 9f73 ae3d
00000330: 10a6 3cbc 32ba 7ebd 1bc8 8d3d 64b4 bc3c
00000340: b866 853c 1a15 b3bd 99d5 933d 642f 83bd
00000350: c6c7 3b3d 5a86 6f3d 8015 29bb 504a 61bd
00000360: ae45 2a3d cbd0 6abd dec8 373d c0fe d03c
00000370: 7398 04bd 2007 143b 28e0 ec3c 2ee2 89bd
00000380: 17b3 49bd 9263 403d ef43 0ebd f337 8abd
00000390: f27c 6c3d a81b 67bd d0ee 8ebc 6ecf 733d
000003a0: fbc5 adbd f433 82bd dd7d 8c3d 66df 2d3d
000003b0: 109e ad3c 9ecf 80bd 3060 e3bc 213b 88bd
000003c0: 61b7 963d d991 b43d f877 21bc aeec 5d3d
000003d0: d867 95bd a443 b83c 5d3d 8cbd c459 70bd
000003e0: 5eeb 133d a0a8 193c e0f9 acbb 8460 db3c
000003f0: bb88 9cbd c05a 5a3b d614 2e3d 5029 d3bb

fc3.bias f4 [4]
-0.0089151785 0.071262754 -0.0035160258 -0.019556
00000000: f810 12bc 35f2 913d 206d 66bb e833 a0bc
