learner_critic.pth (torch_old, 60754 bytes, 7 tensors)

fcs1.weight f4 [128, 33]
-0.07250149 0.040088926 -0.1238927 -0.09210095 0.12556452 -0.0012137599 0.03626531 0.13597655
-0.013123144 -0.06910239 -0.14796285 0.017768217 0.057026975 -0.038307402 0.161918 0.105241515
0.07645486 0.086738445 -0.12011677 0.1033369 -0.1504324 0.1094877 0.08897002 -0.13194646
-0.07539422 -0.11027528 -0.07848338 0.0027504908 0.04912999 -0.13016745 -0.084210485 -0.13208827
0.27630812 -0.16921473 -0.0474903 -0.101189785 -0.13873401 0.0029104233 0.015070979 -0.033557802
-0.14430963 -0.059823573 -0.1398598 -0.012004183 -0.068566464 0.10253244 -0.10562887 0.16399072
0.111034274 -0.07308081 -0.031055536 0.00628354 -0.113938026 -0.0035549256 0.04766905 -0.10477472
0.02396446 0.041255794 -0.09588532 -0.13233002 -0.010138766 0.10334671 -0.02907826 -0.15974928
0.018334568 0.57144237 -0.09713403 -0.17470361 -0.01463211 0.08923006 0.055816546 -0.06370303
-0.0126727475 -0.11780244 -0.014867158 0.15371482 -0.15559363 -0.05141909 -0.02799359 0.096757285
0.03632715 -0.01823452 0.017664557 0.0775915 0.07479006 -0.030780433 -0.13046096 -0.048890196
-0.034197293 0.07364031 0.10807613 -0.03737292 -0.031322483 -0.12370538 0.03101329 0.0810262
0.08716122 -0.04854819 -0.07287114 -0.13513759 0.03574891 -0.037908033 0.16600606 0.08988061
-0.120984256 0.06648307 0.08874235 -0.12077944 -0.090727255 0.08925119 -0.014451156 -0.06088979
-0.042771425 0.093217455 0.16089417 0.09166043 -0.064016044 -0.07443119 -0.050163373 0.072986536
-0.08601993 -0.04988182 0.08362188 -0.15398578 0.12642436 -0.12149691 0.14344557 -0.06953072
0.035081998 -0.13663296 0.004491642 -0.08482736 0.15641546 -0.0682409 -0.035870876 0.1545476
-0.11109602 -0.04148679 -0.09223685 0.16240235 0.022880942 0.14231795 0.090611205 0.1353879
0.098639816 0.07952725 0.036588807 0.08368347 0.052909218 0.13941233 -0.05741395 -0.03545218
0.088287815 0.11247371 0.14588049 0.039387327 -0.004656426 -0.11452567 -0.10969842 0.033121288
0.10464933 0.09341347 -0.123100616 -0.098960936 -0.34878385 -0.16726549 -0.05025474 -0.13861597
-0.13367547 0.061338305 -0.051741675 0.11188883 0.029920196 0.019285938 0.045468833 0.119316496
0.054829556 0.0147772655 0.101256475 0.09975003 0.01065101 0.07293476 -0.06824496 0.018824039
0.021901999 0.02564395 0.08505515 0.017329194 0.01691027 -0.023845892 0.12388052 -0.12228582
-0.010788254 0.088074006 0.14582717 0.17039058 -0.07964364 -0.43751112 -0.123626895 -0.1134903
-0.06250216 0.10506236 -0.15451385 -0.09908303 0.075035736 -0.05787415 -0.027741289 -0.047260392
0.06082033 -0.051480662 0.13745783 -0.14506228 0.12886505 0.005894012 -0.12078064 0.07175932
-0.05982921 -0.08747967 -0.11848331 -0.098923914 0.1354507 -0.05343491 0.12096041 0.096304215
-0.023325091 0.035593472 0.08531078 0.093183905 0.046276685 -0.12649146 0.03604615 0.08249686
0.06352427 -0.04348089 -0.055036984 0.25749862 0.21361867 0.0033474015 0.12684111 0.16497937
-0.09860042 -0.1610053 0.15138611 -0.041166335 0.032956216 0.09397693 -0.098557234 0.18805985
0.022496447 0.0068003554 -0.02301881 0.069557674 -0.028200282 -0.0762818 0.034852386 -0.11476098
00000000: a97b 94bd 4934 243d 75bb fdbd 6c9f bcbd
00000010: fc93 003e 0617 9fba ef8a 143d 703d 0b3e
00000020: 7502 57bc 8e85 8dbd 9383 17be a78e 913c
00000030: 1e95 693d 39e8 1cbd d5cd 253e dd88 d73d
00000040: 5e94 9c3d eda3 b13d c8ff f5bd 4ca2 d33d
00000050: f30a 1abe 163b e03d ea35 b63d f91c 07be
00000060: 4968 9abd 02d8 e1bd e5bb a0bd 9441 343b
00000070: 873c 493d 9e4a 05be 8c76 acbd 2642 07be
00000080: 4278 8d3e a046 2dbe 3085 42bd 973c cfbd
00000090: 4a10 0ebe cdbc 3e3b 44ec 763c e873 09bd
000000a0: e7c5 13be 9009 75bd 6837 0fbe 31ad 44bc
000000b0: 936c 8cbd 87fc d13d f353 d8bd 2fed 273e
000000c0: f065 e33d 64ab 95bd 2e68 febc 27e6 cd3b
000000d0: 5758 e9bd c1f9 68bb 9f40 433d 2194 d6bd
000000e0: 1d51 c43c d6fb 283d 865f c4bd 8581 07be
000000f0: 111d 26bc 71a7 d33d 8835 eebc 5195 23be
00000100: 6032 963c 0c4a 123f 35ee c6bd 81e5 32be
00000110: 84bb 6fbc 40be b63d e49f 643d bc76 82bd
00000120: 5ba1 4fbc 6842 f1bd 6195 73bc 6b67 1d3e
00000130: f053 1fbe d39c 52bd d052 e5bc af28 c63d
00000140: c7cb 143d 8f60 95bc 43b5 903c 4be8 9e3d
00000150: 882b 993d 3f27 fcbc 8f97 05be 1641 48bd
00000160: 7612 0cbd bbd0 963d 0557 dd3d 5914 19bd
00000170: 014c 00bd 3f59 fdbd 950f fe3c 10f1 a53d
00000180: 9581 b23d 78da 46bd 773d 95bd 8261 0abe
00000190: 736d 123d 7445 1bbd 7efd 293e 5313 b83d
000001a0: 98c6 f7bd 4728 883d 8dbe b53d 365b f7bd
000001b0: 36cf b9bd 54c9 b63d 8bc4 6cbc 9367 79bd
000001c0: 1731 2fbd cbe8 be3d 71c1 243e 77b8 bb3d
000001d0: d81a 83bd 616f 98bd 1c78 4dbd f779 953d
000001e0: 382b b0bd e150 4cbd f341 ab3d 73ae 1dbe
000001f0: 6375 013e 5fd3 f8bd 65e3 123e 1f66 8ebd
00000200: 24b2 0f3d 83e9 0bbe a02e 933b f8b9 adbd
00000210: 602b 203e e3c1 8bbd 57ed 12bd ba41 1e3e
00000220: 4f86 e3bd 0dee 29bd ace6 bcbd cd4c 263e
00000230: d070 bb3c ccbb 113e 5e92 b93d 20a3 0a3e
00000240: ac03 ca3d 2fdf a23d 25de 153d 3d62 ab3d
00000250: 56b7 583d 1bc2 0e3e e42a 6bbd 4e36 11bd
00000260: 3ed0 b43d 9e58 e63d b261 153e 9b54 213d
00000270: ef94 98bb 6f8c eabd 91a9 e0bd 30aa 073d
00000280: 6352 d63d 904f bf3d 2d1c fcbd 08ac cabd
00000290: cc93 b2be a547 2bbe ead7 4dbd 58f1 0dbe
000002a0: 39e2 08be e03d 7b3d 14ef 53bd f925 e53d
000002b0: 331b f53c 8bfd 9d3c 873d 3a3d 355c f43d
000002c0: f594 603d 581c 723c 8e5f cf3d be49 cc3d
000002d0: 9381 2e3c d25e 953d 03c4 8bbd df34 9a3c
000002e0: d26b b33c 4313 d23c 6531 ae3d f4f5 8d3c
000002f0: 6887 8a3c 7658 c3bc 12b5 fd3d fd70 fabd
00000300: 38c1 30bc 2560 b43d b853 153e de7a 2e3e
00000310: 341c a3bd 7501 e0be 1930 fdbd 9a6d e8bd
00000320: 2201 80bd ef2a d73d e138 1ebe 0bec cabd
00000330: 56ac 993d 720d 6dbd b341 e3bc 1d94 41bd
00000340: bd1e 793d 63dd 52bd bfc1 0c3e 358b 14be
00000350: 33f5 033e 8e22 c13b d75b f7bd 8df6 923d
00000360: 790f 75bd 8b28 b3bd 61a7 f2bd 9f98 cabd
00000370: 97b3 0a3e 90de 5abd 17ba f73d 253b c53d
00000380: 4314 bfbc 76ca 113d 6bb7 ae3d 34d7 be3d
00000390: 9f8c 3d3d fa86 01be 21a5 133d 1df4 a83d
000003a0: 0319 823d 0519 32bd 766e 61bd dcd6 833e
000003b0: dabe 5a3e 1460 5b3b a3e2 013e 5af0 283e
000003c0: 04ef c9bd 93de 24be f604 1b3e 089e 28bd
000003d0: 19fd 063d fa76 c03d 60d8 c9bd c392 403e
000003e0: 784a b83c 84d5 de3b f291 bcbc 4174 8e3d
000003f0: 4704 e7bc a239 9cbd 60c1 0e3d ce07 ebbd

fcs1.bias f4 [128]
0.1007875 0.038842876 -0.019036593 0.06753955 0.1494126 0.1406863 -0.083099335 -0.13745098
0.063162856 -0.05257432 -0.11160676 -0.034409538 -0.17642872 -0.06388091 -0.10751302 0.07986018
0.087802775 -0.030732429 -0.09737702 0.12085532 0.16000934 0.068703115 0.0653893 0.069705166
0.011901109 0.046022914 0.09329377 -0.08707898 -0.15397224 -0.17009616 0.10605926 -0.095108055
-0.02913817 0.10721511 -0.06602592 -0.132095 -0.164226 -0.015837476 -0.06144661 -0.03461861
-0.14175674 0.034384802 0.14498658 -0.015117157 0.0036387662 0.0727238 0.14490402 0.12539583
-0.06439521 -0.029832605 -0.050262738 0.118529305 -0.018482732 0.04909647 0.17870848 0.16505434
-0.12045579 0.05778953 0.14236026 0.06739413 0.15415032 0.044138126 0.01866765 -0.03956448
-0.15173715 -0.047118645 0.12605737 -0.06184188 0.02779449 0.133299 0.038394313 -0.08243281
0.08569337 -0.046628658 0.10208977 -0.048916657 -0.15440515 0.066605136 0.16826795 -0.049844895
-0.057820655 -0.078784116 0.08849361 0.12655336 0.009019063 0.0790466 0.015641794 -0.015865847
-0.14461972 0.05817532 0.0057947994 -0.04575944 0.04540889 0.1927991 -0.026972193 -0.08510606
-0.13029037 -0.039984953 -0.024941606 -0.16832441 0.15245989 0.073910445 0.15631893 -0.033099715
-0.11709364 0.12653762 -0.16601685 -0.014711233 0.14660314 -0.031377483 -0.024055062 0.14160879
0.08959251 -0.110459946 -0.06986276 -0.0039717406 -0.07553802 -0.041106503 -0.04393541 -0.12092662
-0.14405386 -0.07209015 -0.107055925 -0.03336687 -0.085105315 0.058562756 -0.013680055 -0.07738295
00000000: ad69 ce3d b519 1f3d a1f2 9bbc 2d52 8a3d
00000010: 9eff 183e 1210 103e fc2f aabd f3bf 0cbe
00000020: 875b 813d 2c58 57bd 1692 e4bd 04f1 0cbd
00000030: bba9 34be ffd3 82bd c92f dcbd bc8d a33d
00000040: f1d1 b33d 93c2 fbbc 9a6d c7bd fe82 f73d
00000050: 7dd9 233e 38b4 8c3d d3ea 853d 95c1 8e3d
00000060: defc 423c 8682 3c3d ce10 bf3d 7756 b2bd
00000070: e6aa 1dbe b02d 2ebe 9935 d93d 03c8 c2bd
00000080: 2cb3 eebc 9893 db3d 9938 87bd e943 07be
00000090: dc2a 28be 98bd 81bc 71af 7bbd 3ecc 0dbd
000000a0: ae28 11be 14d7 0c3d 5d77 143e f4ad 77bc
000000b0: 5e78 6e3b 37f0 943d b861 143e c467 003e
000000c0: a3e1 83bd 8263 f4bc 4de0 4dbd 7ebf f23d
000000d0: 1969 97bc 6119 493d 5bff 363e 0104 293e
000000e0: 86b1 f6bd b7b4 6c3d e3c6 113e ef05 8a3d
000000f0: 95d9 1d3e 2eca 343d e6ec 983c 5d0e 22bd
00000100: fc60 1bbe 7bff 40bd 2f15 013e e94d 7dbd
00000110: 45b1 e33c 887f 083e 5b43 1d3d 88d2 a8bd
00000120: 0180 af3d b1fd 3ebd 7114 d13d d55c 48bd
00000130: 621c 1ebe 4668 883d 6f4e 2c3e 292a 4cbd
00000140: 5ad5 6cbd 9159 a1bd 233c b53d 3497 013e
00000150: b1c4 133c 2fe3 a13d 3823 803c 18f9 81bc
00000160: 3117 14be 3f49 6e3d 4de2 bd3b 406e 3bbd
00000170: acfe 393d 216d 453e caf4 dcbc 164c aebd
00000180: d76a 05be 43c7 23bd 5752 ccbc 3c5d 2cbe
00000190: 721e 1c3e 5c5e 973d 1212 203e 9193 07bd
000001a0: cace efbd 1493 013e 5200 2abe 6207 71bc
000001b0: 221f 163e ad85 00bd 1f0f c5bc e501 113e
000001c0: 477c b73d d338 e2bd 3514 8fbd 6025 82bb
000001d0: adb3 9abd 4b5f 28bd 9ef5 33bd 60a8 f7bd
000001e0: db82 13be 00a4 93bd 2340 dbbd b3ab 08bd
000001f0: b24b aebd 80df 6f3d 4f22 60bc f47a 9ebd

fca1.weight f4 [32, 4]
-0.009819364 -0.13550998 -0.20174658 0.39699432 -0.31544453 -0.3407972 -0.12035776 -0.082755074
-0.27548203 0.39480442 0.22865768 0.06565369 -0.31229964 -0.2775492 -0.12700355 0.44306207
0.14741859 -0.04793808 0.46586096 0.16451752 0.49258193 0.40798366 -0.20345896 -0.36713958
0.33732337 0.3347593 0.4990006 0.28499407 -0.02832794 -0.19871129 0.15729453 0.13932495
0.01614349 -0.03387525 0.43935415 0.03965303 -0.04347372 -0.4268116 0.14477053 -0.40668562
0.035576656 -0.20676547 -0.2485335 0.17981568 0.45854175 -0.41645804 -0.39210525 0.3029091
-0.13880399 0.1150527 -0.3849196 -0.23449893 -0.13023104 -0.26891366 -0.4105621 0.32282943
0.14114994 0.15917617 0.1239261 0.25422195 -0.24308072 0.041403614 0.31515563 0.26125142
-0.13943133 0.1163453 0.26653576 -0.45553845 -0.020659644 0.111584455 -0.44655892 -0.18204094
0.34156704 0.15482244 0.036605764 -0.4311436 0.49625158 -0.31788653 -0.087793045 -0.18042307
0.31606033 -0.3005411 0.4849728 0.099532306 -0.45360753 0.19680624 0.058474127 -0.11383247
-0.17967233 -0.3762797 0.24042913 -0.14169116 0.2599713 0.14129594 -0.32344946 0.068063885
-0.27092898 0.24008663 -0.22972703 -0.20058273 -0.32348615 -0.08961807 0.31843323 -0.021555487
0.39518392 -0.45073056 -0.4048606 0.21866837 0.06423565 0.14861841 -0.3329033 -0.23635034
-0.24083729 0.47593307 -0.22989058 -0.4495077 0.30251816 -0.26991135 0.040172096 -0.4535801
-0.1812715 -0.12621163 -0.21722944 0.23112309 -0.06666634 -0.36695573 -0.02084571 0.011429788
00000000: 66e1 20bc 21c3 0abe a896 4ebe d742 cb3e
00000010: f281 a1be f87c aebe 217e f6bd 7e7b a9bd
00000020: fb0b 8dbe ce23 ca3e 3d25 6a3e 7175 863d
00000030: bde5 9fbe ee1a 8ebe 380d 02be 08d9 e23e
00000040: e6f4 163e b85a 44bd 5485 ee3e 4877 283e
00000050: b333 fc3e 3ce3 d03e 8c57 50be b8f9 bbbe
00000060: a6b5 ac3e 9265 ab3e 027d ff3e beea 913e
00000070: ff0f e8bc f97a 4bbe d111 213e 33ab 0e3e
00000080: 5a3f 843c c6c0 0abd 07f3 e03e 376b 223d
00000090: 8011 32bd 0d87 dabe ba3e 143e 1939 d0be
000000a0: d4b8 113d 54ba 53be 917f 7ebe 9a21 383e
000000b0: fcc5 ea3e fd39 d5be 05c2 c8be e716 9b3e
000000c0: a222 0ebe c0a0 eb3d 2f14 c5be 7d20 70be
000000d0: 495b 05be 0daf 89be 3235 d2be e649 a53e
000000e0: 9c89 103e 14ff 223e f8cc fd3d 6129 823e
000000f0: 27ea 78be d696 293d 145c a13e bfc2 853e
00000100: 16c7 0ebe 7246 ee3d 6077 883e 563c e9be
00000110: 6a3e a9bc 6486 e43d 5fa3 e4be f168 3abe
00000120: e0e1 ae3e c689 1e3e edef 153d dbbe dcbe
00000130: b014 fe3e 06c2 a2be d7cc b3bd d3c0 38be
00000140: a9d2 a13e 86e0 99be 5b4e f83e 98d7 cb3d
00000150: 3f3f e8be 9387 493e 9182 6f3d ff20 e9bd
00000160: 06fc 37be bca7 c0be 0e33 763e 7d17 11be
00000170: f51a 853e e2af 103e 2b9b a5be 1465 8b3d
00000180: 34b7 8abe 45d9 753e 903d 6bbe 8f65 4dbe
00000190: fa9f a5be ae89 b7bd ae09 a33e 2295 b0bc
000001a0: 8c55 ca3e 28c6 e6be e349 cfbe 9aea 5f3e
000001b0: fb8d 833d 6d2f 183e 4d72 aabe d305 72be
000001c0: 0d9e 76be 80ad f33e 7068 6bbe e025 e6be
000001d0: a9e3 9a3e d231 8abe 7f8b 243d a73b e8be
000001e0: 3c9f 39be 9f3d 01be 6571 5ebe 88ab 6c3e
000001f0: 5d88 88bd 9fe1 bbbe 9fc4 aabc 0144 3b3c

fca1.bias f4 [32]
0.07677611 0.482189 -0.35722497 0.26804796 0.5043577 -0.37695777 0.26546445 -0.43155247
0.025099035 0.45855674 0.106085375 -0.23542315 -0.34483454 0.04329165 0.44568264 0.08442361
-0.16708906 -0.3366887 0.19288261 -0.44127044 -0.3507227 -0.0854449 0.05581993 0.3099506
-0.010218154 0.2833854 -0.06680986 0.5259048 0.28356075 0.27704906 -0.22381277 -0.13221022
00000000: cb3c 9d3d 7ae1 f63e 31e6 b6be 953d 893e
00000010: 961d 013f 9c00 c1be f5ea 873e 72f4 dcbe
00000020: 7e9c cd3c f3c7 ea3e 4a43 d93d c412 71be
00000030: 278e b0be 9652 313d 8430 e43e 49e6 ac3d
00000040: 6519 2bbe 7662 acbe 0583 453e 33ee e1be
00000050: ed91 b3be bcfd aebd 70a3 643d d8b1 9e3e
00000060: 0b6a 27bc e417 913e 9cd3 88bd b2a1 063f
00000070: e02e 913e 60d9 8d3e 2d2f 65be 1e62 07be

fc2.weight f4 [64, 160]
0.02465667 -0.0047812653 0.077765904 -0.017455298 0.023487942 0.0066205394 -0.042989273 -0.0046091853
0.06684714 0.04908451 0.026259445 -0.012945087 0.058418714 -0.0062494716 0.012088999 -0.0077248737
-0.055587072 0.005606144 0.05891611 -0.041815493 -0.015894577 0.070862524 -0.086715944 -0.01603665
0.075736515 -0.024202703 -0.023642983 -0.008165865 -0.04462389 0.052637704 0.056386657 0.06598801
0.053868093 -0.049227335 -0.07575507 0.011606739 -0.041277654 0.09160536 -0.054581013 -0.053941417
-0.0972986 0.034037996 0.042419992 0.048831962 -0.060000263 0.07413748 -0.04138894 0.08078203
-0.020716216 0.04809837 0.040803663 0.030030474 0.0613123 0.042540204 -0.07670427 -0.015929284
0.033116158 0.035476368 -0.035992358 0.043630794 -0.02395687 0.050810095 -0.052677378 -0.0010572411
0.014939325 0.015319422 -0.06804027 0.0015360876 0.060605932 0.01778389 0.030341176 -0.010051019
0.0006991509 -0.0357643 -0.0385176 -0.06233015 -0.06251878 -0.0010749034 0.05158948 -0.038503964
0.03006629 -0.025197644 -0.0466158 0.020065334 0.019369384 0.043451443 -0.024888935 -0.049987935
-0.009267814 -0.009555304 0.04578899 -0.06885557 0.03806095 -0.016587416 -0.061914057 -0.009614635
-0.007391427 -0.035529606 0.057095617 -0.009466467 0.037895788 0.010683702 0.069984555 -0.040653296
-0.06690532 0.053304758 0.060370665 0.057565287 0.07776592 0.024784306 0.06352806 0.07783278
-0.08359294 0.046067193 0.0013162787 -0.030483652 -0.0046961224 0.07843895 -0.018436834 0.06527839
-0.040026434 -0.0023519453 0.008230864 -0.038422123 0.064688355 0.07795115 0.062147833 0.049079474
-0.018557103 -0.08227679 0.0057017496 0.0036335685 -0.093197696 -0.00627961 0.0309326 -0.04450206
0.04851219 0.0444845 -0.065003306 0.030666819 -0.020612571 -0.0039513665 0.031271767 -0.06796244
0.016999276 -0.027038915 0.0526706 -0.07562644 0.058924705 -0.060301572 0.0016810612 -0.02239047
0.043804936 0.006449572 -0.072173126 -0.052028008 -0.06999939 0.035278562 0.005062777 0.06730336
0.033293266 0.01549468 -0.0384402 0.05250891 0.0534667 0.017459564 -0.048954986 0.040219083
-0.098560296 -0.006949998 -0.009635971 -0.024460843 -0.0665439 0.017967772 -0.046549402 0.078675084
-0.0490577 -0.05074778 0.037673857 -0.027205028 -0.025511416 -0.009303151 0.047858175 -0.08141246
0.07902943 -0.024021117 0.06827196 0.0021178992 0.064748965 -0.09536316 -0.042831868 0.018404342
-0.031322513 -0.047905352 -0.040099766 0.0040541436 -0.002552626 -0.05634157 -0.0041806106 -0.07338601
0.008294574 -0.0025305399 0.06495596 0.0335962 -0.057406742 0.025623225 -0.0019307415 -0.0038039817
0.013575585 -0.0027049163 -0.022767803 0.00932207 0.020153414 0.019414287 0.068500005 -0.05840172
0.07464879 0.06878116 0.066230185 0.04468575 0.058887504 -0.09018978 0.035813723 0.0028099304
0.047854155 -0.031141298 0.025939913 -0.0026453089 0.029083611 0.051249098 0.050706025 0.014297424
0.019569552 0.041351493 -0.042447727 -0.0395788 0.034849513 0.015535194 -0.02108877 -0.02804386
-0.045358803 0.049588274 -0.014706135 0.046323605 0.018408494 0.07179524 -0.039910503 -0.030571345
0.028254693 0.025313457 -0.036912527 -0.056865357 -0.06250116 0.060578674 -0.07157848 -0.0079315035
00000000: c9fc c93c 29ac 9cbb bb43 9f3d 6afe 8ebc
00000010: c969 c03c 1cf1 d83b 8515 30bd a608 97bb
00000020: 27e7 883d d70c 493d 0c1e d73c a117 54bc
00000030: 7648 6f3d 5ec8 ccbb f010 463c f020 fdbb
00000040: 45af 63bd bfb3 b73b 0552 713d b946 2bbd
00000050: 5835 82bc 5f20 913d 2198 b1bd 4b5f 83bc
00000060: bf1b 9b3d bf44 c6bc eeae c1bc 1fca 05bc
00000070: 8ac7 36bd a29a 573d b2f5 663d b924 873d
00000080: caa4 5c3d 9aa2 49bd 7925 9bbd 312a 3e3c
00000090: c212 29bd 979b bb3d 5790 5fbd adf1 5cbd
000000a0: 7d44 c7bd 6d6b 0b3d 96c0 2d3d 0604 483d
000000b0: d6c2 75bd 64d5 973d 7387 29bd 0d71 a53d
000000c0: 0eb5 a9bc cc02 453d be21 273d 7802 f63c
000000d0: 9b22 7b3d a33e 2e3d 2117 9dbd 217e 82bc
000000e0: cfa4 073d ab4f 113d b96c 13bd 34b6 323d
000000f0: 3341 c4bc 3f1e 503d 3cc4 57bd 2093 8aba
00000100: 12c4 743c 50fe 7a3c b258 8bbd 8c56 c93a
00000110: ed3d 783d 85af 913c 0f8e f83c 07ad 24bc
00000120: 3947 373a 967d 12bd a2c4 1dbd e64d 7fbd
00000130: d909 80bd c6e3 8cba 7e4f 533d 55b6 1dbd
00000140: 954d f63c 4a6b cebc 36f0 3ebd 0e60 a43c
00000150: 8bac 9e3c 24fa 313d e1e3 cbbc 26c0 4cbd
00000160: 08d8 17bc da8d 1cbc 3c8d 3b3d 2604 8dbd
00000170: cce5 1b3d 55e2 87bc 9899 7dbd b486 1dbc
00000180: c933 f2bb 7e87 11bd 18dd 693d 3e19 1bbc
00000190: 9d38 1b3d b20a 2f3c 1054 8f3d 1284 26bd
000001a0: a805 89bd 1756 5a3d 3b47 773d 94c9 6b3d
000001b0: bd43 9f3d 7508 cb3c 001b 823d cb66 9f3d
000001c0: c632 abbd f4b0 3c3d fc86 ac3a dab8 f9bc
000001d0: eee1 99bb 9aa4 a03d d808 97bc adb0 853d
000001e0: c2f2 23bd 1823 1abb bfda 063c 8460 1dbd
000001f0: 547b 843d daa4 9f3d ba8e 7e3d 8f07 493d
00000200: 1105 98bc bc80 a8bd bed5 ba3b 2a21 6e3b
00000210: 6fde bebd 30c5 cdbb 5d66 fd3c cb47 36bd
00000220: b8b4 463d 6135 363d 7420 85bd fb38 fb3c
00000230: b2db a8bc 777a 81bb d316 003d e42f 8bbd
00000240: 1142 8b3c b780 ddbc 21bd 573d 09e2 9abd
00000250: 085b 713d c8fe 76bd 0e57 dc3a 386c b7bc
00000260: ce6c 333d ee56 d33b 81cf 93bd 521b 55bd
00000270: d75b 8fbd 4180 103d a7e5 a53b 58d6 893d
00000280: 855e 083d 66dd 7d3c 7973 1dbd 9513 573d
00000290: e6ff 5a3d 5c07 8f3c 0685 48bd c4bc 243d
000002a0: fbd9 c9bd cfbc e3bb 31e0 1dbc 1b62 c8bc
000002b0: 2b48 88bd 2631 933c 96aa 3ebd 6720 a13d
000002c0: baf0 48bd e7dc 4fbd e74f 1a3d 14dd debc
000002d0: 51fd d0bc 3e6c 18bc ef06 443d 93bb a6bd
000002e0: 2fda a13d efc7 c4bc 2bd2 8b3d 74cc 0a3b
000002f0: 1b9b 843d c34d c3bd 7870 2fbd b4c4 963c
00000300: 094c 00bd 6738 44bd a73f 24bd 9fd8 843b
00000310: f549 27bb 6bc6 66bd 81fd 88bb 684b 96bd
00000320: f7e5 073c 6ad7 25bb a107 853d 2b9c 093d
00000330: 5523 6bbd cce7 d13c ef10 fdba 394c 79bb
00000340: 216c 5e3c f744 31bb 8b83 babc 98bb 183c
00000350: c618 a53c b60a 9f3c bb49 8c3d a436 6fbd
00000360: 77e1 983d 23dd 8c3d b1a3 873d 6808 373d
00000370: 0634 713d 6bb5 b8bd 69b1 123d cf26 383b
00000380: b802 443d 091c ffbc f17f d43c eb5c 2dbb
00000390: c140 ee3c 93ea 513d 1fb1 4f3d be3f 6a3c
000003a0: 5350 a03c 2f60 293d abdd 2dbd 611d 22bd
000003b0: 5dbe 0e3d 5487 7e3c 5bc2 acbc 3dbc e5bc
000003c0: 27ca 39bd 131d 4b3d 00f2 70bc d2bd 3d3d
000003d0: 69cd 963c 6209 933d 3279 23bd c270 fabc
000003e0: 6376 e73c 2b5e cf3c 9731 17bd a6eb 68bd
000003f0: 9c00 80bd 5821 783d bd97 92bd 23f3 01bc

fc2.bias f4 [64]
-0.0009854285 -0.053015016 0.07749971 0.043679316 0.07596088 -0.017445233 0.08819479 0.0050739124
-0.04719293 0.033454366 0.10861349 -0.03472062 0.058233514 -0.05669704 -0.036793157 -0.07323933
0.080317296 0.01252179 -0.102444865 0.013299016 -0.008640871 -0.023460673 0.020167531 0.07118279
-0.07259432 -0.08511467 -0.09102607 0.039085634 0.011274986 -0.09627408 -0.022302829 0.111509
0.010514159 0.11760399 0.04496332 -0.024815662 -0.099758506 0.0641119 0.0041804626 -0.008514707
0.055026796 -0.00013122897 -0.029185653 -0.014654168 0.00070336007 0.118374504 -0.013934708 -0.12228285
-0.00972508 -0.06316065 -0.0046349815 -0.06917541 0.014176433 0.06196567 0.04762168 0.095978774
0.10396472 0.0247905 0.031340692 0.007796753 -0.037714146 0.11073762 0.01562186 0.06931676
00000000: 7e29 81ba 4626 59bd 2bb8 9e3d 15e9 323d
00000010: 6191 9b3d 4ee9 8ebc 789f b43d 1043 a63b
00000020: 604d 41bd 7207 093d c070 de3d 3537 0ebd
00000030: 4486 6e3d 283b 68bd 6cb4 16bd 80fe 95bd
00000040: 657d a43d 3228 4d3c 9dce d1bd 1ee4 593c
00000050: 7192 0dbc 9930 c0bc 6136 a53c 48c8 913d
00000060: 55ac 94bd 9a50 aebd e06b babd 4218 203d
00000070: b8ba 383c 582b c5bd 6cb4 b6bc d55e e43d
00000080: 9443 2c3c 5cda f03d 752b 383d 374a cbbc
00000090: 304e ccbd 1a4d 833d 43fc 883b 4581 0bbc
000000a0: c763 613d 829a 09b9 c016 efbc 0918 70bc
000000b0: b261 383a 556e f23d 674e 64bc 6e6f fabd
000000c0: f155 1fbc 5f5a 81bd 0be1 97bb d6ab 8dbd
000000d0: 4544 683c b7cf 7d3d f30e 433d 8590 c43d
000000e0: 75eb d43d 7215 cb3c 195f 003d e87b ff3b
000000f0: 267a 1abd 68ca e23d d4f2 7f3c f2f5 8d3d

fc3.weight f4 [1, 64]
-0.020611761 -0.015633786 0.037589546 0.18200779 0.07193206 -0.03135101 0.074034795 0.015622978
-0.14359441 0.051018227 0.076893955 0.084589854 0.029567333 -0.0412562 -0.032733355 -0.15120888
0.035452943 -0.024125995 -0.04526245 -0.0578417 0.06278086 0.08899492 0.0345943 0.0335712
-0.026071487 -0.06966112 -0.06854979 -0.04595594 0.0433004 -0.014703994 0.038166866 0.07975762
-0.030634895 0.030261502 -0.066816814 -0.14892586 -0.038106 0.052608404 -0.04216417 0.056204945
0.1512659 0.03154655 0.054014124 -0.05776774 0.022658242 0.030173965 -0.035309102 -0.012461611
-0.028404783 -0.005641397 0.049145047 -0.05088406 0.11039688 0.083825156 0.017299617 0.07398148
0.014666348 0.06305674 -0.04056413 -0.028899018 -0.17907892 0.032152716 0.026539229 0.019049345
00000000: ffd9 a8bc 6d12 80bc 7ff7 193d 4060 3a3e
00000010: 1e51 933d eb69 00bd 8e9f 973d 85f7 7f3c
00000020: 6a0a 13be 7df8 503d 947a 9d3d 723d ad3d
00000030: 3137 f23c 43fc 28bd 6913 06bd 80d6 1abe
00000040: 1b37 113d e1a3 c5bc 1e65 39bd 6beb 6cbd
00000050: 4093 803d f842 b63d c1b2 0d3d f481 093d
00000060: df93 d5bc 7daa 8ebd d563 8cbd 4c3c 3cbd
00000070: c35b 313d 05e9 70bc dc54 1c3d f757 a33d
00000080: 08f6 fabc f8e6 f73c 41d7 88bd 0580 18be
00000090: 0915 1cbd e97b 573d 56b4 2cbd 2837 663d
000000a0: 73e5 1a3e f536 013d ea3d 5d3d de9d 6cbd
000000b0: c79d b93c 642f f73c 47a0 10bd c92b 4cbc
000000c0: 26b1 e8bc 78db b8bb 514c 493d ce6b 50bd
000000d0: c217 e23d 86ac ab3d edb7 8d3c 9a83 973d
000000e0: 1f4b 703c e423 813d 9326 26bd a2bd ecbc
000000f0: 7760 37be 91b2 033d cc68 d93c 5f0d 9c3c
