learner_actor.pth (torch_old, 86517 bytes, 6 tensors)

fc1.weight f4 [128, 33]
000000 e1 a3 44 bd 5f 1c 8d 3d 8d d3 b4 3d 9f ad 7e 3b
       -0.04800785 0.06890177 0.088294126 0.003886081
000010 14 b2 23 3b a1 19 26 be c0 03 af bd 2f b7 80 bb
       0.002497797 -0.16220714 -0.08545637 -0.003928087
000020 7d 1e 1e bd 67 c6 3c bd 9b d7 d7 bd f3 8a 4c 3e
       -0.038603295 -0.04608765 -0.1053917 0.1997488
000030 a6 6c d2 bc a3 97 94 3c f9 0a 54 3e 9b 1a 02 3e
       -0.025686573 0.018138712 0.2070731 0.12705462
000040 52 d3 ff b9 66 40 9d bd 6f 62 e1 3d 29 f7 a7 3d
       -0.00048794836 -0.07678299 0.11005103 0.08201439
000050 2e 10 c7 3d 38 d0 3b 3e fc 76 fa 3c 12 16 d1 3b
       0.09719883 0.18341148 0.030574314 0.006380805
000060 a8 71 f1 3d 36 c6 9f 3d c2 4b 64 be 39 42 a6 bd
       0.11789256 0.078014776 -0.22294524 -0.081181
000070 02 0e 7d 3e 6c 48 04 bd b3 54 61 3e 87 76 c3 bd
       0.24712375 -0.03229563 0.22004966 -0.09544092
000080 3d 54 d9 be 15 c2 51 3e 44 cd 42 be c8 a9 c2 bd
       -0.4244708 0.20484193 -0.19023615 -0.095050395
000090 10 26 7a 3c ea 19 bc bd 48 8c 93 bd c8 60 8d 3d
       0.015267864 -0.0918463 -0.07204491 0.06903225
0000a0 00 f6 bf 3d 88 60 aa ba 5e 89 d3 bc b5 a7 38 be
       0.09373093 -0.0012998739 -0.025822338 -0.18032725
0000b0 6c 6e 9d bd 0d 73 1f 3d 81 e3 7f be ec 69 80 3e
       -0.07687077 0.03892808 -0.2498913 0.25080812
0000c0 99 fd 84 3d 2b 67 19 bc 9b 20 00 3d 14 ce e6 bc
       0.064936824 -0.009362976 0.031281095 -0.028174438
0000d0 ed 99 a2 bc 4c e7 dd bc 50 94 53 3d e1 34 78 3d
       -0.019848788 -0.02708783 0.051655114 0.060597304
0000e0 a6 df cf 3d 68 f0 06 3e 1d a5 0c be d7 8b 12 3e
       0.101500794 0.13177645 -0.1373486 0.14311157
0000f0 7a 88 3e be 81 d9 7e bd b0 00 0c 3e cc 36 4d 3e
       -0.18606749 -0.062219147 0.13672137 0.20040435
000100 a2 3f d8 bd ba 46 75 be 12 eb d8 bd dc 7d f6 bd
       -0.10559012 -0.23952761 -0.10591711 -0.120357245
000110 f6 d5 f6 3d d1 5a 34 bc cd e4 dc bc 77 7a d3 3d
       0.120525286 -0.01100798 -0.02696457 0.10326093
000120 c2 bc 6b 3d 62 0c 9b 3b 5b ef 40 be 84 07 41 be
       0.05755306 0.0047317008 -0.18841307 -0.18850523
000130 f0 2f 34 3b 50 c8 aa 3d 3d 18 21 3d 69 e8 25 bd
       0.0027494393 0.08338988 0.039329756 -0.040504847
000140 04 22 06 3e 54 8b f5 bd 0d 1e 5b 3d d5 37 b7 bb
       0.13098913 -0.11989465 0.053495456 -0.0055913725
000150 40 32 55 bd de ee ae 3c 27 ec d4 39 82 41 97 bd
       -0.052049875 0.021354135 0.00040611738 -0.073855415
000160 be 95 78 3d be f8 38 bd d4 46 83 bd 57 b2 81 3d
       0.06068968 -0.045159094 -0.06409994 0.06332844
000170 8e b5 7f 3c 0f bf 97 be a3 f4 38 be f0 22 e6 3c
       0.015607251 -0.29637954 -0.18062072 0.028092831
000180 3f 33 a4 3e 61 6e 81 bd 9f 59 08 40 ef 25 54 3b
       0.32070348 -0.06319881 2.13047 0.0032371243
000190 2b 8f 04 bd d0 18 b7 bd d0 cd d3 bb 46 63 c9 3d
       -0.032363098 -0.089402795 -0.0064637437 0.09833388
0001a0 bc ca 68 3d b2 d3 0c 3e 9f 7b 0d be 9a e8 26 3e
       0.056833968 0.1375263 -0.13816689 0.16299668
0001b0 0f 71 e1 bd 25 b7 b5 bd 18 32 02 be 4d f0 52 bd
       -0.11007892 -0.08872823 -0.12714422 -0.0514987
0001c0 a8 77 62 bd 4d 7e 76 bd 81 0d 2f 3e d6 c5 2a 3d
       -0.055289894 -0.060179044 0.17094995 0.041692577
0001d0 17 44 c7 3c 3c 99 a4 bd 8d e2 36 bd 08 3e db bc
       0.02432446 -0.0803704 -0.04464965 -0.026762977
0001e0 14 05 07 be 69 a1 16 bd f9 14 c5 bc 00 2d ac bd
       -0.13185531 -0.036775026 -0.024057852 -0.084070206
0001f0 a7 43 3e 3e 5b 25 aa 3e df cd d3 3c e1 66 d3 3d
       0.18580495 0.33231625 0.025855003 0.10322357
000200 92 45 03 3e f7 2d d8 3c 5c e7 8b bd c4 1b 39 3f
       0.12819508 0.026389105 -0.06831238 0.7230799
000210 ea de 10 3e e9 5e 49 3e b9 9d c0 bd 5b 34 26 3c
       0.14147535 0.19665112 -0.09405083 0.010144318
000220 9a 1c 05 3e 94 77 c8 bd c0 cd 83 bd 49 90 c3 bd
       0.12999192 -0.09788433 -0.06435728 -0.095490046
000230 42 dc 0d 3e b0 ea 3e bc f3 4b e3 bd 64 a0 08 3d
       0.13853553 -0.011652634 -0.110984705 0.033356085
000240 7d f2 cb 3a 25 f3 f2 bd e9 f4 d4 bd f9 81 45 3e
       0.0015559938 -0.118627824 -0.103982754 0.19287862
000250 d1 3d c7 bc 96 02 c6 bc 05 25 ea 3d 07 d3 ca 3c
       -0.024321469 -0.024171155 0.11432842 0.024758829
000260 ad 9b 06 3c 89 f4 c2 bd b7 b4 0a bd 95 1e 2a be
       0.008215827 -0.09519298 -0.03386375 -0.16613229
000270 e5 1e c6 bd 77 90 24 3e 58 21 f1 bc 76 26 48 bd
       -0.096738614 0.16070734 -0.029434845 -0.048864804
000280 43 56 67 3e 18 ce a9 bc 79 6b a4 3c 88 ad eb bd
       0.225915 -0.020728156 0.020070778 -0.11507708
000290 1b 4f 40 3e 37 90 82 be d9 10 06 3e 58 16 ce be
       0.18780176 -0.25500652 0.13092364 -0.40251422
0002a0 40 00 db 3d ea 6e 08 be 5b 91 54 3c 6c b3 a0 bd
       0.10693407 -0.1332356 0.012974109 -0.07846722
0002b0 6d 9e 31 be af 47 7d 3b 9f bf a3 bd f9 94 28 3d
       -0.17345591 0.0038647463 -0.07995533 0.041157696
0002c0 fe 14 f6 bc a3 0a 1d be 31 64 36 bb 1a d9 50 be
       -0.030039307 -0.15336089 -0.0027830715 -0.20395318
0002d0 32 00 11 3e c5 05 91 bb 7b a7 00 bd 48 8b ce 3b
       0.14160231 -0.0044257366 -0.03140972 0.0063032247
0002e0 3d d4 35 3b 66 23 4b 3d 2b 37 6f bd 8d e3 11 be
       0.0027744912 0.049594305 -0.05840222 -0.1424696
0002f0 cc 59 04 be 3c 3d 53 3d b6 a6 1c 3e 74 87 10 3e
       -0.1292488 0.05157207 0.1529797 0.14114171
000300 d9 51 93 be 1c 5d cd 3d 43 9f 21 be 91 0a 89 3e
       -0.28773382 0.10027525 -0.1578341 0.26765874
000310 30 f9 46 bd a3 94 61 3f 74 cb 16 bd a1 69 1e be
       -0.048577487 0.88117427 -0.03681512 -0.15469982
000320 4a df e5 3d b9 c8 40 bd 06 1a 90 3d b4 5a 6f bd
       0.1122423 -0.047066424 0.070362136 -0.05843611
000330 f1 bb dc bc 2a 8f e5 bd fb 35 1c 3e 6b 30 5e bd
       -0.026945086 -0.11208947 0.15254967 -0.054245394
000340 dd 13 10 be a0 e8 ca 3d 53 d5 d6 3d 98 a5 35 bd
       -0.14070077 0.09907651 0.10489907 -0.044347376
000350 7c 0d 11 3e 48 04 3e 3e ea 6e a7 bc f3 14 81 3d
       0.141653 0.1855632 -0.02043863 0.06302824
000360 f6 ee 95 3c 1f f4 83 bb 51 c7 c9 bd 2f 45 93 3d
       0.018302422 -0.0040269042 -0.0985247 0.0719093
000370 16 83 e4 3d 12 a6 27 3d 86 06 21 be b9 17 2e bc
       0.11157815 0.04092986 -0.15725145 -0.010625773
000380 eb b4 99 be 6f 46 3f be 06 78 d5 3a 4c 7f d4 3d
       -0.30020842 -0.18679212 0.001628638 0.103758425
000390 04 a1 bd 3c 83 0b 01 be 9b 56 31 3f ee e5 02 bd
       0.023148067 -0.12602048 0.69272774 -0.03195756
0003a0 67 0e 1e 3e 26 7f fe bd 5c fe d7 3d a1 e1 87 bd
       0.15435182 -0.124265954 0.10546562 -0.06634832
0003b0 3d 38 6c 3e ae 89 85 3d 3b e6 06 3e 01 fa 30 be
       0.23068328 0.06520401 0.13173763 -0.17282869
0003c0 f2 81 ec 3d f6 b2 bb 3d b4 6d 30 3e 35 d2 55 3d
       0.115482226 0.091649935 0.17229348 0.052202422
0003d0 6e 13 4e be 4e 5d 58 3e 1c 05 a0 be 31 2e 85 3d
       -0.201246 0.21129343 -0.31253898 0.06502951
0003e0 ba fd fd 3c c8 d6 be 3b 62 44 62 3c e5 c8 e5 bd
       0.031004775 0.0058239438 0.013810249 -0.11219958
0003f0 cb 2e fb 3d 67 8a c7 bd 3c 16 5f 3e c8 b6 26 3d
       0.122647844 -0.09743195 0.21785825 0.040701658

fc1.bias f4 [128]
000000 51 c2 c2 3d bd 28 b8 3d 52 bf 9a 3e 83 fb 3a 3d
       0.09509719 0.08992145 0.3022409 0.045650017
000010 10 d9 9d bd 9c 5e 63 3d 22 41 d0 bd c4 1a bf 3d
       -0.07707417 0.05551015 -0.10168673 0.09331277
000020 33 e6 9f 3d 0d e2 a3 bd b7 f2 bc bd 06 96 22 3e
       0.07807579 -0.080021 -0.09225982 0.15877542
000030 b1 25 3f 3e e4 92 7e bc 5e a0 2c 3e 75 0c 97 bd
       0.18666722 -0.015537951 0.1685805 -0.07375423
000040 b8 b7 fa 3d 93 39 cb 3d a6 1f b4 be d1 1c 07 3e
       0.12242073 0.09923091 -0.35180396 0.13194586
000050 18 17 a7 bd d3 98 94 3d 13 83 ad be fe 33 60 3d
       -0.08158702 0.072557114 -0.33889064 0.054737084
000060 61 98 8d 3d d8 8e 42 bd 5a d8 14 3d 39 2f 95 bd
       0.069138296 -0.047499508 0.03633914 -0.07284398
000070 77 9d 8c bc a4 00 38 bd 09 bb 52 3d e3 4e 40 3e
       -0.017164929 -0.044922486 0.051447902 0.18780093
000080 87 db 0c 3e 60 b8 dd bd 38 36 d9 3d dd ab 2f 3e
       0.13755618 -0.10826182 0.106060445 0.17155404
000090 04 ca 22 be bf ae 18 3e 33 69 ac 3d f8 15 c8 3d
       -0.15897375 0.1491041 0.08418503 0.09769815
0000a0 5e b6 c4 3d 0d 75 8b 3e 39 70 56 3e fc d1 6d 3c
       0.09605096 0.2723774 0.20941247 0.014515396
0000b0 d9 27 2b 3c c9 4e 1f 3d fc c5 48 bd 3e 74 9c be
       0.010446512 0.038893495 -0.049016938 -0.30557436
0000c0 8f ed 5a be 3f 4b 0d bb 7c e4 aa bd c8 26 7c 3d
       -0.21379684 -0.0021559743 -0.08344361 0.061560422
0000d0 f1 4f ef 3d ce 09 01 bc 1d 80 0d bd 8b c0 51 bd
       0.116851695 -0.007875873 -0.034546006 -0.051209014
0000e0 83 28 35 be 78 21 1a 3e 82 d9 31 3d 5e 20 eb 3d
       -0.17691235 0.1505183 0.043420322 0.11480783
0000f0 74 5e 16 3e 6d 22 88 bd f5 34 fd bd fb 83 cc bc
       0.14684469 -0.06647191 -0.123636164 -0.024965277
000100 32 20 20 be 30 bb 60 bd 83 af 85 3e 8b b0 93 3d
       -0.15637282 -0.054866016 0.26110467 0.07211407
000110 a0 74 b9 3d 98 9e c2 bd 60 67 4d bd 48 a1 87 3e
       0.090554476 -0.095029056 -0.050147414 0.26490235
000120 68 cf 86 bc c1 00 4b 3e a9 33 ec bc dd 77 50 3d
       -0.01645632 0.19824506 -0.028833227 0.05089556
000130 b8 f6 da 3d 71 04 eb 3d 88 21 c6 3e 8a a6 28 3e
       0.10691589 0.114754565 0.38697457 0.1646978
000140 1a 45 a6 bb 7c df 03 3e 39 74 05 3e 19 1a fc 3d
       -0.0050741555 0.12878221 0.13032617 0.12309665
000150 13 de ea 3a b6 48 23 be ed a8 81 3d 6a cd 05 ba
       0.0017918966 -0.15945706 0.06331048 -0.00051041564
000160 37 ff b0 3d 09 4d 0f be a3 25 4a bd dc 02 4a 3c
       0.08642428 -0.1399423 -0.0493523 0.012329783
000170 ca 2c 4a 3e 8b 53 35 bd 71 9d 5f 3d 96 f9 9b 3a
       0.19743648 -0.044269126 0.054593507 0.0011899944
000180 0e 12 20 3e 28 42 61 bd b4 d4 4d 3e 4c 1d 26 bd
       0.15631887 -0.054994732 0.20100671 -0.040555283
000190 d3 ef 03 3e bf af cd 3d cb 0d ae 3d 67 3a 27 3e
       0.12884454 0.100432865 0.084987246 0.16330872
0001a0 13 cb bc bd a9 83 06 bc 43 01 60 bd fe c8 70 3e
       -0.09218421 -0.008210101 -0.054688703 0.23514172
0001b0 1d b6 a7 3d cd 7b 3f 3e 32 cb 66 3e 6b 8a f2 bc
       0.08189032 0.1869957 0.2253845 -0.029607018
0001c0 11 0d 0f 3e c4 29 18 3e 58 77 d4 3d fe ec aa bd
       0.13969828 0.14859682 0.103743255 -0.08345984
0001d0 eb fd ce bd c3 b9 97 3d 47 e9 ae 3d bd 2d 34 3e
       -0.10107025 0.07408478 0.08540588 0.17595573
0001e0 32 da 18 bd 8b dc 87 bd e1 76 0e be e5 f0 5a be
       -0.037317462 -0.06633862 -0.13912536 -0.21380956
0001f0 bf 01 11 3d 5b 56 33 bd 70 c7 88 3d 26 46 8b 3d
       0.035402056 -0.043783527 0.06678665 0.06800489

fc2.weight f4 [128, 128]
000000 e6 05 e2 bb a0 dc 56 3e 42 13 0f bb a0 07 72 3c
       -0.006897676 0.209826 -0.0021831547 0.014772326
000010 fa 9e b3 bd ed 88 bd 3d 43 c0 9d 3c ce 2e a5 bb
       -0.08770557 0.09254632 0.019256717 -0.00504098
000020 06 58 09 3e dc 3f 02 be 76 f8 90 3d b9 81 69 3d
       0.13412485 -0.12719673 0.0707864 0.05700848
000030 4d da cb 3c 79 28 2b bb 45 38 23 3d 74 65 a5 bb
       0.024884367 -0.0026116653 0.039848585 -0.0050474945
000040 73 3a fe 3c df 8c dd 3d d2 b6 64 3d ae 7f 24 3d
       0.03103373 0.10817885 0.055838414 0.040160827
000050 9a dc 36 bd 58 a9 c5 3d f7 59 87 3d 64 48 d4 bb
       -0.044643976 0.096514404 0.06608956 -0.006478356
000060 4c 6b 87 3d eb 79 0a 3d 8c d3 a9 3d 52 6c 5e bd
       0.06612262 0.033807676 0.082923025 -0.05430252
000070 78 4e e6 bc 9d 6e bf bd 45 77 23 3e 6a a9 44 be
       -0.028113589 -0.0934727 0.15963466 -0.19205251
000080 53 d8 0e 3d 75 b7 19 3d b6 cf 75 bd e8 bc 12 3e
       0.03487427 0.037528474 -0.06001254 0.14329875
000090 72 41 b5 3d 11 90 97 bc 23 a1 45 bd 36 5d ae 3d
       0.08850373 -0.018501313 -0.048249375 0.08513872
0000a0 04 1a 53 3d 81 d4 2c bc de 5c 9d bd ae 24 90 3d
       0.051538482 -0.010548712 -0.07683729 0.07038246
0000b0 8a 7f c4 3d 31 02 90 3d 83 77 5d 3e 73 5d c3 bd
       0.09594639 0.07031668 0.21627621 -0.095393084
0000c0 87 2a 7f 3d 2d aa ed 3d 7e 0e ca 3d a0 c9 97 bd
       0.062296417 0.11604724 0.098660454 -0.07411504
0000d0 8b e5 d8 3c 6a 7b a8 3d 1c 87 ff bb 43 2f 8b 3d
       0.026476642 0.08226664 -0.0077980887 0.06796124
0000e0 80 0a 35 be 96 fc 71 ba cf bc 56 3c 29 fe 9f bd
       -0.17679787 -0.00092310586 0.013106539 -0.07812149
0000f0 09 45 b6 bb 95 8d e4 bd 2f 7f 72 bd c6 c7 c8 3d
       -0.005562429 -0.11159817 -0.059203323 0.09803729
000100 31 27 5c 3d e3 9d 13 3c 3a 2f 97 bd d4 f1 57 bd
       0.053748313 0.009009811 -0.073820546 -0.05272086
000110 1a 30 cc bd 8c 7d 0c 3e 5a af 29 bc 79 e6 81 3d
       -0.09970112 0.13719767 -0.0103567485 0.06342787
000120 57 cd e6 bd 66 55 91 3d 05 a1 e3 3d 0d 49 0d 3e
       -0.11269634 0.070963666 0.111146964 0.13797398
000130 48 1c 1a be 4e a7 ac 3b 8d 0e 7b bd 67 c9 83 bd
       -0.15049851 0.0052689677 -0.061293174 -0.06434899
000140 37 46 df bd f4 11 bc bc c6 99 e3 bc 6c b1 12 3c
       -0.10902064 -0.02295778 -0.027783286 0.0089534335
000150 3d c6 a1 3d 60 54 f9 bd 8e cf 6a bd e7 39 d5 3d
       0.07899139 -0.121742964 -0.057326846 0.104114346
000160 26 3f ad bc 1d 58 65 bd 89 72 00 be df 08 4e bd
       -0.021148276 -0.055992234 -0.12543692 -0.05030143
000170 50 ea 2e 3d 43 3c 2d 3e 3f d1 02 b8 32 ba 01 3d
       0.042703927 0.1691752 -3.118929e-05 0.03167171
000180 c7 d2 40 3e 97 26 2d be 00 10 bf bc 3b 5d d9 bd
       0.18830405 -0.16909252 -0.02332306 -0.106134854
000190 ef 72 9c 3d 86 d1 02 3e c8 e5 06 be e5 2b 52 3d
       0.07639109 0.1277524 -0.13173592 0.051311392
0001a0 a9 ae 01 be 2f c6 b7 bc cf 56 ac bd 82 ae d2 3c
       -0.12664284 -0.022433368 -0.08414995 0.025717977
0001b0 d6 bd 52 3d af e4 46 3d 7e 68 43 3d 80 b1 f8 bc
       0.051450573 0.048557933 0.047707073 -0.030358076
0001c0 5c d0 fd bc 03 5a 0e bc dc f8 86 3d 5c 54 14 3d
       -0.030983143 -0.008688453 0.06590435 0.036213264
0001d0 76 0f 0b 3e 8b ee 1c bd 37 1d 60 bd 31 70 13 bc
       0.13580117 -0.03831343 -0.05471536 -0.0089989165
0001e0 4c 1a c7 3b ba 0a c5 3d b9 fd 78 3d 2e 52 2c 3e
       0.006076133 0.096211866 0.060788844 0.16828224
0001f0 b3 30 03 3d 99 96 44 3d 8e d1 c8 bd 98 d8 11 3d
       0.032028865 0.047995184 -0.098055944 0.03560695
000200 7c 01 bf bb b5 4e 4f be ba 2c 82 bd 7e 3b bf 3d
       -0.0058290344 -0.20244868 -0.06356187 0.09337519
000210 59 f7 13 3e 21 8d 84 3a 8f 09 c9 bd df 4a b4 3d
       0.14449824 0.001011286 -0.09816276 0.08803343
000220 89 e9 2b 3e f3 65 8d bc e4 a1 80 be 58 3a 55 3d
       0.16788305 -0.017260527 -0.25123513 0.052057594
000230 df 57 ba 3d bc f1 81 bc 6b 6e 9d be bd a0 ae 3c
       0.09098791 -0.015862338 -0.30748305 0.02131688
000240 4a b3 09 3e b7 6c 3c 3e da 9a 4f be 0e 95 19 bc
       0.134473 0.18400846 -0.20273915 -0.009373916
000250 bd 46 96 3d 6f 38 06 be f9 f5 b0 be 1a 1a d9 bb
       0.07337711 -0.13107465 -0.34562662 -0.006625426
000260 13 e4 62 bc dd 7e 19 3d 2e 1b d4 3c 07 f4 8a 3e
       -0.013848322 0.037474502 0.025891867 0.27139303
000270 c4 8e 26 3d 63 f6 9b 3b 8c e0 1b bc 78 70 cd 3c
       0.040663496 0.004759596 -0.009513985 0.025078043
000280 1c 15 fd 3b 32 7f 6d 3d 46 96 84 3c 8d d4 32 3d
       0.0077234637 0.05798263 0.016184937 0.043659735
000290 e3 40 09 3a 02 9f ba be ed 87 86 3e 30 7c 29 3e
       0.0005235804 -0.36449438 0.26275578 0.1655128
0002a0 0e 0c 30 3d 4a e4 91 3b 8e 24 c9 bd 58 e4 27 3d
       0.042980246 0.004452263 -0.098214254 0.04098925
0002b0 91 84 c3 bd b8 7b ed bd df 1f e5 3c 5a 0a 95 be
       -0.095467694 -0.11595863 0.027969299 -0.2910946
0002c0 49 d1 d2 3d ab 05 01 be a7 08 ee 3d 31 ff aa 3c
       0.10293824 -0.12599818 0.11622744 0.020873638
0002d0 03 cd ee bd 47 4e b3 3d 69 82 aa bc d8 45 de bd
       -0.11660197 0.087551646 -0.020814138 -0.108531654
0002e0 d9 2e 78 3c a8 e7 06 3d 13 1a 8b 3d 29 e2 79 3e
       0.015147888 0.03293577 0.06792083 0.2440268
0002f0 f7 3a 21 bd d4 e5 2e 3d 25 a6 13 3e 9b 29 2a 3d
       -0.039362874 0.04269965 0.14418848 0.041543584
000300 8d e4 2b 3d c0 10 1c 3e 94 9f 71 bb 09 d7 32 bd
       0.04196601 0.15240765 -0.0036868798 -0.043662105
000310 b2 04 5f 3c 2f a2 a9 3d f1 1c 1a bd 80 99 9d be
       0.013611959 0.08282887 -0.037625257 -0.30781174
000320 03 57 99 bd 6d 81 33 be fd 76 c0 ba ae 9c 9b bd
       -0.07487299 -0.17529841 -0.0014683899 -0.07598244
000330 70 95 5b 3d c0 c8 a4 3d bd 0f 3a bd 33 3a 8f bd
       0.05360931 0.080461025 -0.045425165 -0.069935225
000340 43 7d e6 bd 3b 0c eb bd 9b 72 2e be 3a 15 7a be
       -0.112543605 -0.11476942 -0.17035906 -0.2442216
000350 37 a1 73 be 79 3f c8 be d8 c3 88 be f8 0d bf 3d
       -0.23791967 -0.39110926 -0.26711917 0.09328836
000360 ff a4 17 3e c9 8f 0f 3e f6 90 cd bd 53 28 f7 3d
       0.14809035 0.14019693 -0.10037415 0.12068238
000370 74 a7 03 3d 5d 5f 96 3d da 5a 83 bd 90 49 84 3d
       0.032142118 0.07342408 -0.06413813 0.064593434
000380 cf d4 d6 3d ea bd 4a 3d 84 e3 33 3c 21 5d ce be
       0.10489809 0.049497522 0.010979537 -0.40305427
000390 fe d9 aa be 4c f2 8e 3d 49 99 15 be be cc f8 be
       -0.3336944 0.06979808 -0.14609255 -0.48593706
0003a0 6f 4f 5c bd 81 8d 14 3c 47 e4 c6 be 6b 98 54 3c
       -0.05378669 0.00906694 -0.38846037 0.012975792
0003b0 e5 87 41 be 4a 60 7c bb a7 da fd 3d 99 9d 78 3d
       -0.18899496 -0.0038509541 0.1239522 0.06069717
0003c0 96 bc fc 3d c1 1a 5f 3d d3 bc fb 3d 94 cf ee 3d
       0.123406574 0.054468874 0.12291875 0.11660686
0003d0 62 b2 33 be a0 6f b4 bd 4b 8e 28 3c da 25 dd be
       -0.17548516 -0.08810353 0.010287832 -0.4319294
0003e0 e1 01 dc 3c ca 5a d8 3c 2f d1 2f 3e d7 bd 2f be
       0.026856365 0.02641048 0.17169641 -0.17162262
0003f0 13 cf 07 3e 80 ea 0e 3d a3 2f 02 3e 51 64 25 3c
       0.13262586 0.034891605 0.12713484 0.010094718

fc2.bias f4 [128]
000000 38 12 9d 3d 45 b1 6d 3d 64 d4 2f bd 38 35 65 bd
       0.076694906 0.058030386 -0.04292716 -0.055958956
000010 ac 9d 90 3c d9 56 f4 bd 70 cd aa bd bc 3c f5 3d
       0.017653309 -0.119306274 -0.08339965 0.11974475
000020 d1 55 89 3d 34 7b a8 3d 50 ee f3 3c 5d b2 c5 3c
       0.06705821 0.08226624 0.029776722 0.024132902
000030 bd 45 c0 bd 91 74 6d bd 52 ad f2 3d 82 28 8a bc
       -0.093883015 -0.057972495 0.118494645 -0.016865019
000040 40 c9 75 3d 24 aa d5 3b c3 af 22 bd e2 be 77 bc
       0.06000638 0.0065205265 -0.0397184 -0.015121194
000050 d6 b1 0f 3d 2b fe 10 be 7c c0 9a bc 53 8d 32 3e
       0.035081707 -0.14159457 -0.018890612 0.17436723
000060 9b 98 22 bd 25 d7 0c 3e c2 9f 96 3d 2f 2c 48 bd
       -0.039696317 0.13753946 0.0735469 -0.04887026
000070 02 11 22 3d 5a 3e d7 3c d8 a7 ab 3d 81 b2 96 3c
       0.039567 0.026274849 0.08381623 0.018395664
000080 da 1d a9 bc 3c 3f 29 3c 27 ca e2 3d 93 77 28 3d
       -0.020644117 0.010330018 0.11073714 0.04112966
000090 86 e7 1d 3d 79 d9 ad 3d d4 bf a3 3d d5 80 16 bc
       0.038550876 0.08488745 0.07995573 -0.009185989
0000a0 da c6 0f 3c a6 cb 42 bd e2 15 0b be 16 c0 ce bd
       0.008775437 -0.047557496 -0.13582566 -0.10095231
0000b0 37 f1 76 3a c0 03 5b 3d 5e 0c af 3c c8 ea 06 3e
       0.0009420099 0.053470373 0.021368202 0.131755
0000c0 2f cf 08 3d da 52 83 bd 2b ad 3d bd 0f 1a f7 3c
       0.03340071 -0.06412287 -0.046307724 0.030163793
0000d0 2f 42 11 3d a8 d5 00 3c 24 c3 a2 3c 23 cf 0e 3e
       0.03546351 0.00786344 0.01986844 0.13946204
0000e0 9e 6a 84 bd f3 2d 51 3d 78 4d ce 3d 48 d7 89 3d
       -0.06465648 0.05106921 0.1007337 0.06730515
0000f0 c4 80 c9 3d 04 db 00 3d d4 ab 85 3c 7c af 82 bd
       0.09839013 0.03145887 0.016317286 -0.06381127
000100 83 1c 91 3c b3 5e 22 3d 01 d4 b0 bc dc 0a 4c 3d
       0.01771379 0.039641093 -0.021585466 0.049815044
000110 7d fc a3 bd 41 e7 a2 bd 99 d0 a7 3d 66 ad c1 bc
       -0.08007143 -0.079542644 0.08194084 -0.023642253
000120 e0 80 08 bc 38 e8 9e bd 21 ee 8b bc f4 2a ae 3d
       -0.008331507 -0.07759136 -0.017081322 0.085042864
000130 c0 ba 5a bc 85 d1 a4 bb 50 4e 02 3e 69 2a ac bc
       -0.013350189 -0.0050298595 0.12725186 -0.021016316
000140 f6 79 e6 bc 5c a4 61 bd 29 44 20 bd 7e 71 54 3b
       -0.028134327 -0.055088386 -0.039127503 0.003241628
000150 bc ac b8 3d 74 31 69 3d 41 87 a5 3d a2 fd a1 bd
       0.090173215 0.056931928 0.08082438 -0.07909705
000160 74 36 ae 3d 93 e8 c6 3b a4 15 47 3d b1 07 15 3d
       0.0850648 0.0060702055 0.048604622 0.03638429
000170 87 9a 9b 3d d2 3f a4 bc 98 58 c8 bb 2b 82 fa ba
       0.07597833 -0.020049963 -0.006114077 -0.0019112279
000180 a3 00 4f ba 3f 54 8f 3d 2e 32 e5 bc 22 fc 6e 3d
       -0.0007896518 0.069984905 -0.02797803 0.05834592
000190 32 2a 06 3d 4a 6e bb 3d 01 64 96 3c 31 10 d9 bd
       0.032755084 0.09151895 0.018358232 -0.105987914
0001a0 8d f0 06 bd ce 68 d0 bd 76 e0 d0 bd 38 5a 36 3c
       -0.03294425 -0.1017624 -0.101990625 0.011129908
0001b0 a5 9b fa 3c ce ec e7 3d 7e 41 d7 3d e0 85 a3 bd
       0.030591795 0.11324464 0.105105385 -0.07984519
0001c0 f9 6f a7 bd 4f 3d 0f bc c4 4b 7b bd ec 6b 59 bd
       -0.08175654 -0.008742644 -0.061351553 -0.053081438
0001d0 99 91 cb 3d e4 21 ac bd 2c c3 6e bc 81 2d 6f bc
       0.0993988 -0.084049016 -0.0145729 -0.014598251
0001e0 8e 52 43 3c b5 dd 6c bd 70 37 db bc a6 19 3f 3d
       0.011921538 -0.057828624 -0.026759833 0.04665532
0001f0 53 65 b2 3d 72 0b 06 be 09 c4 fa 3d 96 d6 29 be
       0.08710732 -0.13090304 0.12244422 -0.16585764

fc3.weight f4 [4, 128]
000000 9b 90 d7 3d 34 f2 94 be b9 4c a1 3d 56 d5 19 3d
       0.10525628 -0.29091036 0.07875962 0.03755697
000010 ea 89 77 3d 7a 13 0d 3f 2a 99 2e 3f fa b6 ee be
       0.06043426 0.55107844 0.6820246 -0.46623975
000020 c1 02 8a be 30 48 83 bd 3b 8c 1d be 03 6a a3 bc
       -0.26955226 -0.06410253 -0.15385525 -0.019948011
000030 f1 33 43 3f 07 dc bb 3d d9 85 41 bd 2a b7 d4 3c
       0.7625113 0.09172826 -0.047246788 0.025966246
000040 ec 76 8b 3e 57 25 df 3c c0 d4 60 3d 9d 58 2f bd
       0.27239168 0.027239485 0.054890394 -0.042809118
000050 dd 81 46 be 93 06 36 be 5b b1 e0 bd c6 c9 2e bd
       -0.19385476 -0.17775945 -0.10971328 -0.042672895
000060 d7 8c 94 be 82 c9 ff bc 77 68 01 bd 28 7b 0f bf
       -0.29013702 -0.031224016 -0.031593766 -0.56047297
000070 a6 8e 45 be 4e ad ec 3e 32 ec 8d 3e eb d2 8b 3e
       -0.19292697 0.4622597 0.27719265 0.27309355
000080 48 4d 97 3e f1 c8 89 3d 50 c9 8b be 29 cb 84 be
       0.29551148 0.0672778 -0.27302027 -0.2593625
000090 df 3d d6 3d 56 80 e0 bc 09 bb 15 be 2d 38 ac 3e
       0.1046102 -0.027404945 -0.1462213 0.3363661
0000a0 66 3b 9a 3d 31 6a cc 3d 9d 7e 03 bb 5f 0d 13 3f
       0.075308606 0.09981192 -0.002006448 0.5744228
0000b0 f7 f0 14 3e 9b eb 54 3d 37 c5 f9 3a 0b f9 13 3c
       0.14545046 0.051982503 0.0019055967 0.009031544
0000c0 8c f9 8f bb 3f 10 19 be fa 41 ef be 05 d5 11 be
       -0.004393762 -0.14947604 -0.46730024 -0.14241417
0000d0 13 ed a2 be 08 6c 9b bd 3f 01 a6 be e6 74 4c 3e
       -0.31821498 -0.07588965 -0.32422826 0.19966468
0000e0 6e 68 d2 3e 38 3d 1b 3e 43 20 8e 3d 03 0e 0a 3d
       0.410953 0.15160072 0.06939747 0.03370477
0000f0 3b 44 d5 3e 0b ed 8b 3e 0f aa 58 be 68 45 ec 3d
       0.41653618 0.27329287 -0.21158622 0.11536676
000100 99 5a ab 3d 9b f8 cb be 72 81 0f 3f 12 78 2d be
       0.083668895 -0.39838108 0.5605689 -0.16940334
000110 7f 83 cd bd ea cb 54 3e 9e a7 d9 be d6 10 15 bf
       -0.100348465 0.20780912 -0.42510694 -0.58228815
000120 ee e6 56 3d 8b d3 95 3d 1b 74 a7 be 69 69 30 be
       0.052466325 0.07315739 -0.3270577 -0.17227711
000130 9e 73 d3 be 1e e5 d8 3e a4 e8 f2 be eb e0 9c 3e
       -0.41299146 0.42362303 -0.47443116 0.3064035
000140 46 e2 9d bd 8c 44 77 3d a3 56 60 3d 19 d7 47 3e
       -0.07709174 0.060368106 0.054770123 0.19515647
000150 ba 93 7a be 44 a0 25 be eb 4e 00 3f 99 93 d4 be
       -0.24470416 -0.16174418 0.5012042 -0.41518858
000160 88 e6 9a bd c3 56 72 3c d8 1a 6a 3e f6 e7 0a 3c
       -0.075635016 0.014791193 0.22861803 0.008478155
000170 87 79 82 3e ea af 8c be e2 1d 54 be 91 81 ef 3c
       0.25483343 -0.27477962 -0.20714524 0.029236587
000180 61 60 0f bf 26 2d ec bc 41 67 5c be a6 ee 5e be
       -0.5600644 -0.028830122 -0.21523763 -0.21770725
000190 df 84 a7 bd 45 9e b2 be 7e 81 37 bf f6 85 0d 3f
       -0.0817964 -0.34886375 -0.71681964 0.55282533
0001a0 f6 b1 2d bd e9 f1 a4 3e cf 25 31 3e 19 74 20 3d
       -0.042406045 0.32215813 0.17299579 0.03917322
0001b0 29 1d 14 3e 3a 76 9f 3e 6e 61 7e be 6f 05 57 3e
       0.14464249 0.31144887 -0.24841854 0.20998167
0001c0 79 d1 bd be e4 49 3a 3e 2a d5 84 3f 71 6e 4e 3c
       -0.37073877 0.1819225 1.0377553 0.0125995735
0001d0 ae 5b 07 3f 34 38 e4 be 8e 6c ee be 23 b4 87 be
       0.5287427 -0.4457413 -0.46567196 -0.2650462
0001e0 d7 ec 68 3d 53 e0 16 3d 38 ea e2 3d cf d7 7a be
       0.056866493 0.036835026 0.1107983 -0.24496387
0001f0 23 03 e0 be c5 0b 46 bf 31 32 45 3e 72 90 bc be
       -0.43752393 -0.7736171 0.19257428 -0.36828953
000200 02 67 d9 3c 4d 6c 30 bd f2 53 01 be 64 07 b9 39
       0.026538376 -0.043072034 -0.12629679 0.00035291456
000210 3b b2 82 3f ab 5b f9 bd 83 c3 6b 3e b6 ca 20 3e
       1.0210642 -0.121756874 0.230238 0.15702328
000220 10 c1 b2 3e 60 f0 24 3e 13 fc cf 3d cf eb b7 bb
       0.3491292 0.16107321 0.10155501 -0.0056128274
000230 bf 7b 0e bf bd d7 28 3e ac 15 f9 be 42 19 a4 bd
       -0.5565757 0.16488548 -0.48649347 -0.0801263
000240 69 c4 04 3f c8 d2 8c bd 32 60 62 bd ec a4 79 3d
       0.518622 -0.06876141 -0.05526752 0.060948297
000250 a6 58 c5 3e d9 70 e9 3e 79 80 24 be 97 1b 04 3d
       0.38544196 0.45593908 -0.16064633 0.032252874
000260 0b 31 6e 3e f6 9f 2b bd 1e 74 15 3f 99 31 93 3e
       0.23260896 -0.041900598 0.58380306 0.28748778
000270 ed b7 30 3d a5 ba c9 bd a1 0d 99 3c f8 57 c6 3d
       0.043144155 -0.09850053 0.018683257 0.096847475
000280 98 88 27 3d 5b 72 94 3e 6a 76 75 be 27 e0 cb be
       0.04090175 0.28993496 -0.23970953 -0.39819452
000290 e3 54 30 3f dc 42 9d bd ce 1f 92 bd 40 53 9c 3e
       0.68879527 -0.07678768 -0.071349725 0.30532265
0002a0 4c 22 56 3c a3 2f 55 3c 34 3d 08 bd 12 9d f3 3e
       0.0130697 0.013011846 -0.033261493 0.47580773
0002b0 56 29 40 3e 0b fb e8 bd 88 e7 a6 3e e4 05 8b bd
       0.18765768 -0.11376008 0.3259852 -0.06788233
0002c0 56 bd 35 3f 9f 86 1a be 18 f9 ee 3e 71 89 33 3e
       0.7099203 -0.15090416 0.46674418 0.17532898
0002d0 97 e7 37 be bf 82 ff 3e 29 15 e6 bd ba b2 8e bd
       -0.17959438 0.4990444 -0.11234505 -0.06967683
0002e0 62 32 a1 bd ac b8 e3 bd ae 26 22 be 88 86 d0 be
       -0.07870938 -0.11119208 -0.15835068 -0.4072764
0002f0 e5 49 89 3c 05 38 cf 3e 37 12 73 be 55 76 f7 bd
       0.016758868 0.40472427 -0.23737417 -0.12083117
000300 d0 7e 9f bd 91 7e 00 3f ee 0c 32 3e 19 38 dd be
       -0.077878594 0.50193125 0.17387745 -0.43206862
000310 df 97 09 bf 63 06 c0 bc ae 47 ae be e1 8c 95 3e
       -0.5374736 -0.023440545 -0.34039062 0.29209045
000320 9e 27 8a bc f7 52 c2 3e 1b 28 4c be 18 5c 24 be
       -0.016864594 0.37953922 -0.19937174 -0.16050756
000330 f1 27 a7 3e 65 d0 39 be 5f a6 c9 be e9 49 dd 3e
       0.3264766 -0.18145902 -0.39384744 0.4322045
000340 34 c1 48 bd 66 06 34 3e 10 d9 ec be 11 2c 36 3e
       -0.049012378 0.17580566 -0.46259356 0.17790247
000350 d9 a4 4d be c6 1f d4 3d ba 5e 05 bc 9b 31 4b be
       -0.20082416 0.10357623 -0.00814026 -0.19843142
000360 2c 2d ba 3d 2c 06 e1 bc fb ba ac 3e 43 6c a6 3b
       0.09090647 -0.027468763 0.33736405 0.005078824
000370 c2 f8 8f 3e e4 ed ae bd 17 88 f4 3d 6f 39 0e 3d
       0.28119475 -0.08541468 0.119400196 0.03472274
000380 da dd b5 bd ee 1e 6d 3d bc 53 98 3e a4 eb 5f be
       -0.088802055 0.057890825 0.29751384 -0.21867234
000390 2a f6 68 3e 3d fa 70 3e cf 13 2a be 12 ed 54 be
       0.22750154 0.23532958 -0.16609119 -0.2079356
0003a0 c8 d3 c3 3c b5 c3 a7 3e 1d 1d b2 3e 24 b7 d8 b9
       0.023904696 0.327665 0.34787837 -0.0004133518
0003b0 c7 40 65 3d 06 f8 e9 bd dd 82 23 bf 28 04 44 3f
       0.05596998 -0.1142426 -0.63871557 0.7656884
0003c0 f9 02 09 bf 04 d7 85 be 49 fe 83 3e dd 74 4f 3f
       -0.5352016 -0.26140606 0.25779942 0.81037694
0003d0 2a 08 09 be e9 0a 40 bf c5 72 80 be bd de 2c 3d
       -0.1338202 -0.7501665 -0.25087562 0.042204607
0003e0 c0 c6 46 bd 37 73 2a 3e 38 c7 45 3e 3e 6f 79 be
       -0.048529387 0.16645513 0.19314277 -0.24358842
0003f0 33 1c e7 3d 35 ed 53 be cc 8c 41 3e 58 54 2c be
       0.112846754 -0.20695956 0.18901366 -0.1682905

fc3.bias f4 [4]
000000 52 a7 6b 3d f4 c6 d1 3c 71 be e2 3b c8 e0 69 3c
       0.057532616 0.025607564 0.006919675 0.014274783
