learner_critic.pth (torch_old, 60754 bytes, 7 tensors)

fcs1.weight f4 [128, 33]
00000000: 3a7b 95bd 645b 823d 0dc5 ffbd b149 ddbd
00000010: d331 bf3d 885b fc3c 9113 bc3c 76db 0b3e
00000020: 0fa4 b3bb 696d 63bd 8e72 01be d1cc a73d
00000030: 733c aabb e1ef 45bd 5cc4 3e3e 8ce2 0c3e
00000040: 74e0 873d 3b3f 383d 5f70 0dbe a8ca 453d
00000050: cf6b c9bd 5886 c43d 259d 393e 8c67 b9bd
00000060: dda1 8cbd af8a 84bd 782c c5bd e9d2 823c
00000070: 5014 bf3c 9e4a 05be 3a89 c7bd 2642 07be
00000080: 0b70 8a3e ea6a 0abe 428a c0bd 9b1c 2ebe
00000090: 203f 24be e51d 1e3d 1735 433d bf94 5abd
000000a0: 957b f0bd 72f2 76bc 357a cabd 6de0 c5bc
000000b0: 751a 73bd a59c 9f3d eed3 bbbd 9a1d 1b3e
000000c0: 170d d73d fb5d 47bd cf45 3fbc 624c b2bc
000000d0: 514e a9bd 7707 c43b 8f4b 273d b23e dcbd
000000e0: 9a7e 4e3c fae9 453d f12d 81bd 12af 06be
000000f0: 7795 2ebc 2f80 bb3d 8835 eebc a70d 23be
00000100: 6032 963c 240f 473f 753e cfbd 70b5 46be
00000110: 56c0 3dbd a95b 9a3d 0495 b83d 8e95 8bbd
00000120: d188 2b3d 22ab ccbd 3faf 2cbb 2185 1e3e
00000130: b9a8 1cbe 063d 2dbd dc15 1dbd d293 f73d
00000140: b74e 3b3d 5373 80bc 8624 963d a198 603d
00000150: a412 833d c399 323a 00c1 e5bd aceb 4dbd
00000160: 4281 9abb aae6 c73d 7b2c c73d 3d59 febc
00000170: 8e16 7ebd d803 03be 4608 473d 10f1 a53d
00000180: 2830 bb3d 78da 46bd 3a91 e6bd 2554 3ebe
00000190: f531 463d b182 f1bd 9ad0 ec3d eb8b 9f3d
000001a0: fcd1 683c f075 703d a68a 223d b27f dabd
000001b0: 6648 b5bd ef83 933d 39d4 bb3c 8852 2dbd
000001c0: beea aeba 9f9f d93d bbd7 2b3e a0f5 253e
000001d0: 90d1 7fbd 8237 05bc 1dae d5bc e855 c93a
000001e0: d40a 06bd fb9c a1bd c557 cb3d 3655 c8bd
000001f0: d87b 0e3e c242 ddbd 44a0 083e 65be 84bd
00000200: 24b2 0f3d 76a6 01be a02e 933b 8429 8ebc
00000210: 04f1 1b3e a848 b4bd c3af 7abd a9a3 143e
00000220: 4e09 a8bd e894 97bc 89b0 c0bd e4a0 113e
00000230: cc74 57bb 1cb3 043e 91b3 823d b1c1 863d
00000240: caca e83d f492 f23d 92fb 383d 8771 5d3d
00000250: b9e8 803d 27bf c63d e20c 56bd 2ca8 8abc
00000260: fdfe 7b3d 89dd df3d 51a9 0b3e 19f5 353c
00000270: 709e c83c 3e66 b3bd a32e 00be 0da9 f03c
00000280: 5691 fe3d 904f bf3d 2c71 f4bd 08ac cabd
00000290: 930a 1fbf 6359 35be 3762 a2bd a64e e5bd
000002a0: 8ed1 adbd 4c0f e73c d3bd ffbd e763 b33d
000002b0: a731 943d 97e7 373c 6298 023d 6949 b53c
000002c0: 0139 17ba 232a 46bd 85c7 953d ee73 9a3d
000002d0: b7bd 2abd 0ef0 a43c 540f 5cbc 12a7 303d
000002e0: 02be ddba 8845 053c 9b61 8b3d cc55 a23c
000002f0: b8a8 28bb 4f8c ed3c a27a 0b3d 0bce d1bd
00000300: 6f42 46bc fb96 ba3d b853 153e f5d2 2f3e
00000310: 341c a3bd a5b9 74bf c565 98bd 1f11 1fbe
00000320: c5f4 67bd ec68 cb3d 3ccd 38be d074 91bd
00000330: a152 ae3d d6f2 31bd 3cbc 18bd 0802 39bd
00000340: 4945 193d 384c 4ebd 3cb0 a53d ccf2 dfbd
00000350: d5bc f03d 0f79 643c bbc0 1fbe 8ab8 833d
00000360: 0780 8cbd 28d5 a3bd 98c1 83bd 7ce8 2cbd
00000370: 52ee 393e 0d47 12bd 5dd7 cb3d b36d f43d
00000380: 2ed4 87bc 8dc9 943d 398f b73d 34d7 be3d
00000390: 180f 173c fa86 01be 82d3 50bd d4c7 a53d
000003a0: 5931 d23d d794 363d d901 d9bd 8e8f 903e
000003b0: 3f2f 223e fe8f eebb 0444 e03d 7141 313e
000003c0: 71b5 9fbd ff77 fabd 6adb e03d 31c3 4f3b
000003d0: 22b7 bc3c c500 e73d 6c4f babd c2e6 2d3e
000003e0: caa1 d4ba d667 9cbd 0275 45bd f881 c73c
000003f0: e466 b4bc 625c 3dbd 63a9 893d c5d8 a0bd
-0.07298894 0.06365088 -0.12488756 -0.10805071 0.09335675 0.030805364 0.022958549 0.13657936
-0.005482204 -0.055524264 -0.12641355 0.081933625 -0.0051951944 -0.04832447 0.18629593 0.13758296
0.06634608 0.044982176 -0.13812397 0.04828897 -0.09835016 0.095959365 0.18126352 -0.09052953
-0.068668105 -0.06471764 -0.09627622 0.01596971 0.023325115 -0.13016745 -0.09742971 -0.13208827
0.27038607 -0.13517347 -0.094013706 -0.170031 -0.16039705 0.03860273 0.047658052 -0.05336451
-0.117423214 -0.015072452 -0.098865904 -0.024154866 -0.059351403 0.077935494 -0.09171282 0.15148011
0.105005436 -0.04867361 -0.0116743585 -0.021764938 -0.08266891 0.005982335 0.040843543 -0.10754146
0.012603426 0.04831884 -0.06307591 -0.13152722 -0.010655752 0.091553085 -0.02907826 -0.15923177
0.018334568 0.7775748 -0.101193346 -0.1940515 -0.046326004 0.07537014 0.090127975 -0.06815635
0.041878525 -0.099935785 -0.0026349572 0.15480472 -0.15298738 -0.042294525 -0.038350925 0.12088741
0.045729365 -0.01567999 0.07331185 0.05483306 0.0640004 0.00068130734 -0.112184525 -0.050273582
-0.0047151158 0.097607926 0.09725281 -0.031048412 -0.06203323 -0.12794435 0.048591875 0.0810262
0.091400445 -0.04854819 -0.112581685 -0.18586786 0.048387486 -0.117925055 0.11563225 0.07790359
0.01421022 0.058706224 0.039683007 -0.10668887 -0.088516995 0.07202899 0.022928344 -0.042315036
-0.0013345105 0.106261484 0.16781513 0.1620698 -0.062455714 -0.00813091 -0.026084 0.0015360685
-0.03272517 -0.0789127 0.0992885 -0.09781878 0.1391443 -0.10803749 0.13342386 -0.064816274
0.035081998 -0.12661156 0.004491642 -0.01735378 0.15228659 -0.088029206 -0.061202776 0.14515556
-0.082049 -0.018503621 -0.094086714 0.14221531 -0.0032876013 0.1295895 0.06381906 0.065799125
0.11366804 0.11844435 0.04516179 0.054063346 0.06294388 0.09704428 -0.05225838 -0.016925894
0.061522473 0.10930926 0.13638808 0.011105799 0.024489611 -0.087597355 -0.1251779 0.029377485
0.124300644 0.09341347 -0.11935648 -0.098960936 -0.6212551 -0.1770988 -0.07928889 -0.111966416
-0.08487235 0.028205536 -0.12487378 0.08759289 0.07236033 0.011224649 0.031883605 0.022129731
-0.0005768687 -0.04838003 0.07313446 0.07541643 -0.041684832 0.020133998 -0.013431389 0.04312808
-0.0016917589 0.008134253 0.06805726 0.019816302 -0.002573533 0.028997568 0.0340525 -0.10244378
-0.0121008 0.091108285 0.14582717 0.17170317 -0.07964364 -0.9559577 -0.07441286 -0.15533875
-0.056629915 0.09932122 -0.1804704 -0.07102358 0.08511854 -0.043444477 -0.03728889 -0.045167953
0.03741959 -0.050365657 0.08090255 -0.10934982 0.11754767 0.013944878 -0.15600865 0.064316824
-0.06860357 -0.07999641 -0.064334095 -0.042213902 0.18157318 -0.03571229 0.09953187 0.11934986
-0.016580667 0.07265005 0.089628644 0.093183905 0.009219907 -0.12649146 -0.05098296 0.08094755
0.102633186 0.04457554 -0.105960555 0.28234524 0.15838335 -0.007280349 0.10950473 0.1731012
-0.07798279 -0.12229919 0.1097935 0.0031702037 0.023036543 0.11279444 -0.0909718 0.16982558
-0.0016222533 -0.07636993 -0.04820729 0.024353966 -0.022021718 -0.04623068 0.06721761 -0.078538455

fcs1.bias f4 [128]
00000000: 0257 b33d 0638 213d ad71 72bc 5ad8 9e3d
00000010: 1fd5 1c3e 2a68 113e 5f14 f6bd 7ab4 1ebe
00000020: e8a7 663d 18be 7bbd 3d9e 02be 5582 84bd
00000030: 755d 28be 2ca6 47bd 7ff5 cabd bb31 be3d
00000040: 7982 d23d 0977 4dbc e768 7fbd 0776 d33d
00000050: d6f6 313e 3b1b dd3d a641 313d 4543 513d
00000060: ed69 0cbb a6fa d13c 7006 c33d 7f76 b7bd
00000070: a8a6 3bbe 003b 33be 328e ee3d 8e2c d6bd
00000080: 5c9a 28bb f206 a03d a75c 56bd 4c75 10be
00000090: c7ab 3bbe 3894 0abd 9dda a3bd adb2 8bbc
000000a0: 85aa 1fbe d6dc d23b f051 0e3e 1d07 e13c
000000b0: 0361 a93a 1d48 a53d bf4f 1d3e 6530 023e
000000c0: 9e0e 28bd 2861 39bd e32d 50bd a726 dd3d
000000d0: 0b5f 31bc 727f 2f3d f1d9 2f3e fc8a 333e
000000e0: 318b f6bd bb65 5e3d 201e 163e 127c 833d
000000f0: 9cf3 103e 577a 593d ee53 073d c59d 3fbd
00000100: 1c3b 1cbe ed2f 8dbd 1292 d73d 1125 5abd
00000110: 3cd4 2d3d b15b 203e c6a9 3f3d 59b5 edbd
00000120: 6976 a53d 066e 8bbd feb1 9f3d ab4f 5dbd
00000130: 82ec 45be 0911 113d bf4a 403e b631 83bd
00000140: f829 93bd 7c89 d5bd ee94 b73d 2f2f 093e
00000150: d6e5 bb3c 78e0 8d3d df0c c83c 2c75 aebb
00000160: a4a1 1ebe e67c 983d f2f3 c1bc 1f06 91bd
00000170: 3889 263c f580 203e 758e 6fbd c8aa a1bd
00000180: ae0f 0bbe 00fa 1bbd a16c 67bd c893 2dbe
00000190: 5c7a 243e 3f01 da3d c53c 143e 99f1 f2bc
000001a0: ea58 01be 7758 1e3e e69a 17be f4b7 02bd
000001b0: b50f 163e 7b05 e0bc f9e0 f2bc 86b8 1a3e
000001c0: 6151 ba3d cf8c e7bd 05b4 58bd c65c 80bb
000001d0: 030a 86bd b0ff 8abc caa3 ecbc 0451 dbbd
000001e0: 732f 15be 67e1 dfbd ab54 09be a4cc 1ebd
000001f0: a5d8 73bd 18df 753d c893 0ebd 91b6 bbbd
0.0875683 0.03936007 -0.01479761 0.077561095 0.15315674 0.14199892 -0.12015604 -0.15498534
0.05631247 -0.061460584 -0.12755676 -0.06470171 -0.16441901 -0.04874246 -0.09910106 0.09286829
0.10278792 -0.012540587 -0.062355902 0.10325246 0.17379317 0.107962094 0.043275498 0.051089544
-0.0021425441 0.025632214 0.09522712 -0.08958148 -0.18325293 -0.17502975 0.11648215 -0.10457717
-0.002572677 0.07813825 -0.052334454 -0.14107245 -0.18327247 -0.03383276 -0.080006815 -0.017052973
-0.15592392 0.006435017 0.13898444 0.027469212 0.0012922589 0.08070395 0.15362452 0.12713774
-0.041029565 -0.04525867 -0.05082501 0.10798388 -0.010825883 0.04284615 0.17172982 0.17533487
-0.120382674 0.054296236 0.1465993 0.06420149 0.1415543 0.053095188 0.033039026 -0.04678132
-0.15256923 -0.06893907 0.105259076 -0.053258006 0.04243873 0.15659977 0.046792768 -0.11606855
0.080792256 -0.06808095 0.07797621 -0.054031055 -0.19328502 0.035416637 0.18778513 -0.06405966
-0.07185739 -0.10426614 0.08963953 0.13396905 0.022936743 0.0692758 0.0244202 -0.0053240266
-0.15491349 0.074456975 -0.023675893 -0.07081246 0.010164551 0.15674193 -0.058485467 -0.07893902
-0.135802 -0.038080215 -0.05650008 -0.16950905 0.16062301 0.10644769 0.14476307 -0.029656218
-0.12631574 0.15463434 -0.14805183 -0.031913713 0.1465443 -0.027346363 -0.029648291 0.15109453
0.09097553 -0.11306154 -0.052906055 -0.0039173095 -0.06544878 -0.016967624 -0.028886694 -0.10708812
-0.14568882 -0.10931664 -0.13411205 -0.03876938 -0.05953278 0.060027212 -0.034808904 -0.09165681

fca1.weight f4 [32, 4]
00000000: 9bf6 be3c add3 febd 624c 65be 4a3b c73e
00000010: 0ea6 9bbe 9f98 98be 9058 0ebe 151b acbd
00000020: 2ff9 acbe 7788 cb3e 5f93 8e3e 120a c03b
00000030: 7f7a aabe 1a35 8dbe ec19 cbbd 1793 d03e
00000040: 4fba 1d3e 6239 84bd d8d3 e83e 5002 293e
00000050: a1ba 053f 2e77 d83e b0b8 48be 4a0b c2be
00000060: b6f2 a53e 8461 943e e5f0 fb3e b169 523e
00000070: eb21 b5bc f763 44be a574 1b3e 9863 123e
00000080: f86e 1ebd ea7a 373d cb21 ed3e d8c8 cb3b
00000090: 1e0f 38bd bacb cebe 3503 163e 08a4 c9be
000000a0: 8846 d63b 13d2 3fbe bde3 66be b31e 523e
000000b0: 959d e03e 6ef0 ccbe fce2 d9be 9cea 963e
000000c0: e98b 0abe 11ea 203d d6df adbe bf73 50be
000000d0: 09e6 23be c5c6 9dbe e6fc d9be 57c2 943e
000000e0: 48f0 ce3d dbd6 1a3e b1b6 d23d 545d 733e
000000f0: f066 67be 1097 dd3d b9a0 b13e e31b 613e
00000100: c22d 07be 276f e43d f14c 7e3e ffe9 ecbe
00000110: 4b05 04bd d60a 1c3d 0647 d5be 2cda 23be
00000120: 9891 b23e 9549 263e a342 7e3c 6e6b d6be
00000130: 8211 063f 62c0 9fbe dc09 fabd 4825 69be
00000140: c398 9e3e c0e7 89be b215 023f a392 013e
00000150: 16f4 e0be 73d4 503e ad54 743d aa90 0dbe
00000160: 903c 40be 7220 a7be b97d 6e3e 7ea3 18be
00000170: 16d8 583e 1a45 133e 75cd a3be 61d1 813d
00000180: b070 8abe 2d70 653e dab8 82be 5719 3ebe
00000190: bed0 9bbe 03f2 debd dd07 993e 776b 70bc
000001a0: d5ff da3e e9ad eebe 96f3 a8be 7dee 6b3e
000001b0: 539b 7c3d ea29 1e3e 6be5 abbe edc3 64be
000001c0: e40d 72be bf95 e53e 57ad 5dbe 882b e3be
000001d0: cc21 a83e f719 62be 9829 1f3d 38c2 c6be
000001e0: 5230 37be b907 04be 56da 60be 4a1c 603e
000001f0: 2c1b 7fbd a96a b8be 5d4d 89bd 568b 10bc
0.02331095 -0.12442718 -0.22392419 0.3891242 -0.30400127 -0.2980394 -0.13900971 -0.08403603
-0.33783862 0.39752552 0.2784681 0.0058605755 -0.33296582 -0.27579576 -0.099170536 0.4073722
0.15403102 -0.064562574 0.45474124 0.16504788 0.522379 0.42278427 -0.19601703 -0.37899238
0.32411736 0.2898065 0.49207225 0.2054813 -0.0221109 -0.19178759 0.15181215 0.14295805
-0.038680047 0.044794954 0.46314844 0.006219011 -0.044936292 -0.40389806 0.14649661 -0.39382958
0.0065391697 -0.1873248 -0.22547813 0.20519523 0.43870226 -0.40027183 -0.42555988 0.29475868
-0.13529934 0.039285723 -0.33959836 -0.20356654 -0.1600572 -0.30815712 -0.4257576 0.2905452
0.10104424 0.15121023 0.10288752 0.2376607 -0.22597861 0.108198285 0.34692934 0.21983294
-0.13201049 0.11154013 0.24834038 -0.46272275 -0.03223161 0.03809627 -0.4165575 -0.16001195
0.34876704 0.16239007 0.015518817 -0.41878837 0.52370465 -0.31201464 -0.12208912 -0.22768128
0.30975923 -0.26934624 0.50814354 0.12653594 -0.43936223 0.20393543 0.059651066 -0.13824716
-0.18773103 -0.3264194 0.23290147 -0.14906117 0.2117618 0.14381829 -0.3199269 0.06338764
-0.270391 0.22406073 -0.25531656 -0.18564354 -0.30432695 -0.10886004 0.29888812 -0.014674059
0.4277331 -0.46617058 -0.3299834 0.23040195 0.061671566 0.15445676 -0.3357347 -0.22340365
-0.23638111 0.4484081 -0.21648155 -0.4436915 0.32838285 -0.22080217 0.038858026 -0.38820052
-0.17889526 -0.12893571 -0.21958289 0.21885791 -0.062281772 -0.36018875 -0.06704209 -0.008822283

fca1.bias f4 [32]
00000000: 1b7c 943d fc5a 003f 5e7a 98be f702 9e3e
00000010: e82a 013f b3bf b1be 7d5d b23e 54c6 dfbe
00000020: a5fc 063d 38c1 ef3e 189c ed3d 2685 62be
00000030: 6d06 cfbe ce68 2d3d e378 ee3e f943 e43d
00000040: 30c0 2abe d01f c8be 9ee1 483e 0f5d c2be
00000050: 689c b6be fe2f 97bd ce08 8a3d e621 a23e
00000060: 3996 c4bb baa7 923e 2444 e9bd cefa 083f
00000070: f454 9c3e c066 7d3e a1f7 66be cc4c 0abe
0.07250234 0.5013883 -0.2978086 0.30861637 0.50456095 -0.34716567 0.3483695 -0.43706
0.032955784 0.46827102 0.11602038 -0.22121105 -0.4043459 0.042336278 0.46576604 0.11145777
-0.16674876 -0.3908677 0.19617316 -0.37961623 -0.35666203 -0.07382201 0.067399606 0.31666487
-0.0059993532 0.2864359 -0.1138995 0.535077 0.30533564 0.24746227 -0.225554 -0.13505858

fc2.weight f4 [64, 160]
00000000: 7f49 a13d 4283 f8bb d6ea 973d be26 553c
00000010: 15da 1e3d 59a4 113d 975c 68bd 14a4 ad3b
00000020: 6614 813d 0845 3f3c 75f7 a03c 5a61 a5bc
00000030: 243d 603d 735c efbb 0e13 9d3c fe33 b8bc
00000040: cd56 5dbd d4d1 94ba b0aa 823d 2f10 c4bc
00000050: 0730 2bbc b4e8 913d 727d b7bd 0200 97bc
00000060: 4197 933d 7a07 14bd 9faa 5bbd 5e63 cfbc
00000070: 2e63 11bd 0fb3 773d 7808 f13c 45b0 ad3d
00000080: dc9b 2d3d c680 40bd b714 9dbd cd9b 543b
00000090: 6a00 8abd 1a3a bd3d 656f 9fbd 8f92 60bd
000000a0: be80 dcbd a9d6 093d b604 553d 63c1 323d
000000b0: 5ec2 65bd 6a52 803d 0cbc 54bd cb18 803d
000000c0: d1db ecbc cdff 353d c3f9 a93c 514c 333d
000000d0: 8aca 7a3d 5acb 213d 5e9c b4bd 6a39 d7bb
000000e0: 4809 9c3c 0641 633d 84b8 bfbc 3f1d 8b3d
000000f0: 0452 2bbd 7d71 873d 71f3 31bd 89fc 24bb
00000100: 3d89 21bc d333 203c 22b9 95bd ec98 93bc
00000110: 7226 893d 96b9 933c e66f 693c a5f2 adbc
00000120: 7c96 563b 2aa4 95bd ac22 09bd fa70 8bbd
00000130: dfeb 9cbd 25d3 8bbb 45c5 223d 8ee3 5ebd
00000140: 3170 123d 0379 0dbb b6c8 6bbd abef 973c
00000150: 3276 41bc e90a 303d 811f 14bd 4f68 b4bd
00000160: 9f68 3dbc 1b4b 9d39 90c7 d63c 08fc 87bd
00000170: 017d 533c 4b2c 94bb 32ef ebbd b9db b23b
00000180: 8b5b 06bd 502e dfbc f44c 383d 485e 45bc
00000190: a399 4e3d a5d2 143d 9220 b53d eb9d 5dbd
000001a0: 8c8e 97bd cbfe 0b3d fcf6 543d a645 783d
000001b0: 6035 8d3d 7fd5 fc3c 21e8 4b3d ecf0 963d
000001c0: c233 b2bd 1e68 103d 4d51 d4bb 6bd4 9ebc
000001d0: bcbc f63c 0c54 9e3d dc80 94bc cf92 7b3d
000001e0: 5936 20bd ed51 0c3a 4ffc b7bb 0a05 1cbd
000001f0: 08c4 153d 99b0 aa3d 73b0 b13d f56d 433d
00000200: 6b93 bf3c ada7 bbbd 6634 9d3d 7f75 adbc
00000210: d89d b9bd 8d63 24bc de89 193d bb49 35bd
00000220: 2224 803d f3d4 0a3d c4db 67bd b8b6 7b3d
00000230: 3d6f 3bbd c545 2cbc a55b 593d 62cb aabc
00000240: 82a5 f13c 1603 21bd d9d2 823d dcd0 66bd
00000250: 571a 533d 9d01 02bd d106 dcbc 76d1 20bc
00000260: 4d99 953d bee4 b73b fee1 11bd 10ba 40bd
00000270: c907 43bd 3a2a f53c c6d2 a13b c6ef 393d
00000280: 1ce1 9c3c 3516 a2bb adff 20bd 0d67 8a3d
00000290: 6ab2 4a3d b867 9abc 1f15 a7bd 0ba4 9a3d
000002a0: e570 d4bd 0bba 74bc bcdb 05bc 436f 89bc
000002b0: b5bb 0ebd 2ae2 023c 280b 3abd 5b80 6b3d
000002c0: a3b1 4abd 9aa4 10bd d1f2 413d 28bb 81bc
000002d0: b55b 0bbd 0b87 0abc d2dd 433d 8224 babd
000002e0: 2409 b93d fac4 e4bb f023 233d d52a 38bc
000002f0: 8711 f73c f0b6 1cbe 90c9 aabc fc3f 183b
00000300: 64dd ebbc b6e2 a5bd d339 c3bc 43f7 3dbd
00000310: 0d2c 1abb 45f2 83bd a5cc 00bc 4d1e 8ebd
00000320: bf56 f33c 095a 95bc 7708 733d acd2 0f3d
00000330: f611 24bd 1c24 a5ba 2d0c debb 4288 823b
00000340: 11e6 863c 35fc 7abc e323 d9bc b4ce f1ba
00000350: 377f 143c b26f 143d da78 4d3d e04d 55bd
00000360: 3786 d63d 0bc9 4f3d 3f3d 883d f474 6e3d
00000370: d364 853d b721 5fbd af92 243d 182b c1bc
00000380: 0dd4 343d 5dbf 05bd e7d8 df3c bfef 2d3c
00000390: 4da5 bb3c 0b6a 5f3d ef14 303d 8965 36bb
000003a0: ace6 d43c 6016 673c 624c babc 4391 43bd
000003b0: 21eb ea3c 505f 57bc e3e4 15bd 43f3 1fbd
000003c0: a039 33bd a034 9a3d d5ba 26bc 649e f03c
000003d0: 0fd5 993c 979b 1a3d 6b4c 8bbd 5e76 57bd
000003e0: a6c3 403d f414 543d db2b 0cbd 213f 7cbd
000003f0: 6926 34bd 4c24 6e3d 6f45 c8bd d2f9 0dbd
0.078753464 -0.0075840065 0.07417838 0.013009725 0.038782198 0.035557125 -0.056728926 0.0052991007
0.06302719 0.011674173 0.019649247 -0.020188022 0.05474581 -0.007304722 0.019174125 -0.02248573
-0.054037858 -0.0011354038 0.06380212 -0.023933498 -0.010448462 0.07124463 -0.08959474 -0.01843262
0.07206584 -0.036139943 -0.053629514 -0.025315937 -0.035494976 0.060473498 0.029422984 0.08480886
0.042384967 -0.046997808 -0.07669967 0.0032441497 -0.0673836 0.092395976 -0.07784919 -0.05482727
-0.10766743 0.03365198 0.052006446 0.04364146 -0.056093566 0.06265719 -0.051937148 0.06254729
-0.02891341 0.044433404 0.020748978 0.043773953 0.061228313 0.03950057 -0.08818887 -0.0065681236
0.019047394 0.055481933 -0.023403414 0.067926876 -0.041826263 0.06613443 -0.043445054 -0.0025174937
-0.00985938 0.009777981 -0.07310702 -0.018017255 0.06696786 0.01803283 0.01424787 -0.021233866
0.0032743504 -0.073067024 -0.03348033 -0.06808658 -0.07662176 -0.0042671137 0.039738912 -0.05441623
0.035751525 -0.0021587021 -0.05756446 0.0185469 -0.011807965 0.042979155 -0.036162857 -0.08808958
-0.011560588 0.00030001331 0.026218206 -0.06639868 0.012908221 -0.0045218817 -0.11520232 0.005458322
-0.032802146 -0.027243763 0.044995263 -0.012046404 0.05043949 0.0363337 0.08844103 -0.05410568
-0.074002355 0.034178536 0.051993355 0.060613297 0.06894946 0.030863522 0.049781922 0.07370171
-0.08701278 0.035255544 -0.0064794184 -0.019388398 0.030119292 0.077308744 -0.018127851 0.061419304
-0.03911433 0.0005352784 -0.0056147943 -0.038090743 0.036563903 0.083344646 0.08676233 0.047712285
0.023385724 -0.09162841 0.0767601 -0.02117419 -0.090633094 -0.0100335 0.037484996 -0.044259768
0.06256892 0.03389449 -0.05660607 0.06145355 -0.045760382 -0.010514681 0.053065915 -0.020848934
0.029497866 -0.039309584 0.06387872 -0.056351528 0.05153879 -0.03173982 -0.026858719 -0.009815564
0.073046304 0.005611985 -0.035615914 -0.047052443 -0.047614846 0.029927362 0.004938456 0.04539468
0.01915031 -0.004946495 -0.03930633 0.067579366 0.049486555 -0.018848285 -0.081583254 0.0755082
-0.103730954 -0.014936934 -0.008170065 -0.016776687 -0.03484698 0.007988492 -0.045420796 0.057495456
-0.049485814 -0.035313226 0.04735071 -0.015836313 -0.034023006 -0.008455048 0.047818966 -0.090889946
0.090349466 -0.0069814892 0.039829195 -0.011240681 0.030159725 -0.1530416 -0.020848066 0.0023231497
-0.02879209 -0.08099882 -0.023831284 -0.046378385 -0.0023524791 -0.064426936 -0.007861291 -0.06939373
0.02970445 -0.018231409 0.059334245 0.03511302 -0.04005619 -0.0012599262 -0.006776354 0.0039835284
0.016467126 -0.01531892 -0.02650637 -0.0018448443 0.0090635335 0.036239333 0.05016408 -0.05207622
0.10474818 0.05072884 0.06652307 0.058217004 0.06513371 -0.054475512 0.04017895 -0.023580119
0.04414754 -0.0326532 0.027325107 0.010616242 0.02290597 0.05454449 0.042988714 -0.0027831516
0.0259889 0.014104456 -0.0227415 -0.047745954 0.028676571 -0.013145283 -0.036595237 -0.03905035
-0.043756127 0.07529569 -0.01017638 0.029372402 0.018778352 0.03774604 -0.06801685 -0.052603118
0.047061585 0.051777795 -0.03422151 -0.061583642 -0.043981943 0.058140084 -0.097788684 -0.034662075

fc2.bias f4 [64]
00000000: 82d1 46bb 8f65 6bbd 6c93 ab3d 68ef 2d3d
00000010: 7198 aa3d 81f3 dbbc 90a4 9e3d 7483 c73c
00000020: 63aa 5dbd dcc5 133d d09f da3d b9db efbc
00000030: 8587 a43d d689 9bbd 4b7e 1fbd 61f2 9cbd
00000040: fcce a63d cb9d e63b a8c4 e0bd 863d 123c
00000050: 1fec 0a3c ef4d 45bc f40b 383c 11e3 b03d
00000060: 1125 91bd 2082 bfbd 7306 c0bd 5841 e93c
00000070: f87a b63c 9e83 dcbd e2bc d0bc 7cf3 f93d
00000080: 25c6 79bb 27cd f23d 7e92 183d df6b 7bbc
00000090: c2e6 dcbd 87bd 9c3d 60f0 3b3b 0c94 b937
000000a0: 376b 7a3d 1096 573c c114 5dbc 769e 9bbc
000000b0: 7ffc 893c 28e2 053e 17a0 86bc e051 0cbe
000000c0: 80fd bbbc 45b3 a3bd a5c3 923b 6be6 a1bd
000000d0: 0353 da3c 8f8e 933d 4bdf 783d c6a9 d13d
000000e0: 88cb dc3d 0660 373d d704 d83c fd4b afbb
000000f0: b5eb 2bbd 58c5 ec3d a6b7 893c 4cd4 8a3d
-0.0030337279 -0.0574699 0.08377728 0.042464644 0.08329857 -0.02684951 0.077462316 0.024354674
-0.05411757 0.036077365 0.10675013 -0.029279577 0.08033661 -0.075946495 -0.0389388 -0.076634176
0.08144948 0.0070378534 -0.10975009 0.008925801 0.008479147 -0.012042507 0.011233319 0.086370595
-0.07087148 -0.09350991 -0.0937623 0.028473541 0.022275433 -0.107672915 -0.025480691 0.12204644
-0.0038112488 0.11855536 0.03724908 -0.015345543 -0.10786201 0.07653337 0.002867721 2.2122658e-05
0.061137404 0.013158336 -0.013493718 -0.018996459 0.016844032 0.13074553 -0.016433759 -0.13703108
-0.022948027 -0.07993177 0.004478889 -0.07905277 0.026650911 0.07204925 0.060759824 0.1023746
0.10781008 0.04476931 0.026369495 -0.0053496347 -0.041972835 0.11561078 0.016811203 0.06778774

fc3.weight f4 [1, 64]
00000000: 7780 ffbc b2b1 b2bc b217 253d 81d7 a23e
00000010: 0cf9 7e3d 06f1 fbbc 5dfc f73d b1fa 153d
00000020: afd3 49be c242 173d fdb6 993d 0c24 4c3e
00000030: 4125 a73d 01e4 01be 10e4 d8bd 3393 82be
00000040: eec4 9a3d bd83 aabc 36f2 7abd 90b9 2abd
00000050: 0e62 dc3d b0e9 823d a899 453d 3d4e 883d
00000060: b127 35bd 9cfe 04be 0036 d3bd 5e28 1bbe
00000070: 7fe4 ae3d c09a 4abd f3ca 4b3e c05e 983d
00000080: 0b9b 20bd 31c7 143d da0b 57bd 3e3c 34be
00000090: 0feb f3bc e690 213d f3e7 e5bd 982e 353d
000000a0: 7ff2 9f3e 75b1 ff3c d920 af3d 04ad 8ebd
000000b0: 294a 493d 6b2b f13c 1012 7dbd c9aa ffbd
000000c0: 94ad 2dbd 1d08 61bd 6278 3b3d 9683 8abd
000000d0: 8080 c23e 7b14 9d3d 8b08 3e3d bcd1 863d
000000e0: d8c5 a23c 6057 9b3d 4dbe 24bd 4aff fcbc
000000f0: 7c77 74be 0a0b 263d 208f fb3c abda c83c
-0.031189186 -0.021813247 0.0403058 0.3180504 0.06224923 -0.030754577 0.12108681 0.03661603
-0.19709657 0.0369289 0.07505605 0.19935626 0.081614025 -0.12684633 -0.105903745 -0.2550293
0.075570926 -0.02081477 -0.061266147 -0.041680872 0.1076089 0.063922286 0.04824224 0.06655548
-0.044227306 -0.12987751 -0.10313034 -0.15152118 0.08539676 -0.049463987 0.19901638 0.07439947
-0.03921036 0.036322776 -0.052501537 -0.17601106 -0.02977517 0.039444827 -0.112258814 0.04423389
0.31239697 0.031212548 0.08551187 -0.06966594 0.04914299 0.029439649 -0.061784804 -0.124837466
-0.042401865 -0.054939378 0.045769103 -0.06763379 0.37988663 0.07669922 0.046394866 0.065829724
0.01986973 0.07585025 -0.040220547 -0.03088345 -0.23873705 0.04053787 0.030707896 0.024518332
