learner_actor.pth (torch_old, 86517 bytes, 6 tensors)

fc1.weight f4 [128, 33]
00000000: 1839 e4ba b3a9 553e 57bd 683d 110e 98bc
00000010: 0f90 0d3e 7dff 3bbd 2e30 e8bd 569f b1bb
00000020: aaf3 89bd 1e96 923d 7b24 27bd da57 edbc
00000030: 6ae2 a5bd 692b 353d 40a6 503e 87a8 8e3d
00000040: 9b1e 2cbe 87cd 23be e920 1dbd aabb 81bd
00000050: 7d08 773d 81e5 7fbc 99d5 1d3e b52f ecbd
00000060: 0c5e c83d 4676 023c bfff 4cbe b401 e9bc
00000070: 18be 363e 6c48 04bd 1c54 2b3e 8776 c3bd
00000080: e903 e0be fb08 edbc 9b98 ebbc 019a 593c
00000090: 23c9 ea3d 02ad 9bbc 30bb 16be f6a4 253e
000000a0: 9635 3b3e a6ef c5bd 65dc 3fbe 687c 1bbe
000000b0: 5869 5f3d bff0 3abe 10a5 67be bac9 cc3d
000000c0: e22e 873d d9c2 47bd c5b0 073d c566 2cbe
000000d0: 1459 383e 175b d53d 4842 5f3e 039d 443d
000000e0: b2aa e23d 4c5b 9e3d e3f2 9c3c d1c5 f13c
000000f0: 199b 7ebd 7ae8 16bd b000 0c3e 2faa 9c3d
00000100: a23f d8bd 9313 903d f7bb 27be b757 e0bd
00000110: f05b 363d ab76 21bd e41f e13c c828 3e3e
00000120: 783e 2a3e 42bf d43d 0c62 1e3c b30b 57be
00000130: 3932 193e 68c2 7a3c 4b5e c5bc 5093 36be
00000140: ddc3 333e b7c4 7fbe 9281 be3d 6de2 fb3c
00000150: 707c 953d c68d c63d 09cf cbbc 902c c73c
00000160: 2c39 223d 4a6c 3bbd 141d 71bd cb9d 8ebc
00000170: 92cb 3a3e 1361 7cbe d88a 3abc f022 e63c
00000180: cea4 8a3e 616e 81bd de20 6c3f eeba aabd
00000190: 1f2e 72bd bcd7 943d ac98 17bd e23f 043c
000001a0: 4890 13be 2d92 073e 9777 a7bc fdb0 2f3e
000001b0: 9f14 f03d 439e c83d 4a30 c3bd 59d4 ad3c
000001c0: 7f70 a9bd cf5e 55bd e192 013e d2e7 c73d
000001d0: f425 8e3d c376 7cbe 4c07 d4bb aabe 59be
000001e0: f25a d0bd bad7 e3bd ef38 923c b7c5 1dbe
000001f0: b4e7 443e efbd 313e 7008 cebc 7732 1c3e
00000200: 9245 033e 2281 9e3d 5ce7 8bbd 5adc e43e
00000210: 4701 623d 62ec f53d 6593 07be ded1 2ebc
00000220: 7b36 083e 35f2 d4bc 30cb 41be c7fa 25bc
00000230: af6b b2bd 385d 41bd 7a31 4dbe 68ac a43d
00000240: 449b 4dbd 96cb 4bbc b5db 7cbd f724 283e
00000250: fe35 c43d f7bb 1fbc 6c83 173a 1e81 b83c
00000260: 739e 483e f135 943c 109a 8c3d af59 edbd
00000270: 1032 05be 78ab d73d b55d 76bd c0a8 11bd
00000280: ca47 223e 18ce a9bc 6cbb dd3b 88ad ebbd
00000290: cfe8 723e 27c7 07be 6a74 ee3d be82 f1bd
000002a0: e774 493e 1fd2 c5bd a2c7 283e 500d 11be
000002b0: c64a 5fbe f6bd 233d c332 b4bd 6073 62bc
000002c0: 90b7 80bc fef8 85bd 7eb8 bf3d feb7 3abe
000002d0: 7931 053e 7810 43bd 0608 e5bd 8db2 3f3e
000002e0: 6087 0b3e 5d43 c2ba 21c6 d13d 64a2 3bbe
000002f0: 4c10 9ebd 73fd 083e 5c9e f93d fe10 c53d
00000300: ccc3 d5bd edd0 ba3d 439f 21be 16a6 ac3d
00000310: 30f9 46bd 1c60 0c3f 4fba a63d 967d de3d
00000320: 284a 8c3e 089f a5bd a053 c53d d791 733d
00000330: 6338 2ebd fa05 acbc 0d76 b7bc cef0 87bd
00000340: 254b 78be acab 7f3e 28ac 013e e3fb 8d3c
00000350: 73f3 643e 2535 343e f3d5 f03c 1387 723e
00000360: abe0 bdbd b1f7 13be b4b5 c8bd b841 df3d
00000370: 5836 353e c2ac 9abd 9544 cd3d 41d5 133c
00000380: cd40 44be 0614 04be 2437 2bbd 4c7f d43d
00000390: 66f9 0dbd 830b 01be 0f96 473e 2d9d 163c
000003a0: 35f9 7cbd a3ec cc3c 726f 68bc e503 21be
000003b0: ade1 213e 0345 d4bb 48d6 4e3e fb1e 983c
000003c0: b66c 5cbd 37ad 3fbd 3f09 333c ada6 9bbc
000003d0: efc8 e2bd 4143 7e3d f305 00be 65a2 4bbd
000003e0: 84d8 a63d dad0 d33c 3ffa 4abd 40f9 8abe
000003f0: ced1 2d3e 70fd 16be b075 1c3e a85f 28bd
-0.0017412035 0.20865516 0.056821194 -0.018561395 0.13824485 -0.04589795 -0.113373145 -0.0054206057
-0.06735928 0.07157539 -0.040806275 -0.028972555 -0.08099826 0.044230852 0.2037592 0.06965738
-0.1680855 -0.15996371 -0.038361464 -0.06334622 0.06031083 -0.015618683 0.15413512 -0.11532537
0.09783563 0.007962769 -0.20019434 -0.028443195 0.17845953 -0.03229563 0.16731304 -0.09544092
-0.43752983 -0.028934946 -0.028759291 0.013281346 0.11464145 -0.019003395 -0.14719844 0.16176209
0.1828216 -0.0966485 -0.18736418 -0.15184176 0.054543823 -0.182559 -0.2262156 0.09999414
0.06600739 -0.048769806 0.033127565 -0.16836078 0.1800273 0.10417765 0.21802628 0.0480013
0.11067714 0.07732257 0.019158786 0.029513272 -0.06215963 -0.0368428 0.13672137 0.076496474
-0.10559012 0.070349835 -0.16380297 -0.1095423 0.044521272 -0.03941981 0.027481027 0.18570244
0.16625392 0.10388042 0.009666931 -0.21000557 0.14960565 0.015305139 -0.024092814 -0.17829633
0.17555185 -0.24977385 0.09302057 0.030747617 0.07299125 0.0969501 -0.024878995 0.024313241
0.039605305 -0.04575757 -0.05886562 -0.017409226 0.18241718 -0.24646406 -0.011385642 0.028092831
0.2707886 -0.06319881 0.9223765 -0.08336435 -0.059126016 0.072677106 -0.037010834 0.0080718715
-0.14410508 0.13239355 -0.020442767 0.1715736 0.11722683 0.09795811 -0.09530695 0.02121942
-0.0827341 -0.05209237 0.12653686 0.09761013 0.06940833 -0.24654679 -0.0064705964 -0.21264139
-0.101735964 -0.11125131 0.017849414 -0.15407453 0.19229013 0.1735761 -0.025150508 0.15253626
0.12819508 0.07739474 -0.06831238 0.44699365 0.055177 0.12007977 -0.1323982 -0.010670153
0.13302033 -0.0259944 -0.18925166 -0.010130591 -0.08711945 -0.04720804 -0.20038405 0.080406964
-0.0501969 -0.012438675 -0.061732966 0.16420351 0.09580611 -0.009749404 0.0005779776 0.022522505
0.19591694 0.018092128 0.068653226 -0.115893714 -0.13007379 0.10530752 -0.06014796 -0.035561323
0.15847698 -0.020728156 0.006766727 -0.11507708 0.23721622 -0.13259564 0.11643298 -0.11792515
0.19673501 -0.09659218 0.16482404 -0.14165235 -0.21805868 0.039976083 -0.087987445 -0.013821453
-0.01571253 -0.06541632 0.09361361 -0.1823425 0.13007154 -0.047623128 -0.11183171 0.18720455
0.1362586 -0.0014821101 0.10242868 -0.18323666 -0.07717952 0.13377933 0.12188408 0.09622382
-0.10437736 0.09121881 -0.1578341 0.08430116 -0.048577487 0.5483415 0.08141004 0.10863797
0.27400327 -0.080869734 0.09635091 0.059465256 -0.042534243 -0.020998944 -0.022395158 -0.06637727
-0.24247415 0.24967831 0.12663329 0.017332023 0.22358494 0.17598398 0.029398894 0.23684339
-0.09271368 -0.14449956 -0.09800282 0.10901207 0.17696512 -0.07552482 0.100228466 0.009023012
-0.19165345 -0.12898263 -0.041800633 0.103758425 -0.034661673 -0.12602048 0.19490837 0.009192747
-0.0617611 0.02501518 -0.014186727 -0.15724142 0.15808745 -0.0064779534 0.2019893 0.01856946
-0.053814612 -0.04679605 0.010927497 -0.019000376 -0.11073481 0.062075857 -0.1250227 -0.04971542
0.08146766 0.025856424 -0.04955506 -0.27143288 0.16974565 -0.14745116 0.15279269 -0.04110685

fc1.bias f4 [128]
00000000: f880 2d3d 2a33 0bbd d030 813e baf3 c53d
00000010: 5618 b9bd 6ce9 02be e652 23be 6588 e33d
00000020: 996a a3bc ae6e 59bd cf01 bfbd e7f1 213d
00000030: 5767 4d3e 736a 1fbe 2f71 123e d824 1dbe
00000040: 025b d43d ec00 14bd e51d 97be 463a 903a
00000050: 3afe eabd c4e9 f73d f808 c5bd 0427 5b3d
00000060: 63f2 ecbd bd0b a73d 0893 32bd 0e01 e0bd
00000070: ec60 8dbc b225 af3c 577a b03d 2eb5 bb3d
00000080: afa5 033e a8bc bdbd 9e22 b93d 63aa d13c
00000090: efc1 10be 34a1 303e 4160 89bc f800 843d
000000a0: bd47 7a3d ae38 a33d 1a3c 6a3e 03dd ab3d
000000b0: 543d e5bc 0af1 833d 35e2 dabd 759d eebb
000000c0: 499c 57bd 257d 7a3b a958 cc3b a412 b7bd
000000d0: f66f ba3d 3e45 7c3d 5f4d d33d 8444 01be
000000e0: 16f2 7fbd 77df 3e3e 9460 4e3a 7b89 dd3d
000000f0: 458c c7bb daa3 39bd 1f68 27be 7e2f f0bd
00000100: a308 b8bd fba0 adbd 2b74 383e 0556 a73b
00000110: c0c3 843d f434 59be b4e0 0dbe 28c4 703e
00000120: 0fff a7ba cfc7 e13d 3c09 abbc 2ee8 2d3b
00000130: 6f22 623d e73e b8bd b254 8d3e 30b8 613e
00000140: a1e9 69bd dfad 353e 7d12 813d 9836 4e3e
00000150: 7b00 89bd 32a0 d0bd 3b6c 67bd edd2 183c
00000160: 21f9 49bd 8e15 7ebd 14d1 d2bc 017c 313e
00000170: e345 e03d fec2 32be a767 473e f949 933c
00000180: a00f 793e d239 c0bd eb2d ec3d 6888 233e
00000190: d879 233e 24c5 003c 0f16 a73b 7a4b b63d
000001a0: 6e98 99bd cafa a0bd 609d 463d 9147 243e
000001b0: 7081 a7bc c1e9 b13d d6c3 1c3e 4ca7 a13d
000001c0: 1bb9 3bbd 98a2 e93d a0f1 7f3c 2372 b4bd
000001d0: 1379 f0bd 7a77 253e 0a7d b33d a446 643e
000001e0: 897a 2ebb 6c12 29be f36e fabd a2cd 42be
000001f0: ed79 07bd 3386 043d 6e4e 3f3d 4259 f83d
0.042359322 -0.03398434 0.25232553 0.09665628 -0.09037845 -0.12784356 -0.15949592 0.111099996
-0.01994829 -0.053084068 -0.09326517 0.039537337 0.20058952 -0.15567951 0.14300989 -0.15346086
0.10368921 -0.03613369 -0.29514995 0.0011003695 -0.11474271 0.12105134 -0.09620851 0.053504005
-0.11569669 0.08156536 -0.04359725 -0.10937701 -0.01725813 0.02138028 0.086170845 0.09165417
0.12856172 -0.09264499 0.09039806 0.025593942 -0.1413648 0.17248994 -0.01676953 0.06445497
0.06110357 0.07969795 0.2287449 0.08391764 -0.027983345 0.06442459 -0.10687677 -0.007281954
-0.05263928 0.0038221565 0.006236155 -0.08939102 0.09103386 0.061589472 0.10317492 -0.12623793
-0.06248673 0.18639933 0.00078726676 0.10817238 -0.0060897195 -0.045322277 -0.16348313 -0.117278084
-0.08986022 -0.0847797 0.18013065 0.00510669 0.06482649 -0.21211606 -0.13855249 0.23512328
-0.0012817102 0.110244386 -0.020878427 0.0026536095 0.05520862 -0.08996373 0.2760368 0.22042918
-0.05710757 0.17742108 0.063023545 0.20138013 -0.06689545 -0.10186805 -0.0564997 0.009327632
-0.049309853 -0.062032275 -0.025734462 0.1733246 0.1095083 -0.17457196 0.19473134 0.017979609
0.24322367 -0.09386028 0.11532196 0.15970004 0.15964448 0.007859502 0.005099065 0.08901115
-0.07499777 -0.07860334 0.04848993 0.16042925 -0.020447463 0.08687163 0.1530908 0.078932375
-0.045830827 0.114079654 0.015621573 -0.08810832 -0.11741843 0.16158858 0.08764084 0.22292572
-0.002662333 -0.16510934 -0.12228193 -0.19023755 -0.03307526 0.032354545 0.046705656 0.121263996

fc2.weight f4 [128, 128]
00000000: 974d 8a3d d011 043e 570e d93c d6ac db3c
00000010: 017f 27bd f4a0 b13d e2b5 5b3d ffb5 35bc
00000020: 6037 cf3d bcc1 1c3d 1a98 c53d 27df b6bc
00000030: 2462 cb3c e863 e537 b9ff 513d aa47 0bbd
00000040: 5b7c 5c3d 9eac 17bd 6b5d 68bc 259b c23d
00000050: eebd 9ebd ecce 7fbc 5688 0f3d eaae 56bd
00000060: 720e 9a3d 6855 a93d f393 f73d c6c1 a83d
00000070: bdb5 293d 4c31 d8bd b778 c53d 3629 1cbe
00000080: 606e 8ebd 758b d7bc 8804 2d3d c659 223e
00000090: 1c94 8e3c 9840 ca3d 86df 45bd e61b 0fbd
000000a0: b1f7 4f3d 3420 47bd 4748 eebc 909f 7b3d
000000b0: d825 043e 0af4 4e3d e518 1c3e b4f5 b7bd
000000c0: 2dff dfbc 63e1 b53d eec5 5a3d 5796 b7bc
000000d0: 24dd 7eba 86cd 673d d0c4 973d 9ed0 1d3e
000000e0: 3afd c6bd 2d69 323c aabf 7d3d 694d 91bd
000000f0: a831 aa3c 3c25 77bc f9a8 2abd b1f2 aa3c
00000100: 5218 e13c 11b0 83bd dad1 5d3b 3ddd afbc
00000110: fa41 50bd cad1 da3d 0947 293c ea65 4a3e
00000120: 1a10 17bd 542a 483d ae4b 993d 4f6c d13d
00000130: 3b5d b4bd 5a94 a3bc 6e14 38ba 4621 f2bb
00000140: 9964 c6bd 5a2e 2cbd ee35 5a3d f362 063d
00000150: 0f5b 8d3d 0e5f 61bd 2725 073d 2cbe c33c
00000160: 06da 18bd 1e0c aebd d18b 4ebd 2df8 ee3c
00000170: c01d 9e3d 1f78 c23d eb70 a43c 8c4a 9bbb
00000180: ef2e ed3d b469 d03c ba7b 51bc 5d5b 203d
00000190: 12dd 733d 794a 2e3e a37a a6bd 28c8 013e
000001a0: 4017 2cbd a43e 43b9 9826 b13d 97c4 f43a
000001b0: 6aed 853b 8d25 1dbd d376 a9bb 8916 203d
000001c0: 6f1d 953c dc37 183c ecae ffbb 600f 873d
000001d0: 2d30 a83d 993f 4abc 13b6 15bb 2197 7b3d
000001e0: 411e 7dbb 0975 bc3c c42b ce3c af30 5e3e
000001f0: 5651 27bd 75f9 cbbc e7b2 87bd 0274 6c3d
00000200: 3b87 abbd 38a0 84bd 3298 cbbd 0caf b3bb
00000210: deb4 103e 6702 97bb 5775 67bc 44ba 8e3c
00000220: d465 da39 08e2 e7bd 6402 113c 2888 85bc
00000230: 18b8 e6bb 80b8 f1bc 5d35 90bd 317d 2ebc
00000240: bb19 37bd 5851 ab3d e7c3 acbd 2c83 c73d
00000250: 00dd 88bc 6d68 48bc a256 40be f390 5b3d
00000260: 1f47 15bc 202a 133d d119 ae3d 9f53 013d
00000270: 542b 143e 2ca2 babb 353d f8bb 487a 133d
00000280: 3843 8dbd bc4f babc 52f4 bebc 04c5 82bd
00000290: 7928 d33d 27b8 2bbe 1173 aa3c 4bf4 523e
000002a0: 2c66 fd3c d549 b93d cbf5 1abe 574e d2bd
000002b0: 4105 34bd 9214 6a3d d7c8 18bd 8746 bcbd
000002c0: c85e a63c 0271 983d 1827 1d3d eb18 783c
000002d0: 6e94 96bd 33a1 ad3c 66d9 19be d13e eebd
000002e0: 05d4 f83d 4a48 153d be6d bcbc 23e3 163e
000002f0: 89ba b93c 01d2 e73d 3fec ae3d 0188 513d
00000300: 2557 debc c769 c03d cdca 0c3c 3f74 cb3d
00000310: 25ee 123e 7cfe 47bd 3256 0f3d 345c 71be
00000320: 14ba 6bbd 1acc 50bd 3cc1 993c 10ae 55bd
00000330: 10d3 ee3a e1ea 93bd 9896 d13c 1f24 48bd
00000340: f305 d43d 4097 c6bd a8e7 1dbd d410 f2bd
00000350: 7e6a 86be 03fd 37be f761 6dbc f226 983d
00000360: 50df 3a3e 35c8 2f3d bc53 babd 2ca9 413d
00000370: 218d 093c b787 d6bc 8ee4 9e3c 1077 e43d
00000380: 5b4b 4dbc fa66 2ebe e65f 84bc 6ff1 14bd
00000390: 775a 65bd a44b eabd d52a c5bd 3c33 79be
000003a0: f64e 25bd 6670 563d f9de 57be b430 b3bc
000003b0: d72e e23d df43 b7bc 9740 323e 4857 6a3c
000003c0: 0159 b93d 3479 843d 0a08 3f3d 0c4d 49bd
000003d0: af1b c2bd fe8a 60bd 2a96 f2bd 0fea 0dbe
000003e0: 45f8 00bd 35ce a8bd e75b 203e c80d 40be
000003f0: 2223 763d 44f1 95bd b610 d03c d1ea 453d
0.0675308 0.1289742 0.026496096 0.026815813 -0.040892605 0.086732775 0.053640254 -0.0110907545
0.10117984 0.038270697 0.09648152 -0.022323204 0.02482707 2.734545e-05 0.051269267 -0.03400389
0.053829532 -0.037029855 -0.014182429 0.09502248 -0.0775107 -0.015613299 0.03504213 -0.052412905
0.075222865 0.08268243 0.12088766 0.08240084 0.041433085 -0.10556278 0.09642165 -0.15250096
-0.06954646 -0.026311615 0.04224065 0.15854558 0.017404608 0.098756015 -0.04830887 -0.034938715
0.050773326 -0.048614696 -0.029087199 0.061431468 0.12905061 0.050525703 0.15243872 -0.08982411
-0.027343357 0.0888088 0.053411417 -0.022410555 -0.00097222836 0.056592487 0.07410586 0.15411612
-0.09716268 0.010889334 0.061950363 -0.07094843 0.020775631 -0.015084561 -0.04166505 0.020867677
0.027477417 -0.064300664 0.0033847005 -0.0214678 -0.05084417 0.10684545 0.0103318775 0.1976544
-0.03688059 0.048868492 0.07485138 0.10225736 -0.08806845 -0.0199682 -0.0007022087 -0.0073892204
-0.09687156 -0.04203639 0.053274088 0.03280921 0.06902134 -0.05502229 0.032994416 0.023894392
-0.0373173 -0.08498405 -0.050426308 0.029171074 0.07720518 0.094955675 0.020073375 -0.0047391113
0.115812175 0.025441028 -0.012785846 0.03914963 0.059537 0.17020597 -0.0812886 0.1267401
-0.04201436 -0.00018619985 0.08649939 0.0018674311 0.00408714 -0.03836589 -0.0051716357 0.03908399
0.018202512 0.009290662 -0.0078028347 0.065947294 0.08212314 -0.012344264 -0.002284412 0.061423425
-0.003862277 0.023005025 0.025167353 0.21698259 -0.040849052 -0.024899224 -0.0662592 0.05772782
-0.083754025 -0.06475872 -0.09941138 -0.0054835137 0.14131495 -0.0046084407 -0.014127097 0.017422803
0.00041656068 -0.11322409 0.008850668 -0.016300276 -0.0070409887 -0.029506922 -0.07041428 -0.010649965
-0.044702273 0.083651245 -0.08435803 0.09741816 -0.016706944 -0.012231928 -0.18783048 0.05360503
-0.009111195 0.035928845 0.08501018 0.031573888 0.14469653 -0.005695602 -0.007575656 0.03600529
-0.068975866 -0.022743098 -0.02330986 -0.06385234 0.10310454 -0.16769467 0.020806821 0.20601003
0.030932508 0.090472855 -0.15132825 -0.102688484 -0.043950323 0.057148524 -0.03730091 -0.091931395
0.020308867 0.074434295 0.03836736 0.01514266 -0.073525295 0.02119503 -0.15024337 -0.11633075
0.121498145 0.036445893 -0.023001548 0.14735083 0.022671955 0.11319352 0.08541154 0.051155094
-0.027141163 0.093951754 0.008593273 0.099342816 0.14348657 -0.04882668 0.03499431 -0.23570329
-0.057550505 -0.050975896 0.0187689 -0.052167952 0.001822086 -0.07222534 0.025584504 -0.048862573
0.10352697 -0.096968174 -0.038551003 -0.11819616 -0.26253122 -0.1796761 -0.014488689 0.07429303
0.1824925 0.04291554 -0.09098002 0.047280475 0.008395464 -0.02618776 0.019396093 0.11155522
-0.012530173 -0.1703147 -0.01615901 -0.03636306 -0.055994477 -0.114402086 -0.0962731 -0.2433595
-0.040358506 0.052353285 -0.21081151 -0.02187381 0.1104409 -0.02237123 0.17407452 0.014303036
0.09050179 0.0646843 0.046638526 -0.049145743 -0.094779365 -0.054820053 -0.11845048 -0.13858818
-0.03148677 -0.08242456 0.15660058 -0.18755257 0.0600921 -0.073214084 0.025398593 0.04831964

fc2.bias f4 [128]
00000000: 3576 583d 49c5 6f3d 0718 ddbd 93eb 70bb
00000010: 0d50 86bb b75c 0ebd 76c8 1ebd 54d9 993d
00000020: 49a1 b53c 3361 fc3c 6d79 cd3b 339f 083d
00000030: b5c6 373d 2871 063d 05c4 a53d 8c47 513c
00000040: 25e7 643d a726 5b3d b421 40bd bc6f 5ebd
00000050: 60a9 b3bb a43c ebbd 84fe 3ebc adbe e43d
00000060: 45a2 16bd 6359 a63d 09ed 9cbb 0a74 4f3d
00000070: 93ef b43d acfc 10bc 20c7 d63d 0aa3 a03c
00000080: 3e20 4d3d 86fe b3bc ee6e 463d 7ff6 873d
00000090: 2e8c 66bc cf4e 6b3d faae 833d 896c 1bbd
000000a0: 0318 b73c 4218 1abd 6f00 11be 8527 5dbd
000000b0: 5ca6 1fbd d355 e33d 3be5 5dbd 7c9e 2a3e
000000c0: 5728 a13d 6b08 88bb 9f7a 09bd f6b5 483d
000000d0: 0cc6 f53d 9928 453d 5783 863d 00b1 eb3d
000000e0: cbcd ecbd ffbd 103d a099 173e 6746 983d
000000f0: e506 ef3d 21a2 cd3b 0414 4c3b dc4b c8bd
00000100: 3894 e33c 8d30 903b 3a3a 343d ecd9 d83d
00000110: 5d64 99bd b5ba b6bd 0cfb 6b3d 60e3 663c
00000120: 45fe 0b3b 2fbb a4bd 0faf bf3c 27d7 a33d
00000130: 6972 c7bc 3c3f 933d 291e ad3d c008 27bc
00000140: e6cb db3c da6d 90bd 8677 78bd b592 823d
00000150: a06d 773d ed65 3f3d 35c4 af3d 0700 91bc
00000160: 6a6f f93d 93e8 c63b c826 76bb 435b 453c
00000170: 5cea fb3c 7f72 4e3b 8a76 233c 7393 32bd
00000180: 95d9 d4bc ca27 343d a4ba 663d ac58 2c3d
00000190: 52e1 93bb 10f6 b93d a42a 923c de04 99bd
000001a0: 07f3 eebc 3825 70bd 2056 91bd 29a6 923c
000001b0: 50ed b73b 9d04 dd3d 4f86 413d e8dd a1bd
000001c0: 08bd 33bc 82ac e0bc aee0 00bd 3973 58bd
000001d0: 9525 893d 4f92 d7bc ba91 083c 831a 2f3d
000001e0: 8cd0 613d f0a5 913c 900b 933d 62f5 d739
000001f0: 6d29 c23d 7264 b8bd fd31 c53d 1d5a dabd
0.052847106 0.058537755 -0.107955985 -0.0036761507 -0.0040988983 -0.03475639 -0.038765393 0.07512155
0.022171633 0.030808067 0.0062705786 0.03335495 0.044867236 0.032822758 0.080940284 0.012773406
0.0558845 0.05350366 -0.04690714 -0.054305777 -0.0054828376 -0.11486176 -0.011657361 0.11169181
-0.036775846 0.08122518 -0.004788999 0.050647773 0.08834758 -0.008849304 0.10487199 0.019608993
0.050079577 -0.021971952 0.048445635 0.06638812 -0.014071507 0.057448205 0.064298585 -0.037945304
0.022350317 -0.03762079 -0.14160322 -0.053992767 -0.038977012 0.11100354 -0.05417369 0.1666202
0.07869022 -0.004151394 -0.033564206 0.049001656 0.12000665 0.04813442 0.0656802 0.115083694
-0.115626894 0.035337444 0.14804697 0.07435303 0.11671237 0.006275431 0.003113986 -0.09780094
0.027780637 0.004400319 0.04400084 0.1058844 -0.07489846 -0.0892233 0.057612464 0.014092296
0.0021361273 -0.08043515 0.023398904 0.080000214 -0.024346547 0.071897954 0.08453018 -0.010194957
0.026830625 -0.070522025 -0.06066086 0.063756384 0.06040728 0.046728063 0.085823454 -0.017700208
0.12179454 0.0060702055 -0.0037559737 0.012045684 0.0307514 0.003150135 0.009976992 -0.04359765
-0.025982657 0.04398326 0.056330338 0.04207675 -0.0045129443 0.09080136 0.017842598 -0.074716315
-0.029168619 -0.058629245 -0.07096505 0.017901497 0.0056130067 0.107918955 0.047247227 -0.079036534
-0.0109703615 -0.027426008 -0.03146427 -0.05284426 0.06696621 -0.026314883 0.008335525 0.042749893
0.055130526 0.01777932 0.0717994 0.0004119082 0.094805576 -0.090035334 0.09628675 -0.10661719

fc3.weight f4 [4, 128]
00000000: 6dc8 f73d df0f 94be 331a d73c ce67 293d
00000010: 91a7 78bd 4179 953e a9f7 943e c222 9dbe
00000020: 10ff 9fbd 4ec7 95bd 5e3c a2bd 93c2 89bc
00000030: 82f4 cb3e 828e 63be e638 b4bc ab48 91bb
00000040: 6be9 943e 4cab 3abd ae6b 9b3c eec2 943d
00000050: d33d 0cbe ad4b a9bd 1c70 8bbd c269 a5bc
00000060: 3c96 5dbe 2ced 5abe 3be0 68bd f990 34be
00000070: afe8 96be 0510 733d 80bc dd3d 5ef7 9d3e
00000080: e366 4f3e c6ab 54be 5b89 6abe 9638 eabd
00000090: 7273 48bc a0ab 12bd da45 bbbd aef9 4b3c
000000a0: 6543 c83d da8a 043e ed95 af3c 82d7 ef3d
000000b0: 4fbc 413d 4aba 99bb bc4a 17bc b7bf 86ba
000000c0: 1dbc cdbd 967d 11bd 74cd 3ebe 3cec b7bd
000000d0: aecc 72be 3788 d6bc c475 8abe 40ed a63c
000000e0: ab33 3b3e b8ee 51be 179b 113b 5276 c6bd
000000f0: 81de 8a3e e5ae 443e 668d 83be 3a20 f63c
00000100: 9ddc cc3d 4c5e b9be 30ad 113e ac92 c7bd
00000110: 5fde d93a 8702 d83d 1815 5bbe d105 cebe
00000120: 57a5 a03d 81fb 5b3c 1ca5 bbbd 64da 51be
00000130: c16a 92be 5a4a 9e3e 4fdc 57be eb0c 0e3d
00000140: 7ea0 0cbe 771f 88bc b59a d53c a552 173e
00000150: 53e8 48be 8253 a0bd a71e eb3e a496 3abe
00000160: 7026 04be c356 723c db1f b43d 8314 8f3d
00000170: 22cd 363e 099d 0bbe 8910 48be 53b7 823d
00000180: 4c93 52be e157 ff3c 3ed4 afbd d544 d1bc
00000190: ffc1 d0bc 130d 92be 20e0 78be a110 9e3e
000001a0: 5cdb 59ba a42e 153e 95be f33c 023b ba3c
000001b0: 279b d93d 6b99 913e 8c9b a6be cd0f 6c3e
000001c0: 9384 febe 1cfc 083e f24c 4b3e d0b9 833e
000001d0: d290 1b3f 56f4 b5be c320 0fbf 6536 61be
000001e0: b4ed 143d 6ac1 663d a5e5 e13c 931d 9bbd
000001f0: e3fc 29be e8df 23be dc91 4d3e f8c9 e23c
00000200: 361c a6bc 0395 1dbd 91af aebd 36bd 803d
00000210: 2699 123f b3a0 6c3d cdb1 103f 7d12 9b3c
00000220: 3be7 6e3e d0ab 903d f5b0 823c e66e c1bc
00000230: 56bb 5bbe d622 123d 7056 bebe a74e a5bd
00000240: ca8b ce3e 3dca d33c 3a37 73bd 587e f23b
00000250: bc00 a83e 6799 313e 1df0 68bd e8ca 073d
00000260: e81e 273e 7d9e a0bc edfe 853e f20e 4a3d
00000270: 5cb8 983d 3de9 3a3e 6276 d2bb d572 ba3d
00000280: 927d 013e 50c5 383e d345 46bd c0bd d5bd
00000290: fd11 803e 0e36 cfbd 9fb3 3cbd d8bf a73e
000002a0: 0295 0cbc 9459 67bc b05f d9bc 3b39 b93e
000002b0: 274a 013e 2dc7 b6bd ea66 4b3e ed88 46bd
000002c0: 97be 883e 75d6 cabd fdc3 403e daeb 583e
000002d0: bc50 02be b705 b13d 301a 00bc 93e1 e33d
000002e0: 7099 413d 6d9f ec3c 00c4 9abd 20ad 09be
000002f0: 4666 913c 4310 0a3f 9d53 dbbd 0512 86bd
00000300: 4d50 d0bd bc3c ca3e 035d a83e 2e1d 93bd
00000310: e833 e8bd 25cb 2bbc 03f7 9cbe d10a 2e3d
00000320: 8615 8dbd 4071 6b3e f422 7cbd c456 e2bd
00000330: 98a4 613e c4ce 1abd da85 65bd 4531 b53e
00000340: 98c5 483c 7995 243e dbb6 c8be 1696 ef3d
00000350: 77bd 00be 9d1a b73d 0eca 5cbe 0932 43be
00000360: 1d81 a83d 2c06 e1bc 0720 323e 39b4 06bd
00000370: ff04 3f3e 2cd8 99bd fcfb f53d b009 c93c
00000380: 8b8d 2d3e 165b 613d 5c4b e53d e241 b83c
00000390: b5ad 003e ceaf 743e b6c9 033d 4521 b0bd
000003a0: bede 87bd 0c3f 4e3e 9014 ea3d e42b ab3b
000003b0: 3c07 a53d 04d9 46bd adc4 cabe ecc4 bf3e
000003c0: f343 e9bd 6242 dabd 6fae 063f a2b6 933e
000003d0: 36cd a4bd 6a8f acbd 9fab 10bf cea5 1abd
000003e0: de91 51bd 56e1 21bc 090e 4b3e 0bc1 903d
000003f0: 3d62 1d3e df02 7f3d fdfd 233e cf85 d2bd
0.12098775 -0.2891836 0.02625761 0.04135876 -0.06070668 0.29194072 0.290952 -0.3069058
-0.07812321 -0.07313405 -0.079216704 -0.016816413 0.39834982 -0.22222331 -0.021999788 -0.0044337115
0.29084334 -0.045573518 0.018972244 0.072637424 -0.13695459 -0.08266387 -0.068084925 -0.02019203
-0.21639341 -0.21379536 -0.056854468 -0.17633428 -0.29474398 0.05934145 0.10826969 0.3085279
0.20254092 -0.20768651 -0.2290396 -0.11436574 -0.012234556 -0.035808206 -0.091441825 0.012449665
0.097784795 0.12943593 0.021433795 0.11711027 0.047298726 -0.004691397 -0.009234127 -0.0010280524
-0.100456454 -0.03552016 -0.18633062 -0.08980605 -0.23710892 -0.026188 -0.27042973 0.020376801
0.18281429 -0.2050122 0.0022217685 -0.096905366 0.27122882 0.19207342 -0.25693816 0.030044664
0.10003016 -0.36204755 0.14226222 -0.09744772 0.0016622058 0.10547357 -0.21394765 -0.40238813
0.07844036 0.013426662 -0.091623515 -0.20493466 -0.28597072 0.309161 -0.21080135 0.03468029
-0.13733098 -0.016616566 0.026074747 0.1477762 -0.19619875 -0.07828428 0.45921823 -0.18221527
-0.12905288 0.014791193 0.087951384 0.06986334 0.1785169 -0.13634123 -0.19537558 0.063826226
-0.20564002 0.031169834 -0.08585404 -0.025545517 -0.02548313 -0.285256 -0.24304247 0.30872062
-0.000831058 0.14568573 0.029753963 0.022733215 0.10625296 0.2843736 -0.32540548 0.23052903
-0.4971052 0.13377422 0.19853571 0.257277 0.60767853 -0.35537976 -0.55909365 -0.21993406
0.036359504 0.056336798 0.027575323 -0.07574 -0.16600375 -0.16003382 0.20075172 0.027684197
-0.020277124 -0.038472187 -0.085295804 0.06286089 0.57264936 0.057770442 0.565213 0.018929714
0.23330395 0.07064021 0.01595352 -0.02361245 -0.21458182 0.035677753 -0.37175322 -0.08071642
0.40341026 0.02585327 -0.05937884 0.0074003153 0.3281306 0.17343675 -0.056869615 0.03315249
0.16320384 -0.019606823 0.26171055 0.04933066 0.07457039 0.18253036 -0.0064228037 0.09103934
0.12645558 0.18044019 -0.048406433 -0.104365826 0.25013724 -0.10117732 -0.046069738 0.32763553
-0.008580448 -0.014120478 -0.026534885 0.36176476 0.12625943 -0.089247085 0.19863477 -0.048470426
0.2670791 -0.09904186 0.18824764 0.2118372 -0.1272611 0.08643668 -0.007818744 0.11127009
0.04726547 0.028884614 -0.07556915 -0.13444948 0.017748963 0.53931063 -0.10709307 -0.06546406
-0.10171566 0.39499462 0.32883462 -0.071833 -0.11338025 -0.010485445 -0.30657205 0.042490784
-0.06888871 0.2299242 -0.06155677 -0.110517055 0.22035444 -0.037794843 -0.056035854 0.35389152
0.012254141 0.16072644 -0.39202008 0.116985485 -0.12572275 0.08940623 -0.21561453 -0.19062056
0.082277514 -0.027468763 0.1739503 -0.032886717 0.1865425 -0.07511935 0.12010953 0.024540752
0.16948526 0.055018507 0.11196014 0.022492353 0.12566264 0.23895189 0.03217479 -0.08600096
-0.066342816 0.20141238 0.11429703 0.005223738 0.080580205 -0.048546806 -0.39603177 0.37454927
-0.113899134 -0.10657193 0.52609915 0.28850275 -0.080469534 -0.084257916 -0.56511873 -0.03775578
-0.0511645 -0.009880384 0.19829573 0.0706807 0.15369506 0.062258597 0.16014858 -0.10279428

fc3.bias f4 [4]
00000000: 36c0 0b3d 2729 96bc ddba 09bd 1fde 5fbc
0.034118854 -0.01833017 -0.033625472 -0.013663798
