learner_actor.pth (torch_old, 86517 bytes, 6 tensors)

fc1.weight f4 [128, 33]
00000000: b3be 733c 9834 523e 09d1 6a3d 0fd2 92bd
00000010: f6e9 543e 2696 f3bd 3b90 26be a90f 3dbd
00000020: 256a b1bd c0ab 4e3d 659a 1cbd 5584 11bd
00000030: b6e9 e4bc 1da4 8e3d 4669 393e 3868 daba
00000040: ea56 2ebe b7e6 05be 4ee2 25bd 1654 80bd
00000050: f75c bb3d 0282 8cbd 6358 9a3d c85e 15be
00000060: 1c2b d93d b120 bbbd eba0 6cbe 0bec bdbc
00000070: 453f e93d 6c48 04bd 43f1 253e 8776 c3bd
00000080: aab2 e1bd d5d1 04bd 4a58 52bc 7af5 03bd
00000090: c9d4 203e 1536 4ebd 55f9 04bd e703 4d3e
000000a0: fb22 0a3e f783 2ebe e7ca 5bbe e654 17be
000000b0: 031d 9e3d 8e86 56be e43c 4ebe 1ea4 053d
000000c0: 7a33 e03d 22b1 fbbb f634 14bc 5ca8 39be
000000d0: d5b5 4d3e bd69 393e c19c 753e 4a98 273d
000000e0: 552c 823d b287 76bd 4c49 253d e96a 5fbc
000000f0: ebe7 c0bd a17b adbd b000 0c3e 8144 de3d
00000100: a23f d8bd 6343 0c3e ceb8 09be d522 b4bd
00000110: 12ee 6bbc 1f6a fbbd df7c ed3d f300 813e
00000120: 0d7a f13d 8051 9d3d 9870 e3bd da6f 39be
00000130: ec81 0f3e c044 803d a408 89bd 6f84 08be
00000140: 478c 433e 18f7 8abe 9666 013e e7e6 c53c
00000150: b414 8f3d bcfc 193e f750 323d 2e20 4abd
00000160: 5aa6 623d 859d bcbd 8c73 c83d b79d 79bd
00000170: f4bd 663e 2e45 2ebe f8fe aa3d f022 e63c
00000180: cc2d 473e 616e 81bd 4690 923e d3cb 80bd
00000190: 03ad 12be 5ab0 103e 5119 873c 972f 35bc
000001a0: 55ec 5bbe 5fc4 063e 8fb6 d53b 6b14 263e
000001b0: 077c 9b3d f21e 6c3d 28e1 09be a845 8bbb
000001c0: bc8b 96bd eff7 a8bd dc89 953d d410 8c3d
000001d0: 009f 333e 6059 49be f7e4 b1bb 98a6 37be
000001e0: d3aa cfbd fc96 c7bd 1b47 f03d 8cb3 a2bd
000001f0: c2ff d13d e5f2 4d3e d0f4 f4bc 950c 103e
00000200: 9245 033e 133c a83d 5ce7 8bbd a362 233d
00000210: 86b7 f83c 561e ba3d ed78 d1bd 14c8 d53d
00000220: 4aa6 473d 0209 7b3b cbd1 2fbe 3efe 4b3c
00000230: c85f 84bd f7d0 48bc 7730 1bbe be75 713d
00000240: 6412 17bc c94f 73bb dfce 9ebd 3160 d03d
00000250: 9e46 b13d 6707 65bc 2125 053c 49f0 1e3d
00000260: 2310 243e 7ec6 433a c2ae 833d 138e 14be
00000270: adb1 fcbd e7aa 9a3d ca87 c2bd 75f1 87bd
00000280: 696b 073e 18ce a9bc 5af1 193d 88ad ebbd
00000290: e431 13bd 010e 4cbd 84e0 c43d 3be0 6dbd
000002a0: ab40 403e 1f60 fcbc 47c2 653e be41 b3bd
000002b0: 6be3 51be bfd2 eb3d a0f3 a2bd 9360 1a3d
000002c0: e784 40bd 10e6 53bd 5bbd db3d 3230 3abe
000002d0: ac3e 253e a75d e0bd 420a 06be 571b 813e
000002e0: ecc2 6f3d 487d 0bbc 55e8 183e 122b 58be
000002f0: db50 23bd 29a4 063e 337c 1a3e 93ad dd3d
00000300: 131e d0bd e425 b53d 439f 21be 5d00 a73d
00000310: 30f9 46bd aed4 383e ccb7 323e 33e6 2d3e
00000320: 022b 163e 9294 e1bd b419 2b3e e643 773c
00000330: f326 0cbe 0fd3 503d bcae c7ba 29a3 b5bd
00000340: 9549 4cbe c048 4c3e 956f 963d 9d16 fc3d
00000350: 3d5a 693e 46d8 d83d 2ae8 cb3d af7d 503e
00000360: 9977 95bd 4a2e 56be 86e1 dbbd db4e 233c
00000370: e803 053e 1aaf 8cbd 1c9b 6a3d 272e f7bd
00000380: 214f e6bd 3ff8 a4bd 7606 cbbd 4c7f d43d
00000390: 6f2c aabd 830b 01be 8148 b03d 013c 6c3d
000003a0: 5eb4 c53c ea52 08be 5478 16be 1ba6 a2bd
000003b0: f973 273e 37b0 e9bc 0f8e 4b3e 2898 c03d
000003c0: 5083 75bd 52ab 893c 6854 fc3b 4d6d 02be
000003d0: d414 92bd dbdd 933d bd9a 0cbe 3915 babd
000003e0: 02dd b83d 549b 3abd 86b9 03be ec34 5ebe
000003f0: c43d 183e 5178 0cbe f489 6b3c 10d6 0dbe
0.014877009 0.20527875 0.057328258 -0.07168972 0.20792374 -0.11893873 -0.16265957 -0.046157513
-0.086628236 0.050456762 -0.03823318 -0.035526592 -0.027943473 0.06964896 0.18106565 -0.001666314
-0.17025343 -0.13076292 -0.040499024 -0.06266038 0.09148591 -0.068607345 0.0753639 -0.14586937
0.106039256 -0.09137095 -0.2310826 -0.023183843 0.11389021 -0.03229563 0.16205315 -0.09544092
-0.110204056 -0.032426674 -0.012838433 -0.032216527 0.15706171 -0.050344545 -0.032464344 0.2002102
0.13489906 -0.17042528 -0.2146412 -0.1477848 0.07720377 -0.20949766 -0.20140415 0.032627217
0.109473184 -0.007681028 -0.00904583 -0.1813063 0.20088895 0.18106742 0.23985578 0.04091672
0.06356112 -0.060188003 0.040353104 -0.013636329 -0.09419235 -0.08470846 0.13672137 0.1085291
-0.10559012 0.13697581 -0.13449404 -0.08795706 -0.014400022 -0.122761 0.11596083 0.25196037
0.117908575 0.076815605 -0.1110546 -0.18109074 0.14014405 0.06263113 -0.06691101 -0.1333177
0.1909648 -0.27141643 0.1263679 0.024157954 0.06986371 0.15037817 0.043534245 -0.049347095
0.055334426 -0.09209732 0.09787664 -0.060941424 0.22533399 -0.17018577 0.08349413 0.028092831
0.19451064 -0.06319881 0.28625697 -0.062888764 -0.14323811 0.14129773 0.016491564 -0.01105871
-0.21476872 0.13160847 0.006522007 0.16218726 0.07592016 0.0576467 -0.13464797 -0.004250247
-0.07350871 -0.082504146 0.07301685 0.06839147 0.17541122 -0.19663 -0.005428906 -0.17934644
-0.10140004 -0.09745595 0.11732312 -0.07944402 0.1025386 0.20112188 -0.029901892 0.140673
0.12819508 0.08214583 -0.06831238 0.03988899 0.030360948 0.09087817 -0.10228143 0.104385525
0.04874257 0.003830493 -0.17169873 0.012450753 -0.06463581 -0.012256852 -0.15155207 0.05895018
-0.009220693 -0.0037126413 -0.07754301 0.10174597 0.08656047 -0.013978816 0.008126528 0.038803373
0.1602178 0.00074682373 0.06429817 -0.14507322 -0.123385765 0.07552128 -0.09498556 -0.06637851
0.13224567 -0.020728156 0.037583686 -0.11507708 -0.03593625 -0.049818043 0.096131355 -0.05807517
0.18774669 -0.030807553 0.22437392 -0.08752774 -0.2049691 0.11514806 -0.07956624 0.037689757
-0.047001746 -0.051733077 0.10729476 -0.18182448 0.16137189 -0.10955363 -0.1308985 0.2521617
0.0585355 -0.008513756 0.14932378 -0.2111018 -0.03987203 0.1314856 0.1508644 0.10824122
-0.10161986 0.08845118 -0.1578341 0.08154366 -0.048577487 0.18049881 0.17452925 0.16982345
0.14664844 -0.11014666 0.16709024 0.015091872 -0.13686733 0.05098253 -0.001523457 -0.08869011
-0.19949944 0.19949627 0.07345501 0.12309001 0.2278833 0.10588126 0.09956391 0.20360444
-0.07298202 -0.20916095 -0.107363746 0.009967531 0.12989771 -0.068693355 0.05727683 -0.1206935
-0.112455614 -0.08055162 -0.09913342 0.103758425 -0.08309256 -0.12602048 0.08607579 0.05767441
0.024133857 -0.13312879 -0.14694339 -0.07941838 0.16352834 -0.028526409 0.1987841 0.094040215
-0.059939682 0.016805325 0.0077004917 -0.12737007 -0.07132879 0.0722005 -0.13730903 -0.09086079
0.09026529 -0.04555829 -0.1286374 -0.21699876 0.14867312 -0.13717772 0.014376152 -0.1385119

fc1.bias f4 [128]
00000000: f7f5 173d 49cb ffba c645 343e acae cf3d
00000010: baf6 73bd 6fbc 05be a5ea 54be f2e8 d13d
00000020: 104f 87bc caed aebc 1ab0 8cbd 5c08 1e3d
00000030: 5c03 563e 2fd7 c1bd 47f1 f93d 5afc e7bd
00000040: f262 ad3d f1bb 22bd 323b 42be fe79 ad3a
00000050: 7eac 1abe b237 cd3d 18fa e4bd b01a 513d
00000060: 2df5 a4bd 2c7d d03d 2504 24bd 62c0 15be
00000070: 4176 683b 7e6c e6bc d81d 9b3d 6940 653d
00000080: 530e f53d 2393 79bd 4951 043e cfc6 8abb
00000090: 1acc 00be a7ae 0a3e 4478 853c 2da8 8d3d
000000a0: ca34 2d3d c48a e13d e739 203e 7a56 0d3e
000000b0: 520f 67bd 5ba3 8e3d 0dc1 b9bd 6bdc 7cbd
000000c0: 813b d2bd 1efa 90bc ba8f a0bc 03c2 a3bd
000000d0: e7e3 9d3d 4d0c e13c bda0 d23d c8b7 8fbd
000000e0: 7016 babd 7e14 313e 2ad8 a2bd 1da2 b53d
000000f0: 9973 4d3d 1d2a 51bd 765f 0bbe 8ec1 b1bd
00000100: 2e19 a2bd 010f d3bd ae23 2e3e ba93 d53a
00000110: bb22 903d 6103 1abe cc86 29be 1f73 3e3e
00000120: 7fcc 91bd 9080 093e 3dc7 c8bc 294d 9abc
00000130: 21ff 173c a291 c6bd 041e 863e 8079 613e
00000140: 37cb a6bd 05a4 133d 15ac 843c e4f3 d73d
00000150: 0486 d0bd eb79 eabd 33b2 9fbd f419 ba3c
00000160: 9174 9ebd edfe 8fbd 0ace c5bc c903 0d3d
00000170: c591 e73d eb1b 3ebe bf4c 203e e8b0 e13c
00000180: 60bb 653e ae68 cabd 41d3 f13d f7fc 713d
00000190: 821a 683d 45a3 53ba 4b52 9e3b f010 b43d
000001a0: e74d 62bd 08f3 8fbd 3dba 313d 3fb8 1c3e
000001b0: 6d0c 9cbc 7bb3 cc3d 0715 173e 402e 2b3e
000001c0: a141 00bd 7a03 d73d 13e7 12bc 7d75 0bbe
000001d0: 132d 2cbe 8021 b53d 1460 b43d 0e0a 263e
000001e0: ade3 66bd 0298 4bbe c939 01be 6f55 47be
000001f0: 0817 67bd cab8 083d 8912 123d 31bd bd3d
0.037099805 -0.001951554 0.17604741 0.10140738 -0.05956147 -0.13060163 -0.20792635 0.10249509
-0.016517192 -0.021353621 -0.06869526 0.03858219 0.20899719 -0.09464871 0.12204223 -0.11327429
0.08466138 -0.039730016 -0.18967894 0.0013235209 -0.15104863 0.10020389 -0.11180514 0.05105084
-0.08054576 0.10180125 -0.040043015 -0.1462417 0.0035470875 -0.028127905 0.075740516 0.05596963
0.11965623 -0.060931336 0.12921633 -0.0042351256 -0.12577859 0.13543187 0.016292699 0.069168426
0.04228667 0.110127956 0.15647088 0.1380252 -0.056411095 0.06964751 -0.09070025 -0.061733644
-0.10265256 -0.01769739 -0.019599784 -0.07995989 0.077094845 0.027471686 0.10284565 -0.07017475
-0.09086311 0.17292973 -0.07951386 0.08868811 0.05015907 -0.051065553 -0.13610634 -0.08679496
-0.07914959 -0.10305596 0.17005798 0.0016294636 0.07037874 -0.15040351 -0.16555327 0.18598603
-0.07119083 0.13427949 -0.024509067 -0.018835621 0.009277136 -0.09695746 0.26194775 0.22019005
-0.08144229 0.036045093 0.016195336 0.10544565 -0.101818115 -0.11449035 -0.07797661 0.022717454
-0.07737077 -0.07031045 -0.024146099 0.034427438 0.113071 -0.18565337 0.15654276 0.027550176
0.22434759 -0.09883247 0.118078716 0.059079137 0.056665905 -0.000807334 0.0048315874 0.08792293
-0.055250075 -0.070287764 0.0433905 0.1530466 -0.019048894 0.09995171 0.14754115 0.16716862
-0.03131259 0.1049871 -0.008966225 -0.13619037 -0.1681407 0.0884428 0.08807388 0.16214773
-0.056369472 -0.19882205 -0.126197 -0.19466184 -0.05641845 0.033379354 0.035662208 0.09264601

fc2.weight f4 [128, 128]
00000000: f8a2 693d 989f f43d 5bf3 08bc cfc5 443d
00000010: ac63 e8bc e86d bb3d 5443 513d 2b49 28bd
00000020: b67c c33d 03ac 1f3d b955 d23d 7b7a d1bc
00000030: 2f8d 983c e88e fcbc 7e9d a13d 8adb 39bd
00000040: 13a5 893d ee58 eabc c89c 003d 30bb eb3d
00000050: 4a19 9ebd 3688 49bc a37e 593c 1313 b1bd
00000060: 1ea6 9b3d af34 c63d c40c d53d cf5e a23d
00000070: 6904 353d f7d8 9bbd eb93 913d 5951 d3bd
00000080: c63c 09bd 9e8f 1fbd b77b ab3c 4fff e83d
00000090: edd5 663b e1f0 8a3d 7878 79bd 556f 02bd
000000a0: e381 3e3d 8dea 44bd 3dd2 77bc 7a71 8a3d
000000b0: 78a6 013e c33a 6a3d 8518 9b3d fac0 1ebd
000000c0: 3679 25bd e47d dd3d 6f80 693d cf1b 40bd
000000d0: 4bdf 83bb 65ca 643d 84cb 023d 84c2 fd3d
000000e0: 9d3b fdbd 14d4 d23c e2aa 943d 9e09 92bd
000000f0: 944d 5c3a de84 9bbc 16d4 81bd fdc0 a03c
00000100: f531 013d 5ee6 7cbd fe62 ea3b a65a 503c
00000110: bbba 72bd f150 af3d 01bc babc 27f8 1a3e
00000120: 7336 2abd 2720 1f3d cf1d d53d 4e0f a23d
00000130: 91f3 a2bd 4ee2 bb3c 35ee 0ebc 0e66 8dba
00000140: d40b aabd 62a6 1ebc f2bf 9e3d 0a90 8f3d
00000150: 02df 873d 7275 0dbd cd92 c03c bc30 a53c
00000160: 839a bcbc b0df 72bd 39f2 3bbd 37b2 973b
00000170: 9323 9c3d 7d27 683d e424 043b 4d8c 903d
00000180: aa44 d23d bb63 8b3c 715c 16bc 04cf 533d
00000190: f18e b43d b352 033e fec4 98bd 065a be3d
000001a0: ee60 4fbd 1b42 1fbd 9d49 d93c 1699 1ebc
000001b0: 83d8 cdba 1965 6cbd 5dca b43a 9d1b ea3b
000001c0: 6d50 70bc 3d6f c7bb 50a9 15bc 34b0 8f3d
000001d0: 9663 8c3d 2d77 87bc 578f 243b c8b7 093d
000001e0: a3a0 db3c 0fef b43c 4891 0f3d 8616 bb3d
000001f0: 0f42 2fbd 2379 1c3b 43da 9ebd 5077 9f3d
00000200: 3915 83bd b0b3 88bd 403b fcbb 5ac5 46bd
00000210: eccd c43d a548 75b9 671f a4bc 10e0 683d
00000220: 0eb1 a6bb ec88 d6bd e9cd 93bc 8093 b339
00000230: 3892 10bc 5d78 433c 59d4 f7bd 2d64 7e3d
00000240: 6225 09bd 43c8 c23d 45d0 bc3b b590 8f3d
00000250: 24b8 c4bb a005 53bd 7660 6dbd efa9 d33d
00000260: 6429 0dbd a2cc 4f3d 66f1 a43d b727 c63d
00000270: 21a3 e23d 70dc 413d 6fae 913c 2d16 ebbb
00000280: 709c 6cbd 8cb2 bebc 08e5 803c af0b b73b
00000290: 90b8 a83d 4205 c3bc dd55 b93d 0555 fb3d
000002a0: ef50 823d 06c2 b43d 3647 9fbd 403f 3abd
000002b0: e1f6 faba f3a2 093d 45bf 83bc 1a86 a2bd
000002c0: 981f 2f3d b8d5 5f3d 80d7 bdbd 9b19 ee3c
000002d0: 7c15 a1bd 80c6 0b3c d418 ebbc f500 bdbd
000002e0: 3559 0f3e 4da9 d73b 2ba1 c03c ed20 f33d
000002f0: 0ba4 8ebb 12ad be3d d171 de3d de51 273d
00000300: 6a50 26bd cac2 b93c b12b fc3c f0e5 763d
00000310: 2a55 9f3d 7438 72bd 3917 0c3d 04f5 bbbd
00000320: ed11 34bd a1a4 c93c 67fe 68bd eaab 0c3c
00000330: 47b7 1ebc d67c 66bd 2929 a13d 6974 7bbd
00000340: a4a9 873d 1f10 40bd 9d7f 36bd e6ef 92bc
00000350: 2a60 d3bd d234 e0bd 123d 913d df61 e93c
00000360: cd02 ce3d 86c8 5f3d ffc4 b4bd 6c79 2d3d
00000370: 9658 f0bb 5149 20bd 786e 96bb b995 df3c
00000380: ffa1 fcbc 8205 85bd d0e2 7eba ad2c 5b3d
00000390: 7cce b6bc 20ce c73c 63d1 6abd ad5b 38be
000003a0: de74 b9bd 385d 903d 3287 53bd 1340 4cbd
000003b0: d478 b83d 8dad 34bc 4151 eb3d d404 073e
000003c0: 4654 163e 036b c13d 0aff 113d a5a9 2cbd
000003d0: 9b55 92bd dda5 67bd 21ef ccbd 0b6b dcbc
000003e0: 1b03 24bd 77b2 e53c 13eb f53c 7d4e a0bd
000003f0: 1b59 cc3d b455 aebd a6e0 a53c d835 0f3d
0.057040185 0.119445026 -0.008358802 0.048040207 -0.02836784 0.09151822 0.0510896 -0.041085403
0.09545271 0.038982403 0.102702565 -0.025571099 0.01862201 -0.030829862 0.078913674 -0.045375384
0.067209385 -0.028606858 0.03139952 0.115103126 -0.07719667 -0.012300542 0.013274821 -0.08646216
0.07600044 0.09678017 0.104028255 0.079282396 0.04419366 -0.07609742 0.07108291 -0.1031825
-0.033505224 -0.038955323 0.020933015 0.11376821 0.0035222725 0.06784225 -0.060905904 -0.031844456
0.04651059 -0.048075248 -0.015125808 0.06759925 0.12661159 0.057184946 0.07573036 -0.038758256
-0.0403988 0.10815027 0.05700725 -0.04690152 -0.0040244213 0.05585708 0.03193237 0.123906165
-0.12364886 0.025735892 0.07259156 -0.071307406 0.0008403894 -0.018984254 -0.0633928 0.019623274
0.031541783 -0.061743133 0.007152914 0.012716925 -0.05926011 0.0856036 -0.022794725 0.15133725
-0.041555833 0.038849022 0.10406076 0.079130754 -0.07956613 0.022935059 -0.008723785 -0.0010787861
-0.08303037 -0.009683223 0.077514544 0.07009895 0.06634332 -0.034535833 0.0235075 0.02016484
-0.023022896 -0.059295356 -0.0458853 0.004629399 0.07623973 0.056678284 0.002016359 0.0705801
0.10267003 0.017015329 -0.009177313 0.051711097 0.088163264 0.12824516 -0.07459448 0.09294514
-0.05062955 -0.038881402 0.02652436 -0.009680053 -0.0015704784 -0.0577136 0.0013793219 0.007144405
-0.0146676125 -0.0060862587 -0.0091346055 0.0701603 0.06854932 -0.01653632 0.0025109851 0.033622533
0.026809996 0.022086648 0.03505066 0.091351554 -0.042787608 0.0023875914 -0.07756474 0.07786429
-0.06400532 -0.06674898 -0.007697493 -0.048528053 0.09609589 -0.00023392083 -0.020034505 0.056854308
-0.0050870245 -0.104753345 -0.018042522 0.00034251437 -0.008823924 0.011930552 -0.12101049 0.062107254
-0.033482917 0.09510853 0.0057621324 0.070100226 -0.0060033966 -0.051519036 -0.05795332 0.10335147
-0.0344633 0.050732262 0.080538556 0.09675544 0.110662706 0.047329366 0.017783372 -0.0071742744
-0.057766378 -0.023278497 0.01573421 0.0055861096 0.082383275 -0.023806218 0.0904958 0.122720756
0.06363093 0.088260695 -0.07777254 -0.045470476 -0.0019147062 0.033602666 -0.016082415 -0.07935734
0.04275474 0.054647177 -0.09269619 0.029064944 -0.07865426 0.008531213 -0.028698362 -0.09228698
0.13998874 0.0065814615 0.02351435 0.118715145 -0.0043530515 0.09310354 0.108615525 0.04084956
-0.040604033 0.02267589 0.030782552 0.06027788 0.07779916 -0.05913587 0.034201834 -0.091775924
-0.043962408 0.024614634 -0.056883242 0.008585909 -0.009687251 -0.056271397 0.07869179 -0.061390314
0.06624153 -0.046890374 -0.044555295 -0.017936658 -0.10321076 -0.10947575 0.07091726 0.028489051
0.10059128 0.054634593 -0.088266365 0.042352125 -0.007334779 -0.03913242 -0.0045908056 0.027293073
-0.030838965 -0.06495191 -0.0009723129 0.053509403 -0.022315256 0.02439028 -0.057328593 -0.18003722
-0.09055494 0.0704903 -0.051642604 -0.049865793 0.09007421 -0.011027706 0.11490107 0.13185436
0.14680585 0.09444239 0.035643615 -0.042153973 -0.07145234 -0.056554664 -0.10006548 -0.02690651
-0.040042024 0.0280392 0.030019319 -0.078274705 0.09977933 -0.0851244 0.020248722 0.03496346

fc2.bias f4 [128]
00000000: b2ca a03d f083 693d c092 94bd 4de4 333c
00000010: 4ef9 db3b 8d30 01bd 7f7b ebbc c410 943d
00000020: 5bb2 f43c c256 293c 6b49 5bbc a0ee fb3b
00000030: 919f 153d 7ca9 6f3c 26a2 e83d 4266 fa3c
00000040: 1768 053d 6bdd 133d d6ed 6fbd 92b9 f7bc
00000050: 063d 88bd a270 bebd ca20 7fbc f603 cb3d
00000060: 4288 a3bd 2673 e63d d2b8 3c3c 8780 173d
00000070: e245 b33d e08b 213d 7561 bc3d d206 243d
00000080: 1d61 c13c 768d bd3c 0ca9 873d fc90 a73d
00000090: a05b a43c a86b 423d ab09 443d 19e7 a2bb
000000a0: 309f 363d d6c1 45bd a5ff debd 9deb 87bd
000000b0: ebcd 67bd e329 ac3d f57e ebbc d620 133e
000000c0: 53ac d93d 8611 d5bc ed99 38bd 51c6 e33c
000000d0: 81a0 f93d 9e1d 863d 03c1 8e3d 82df eb3d
000000e0: bb50 b1bd 4ec7 b13d 6196 083e 52e9 a73d
000000f0: 5fa3 0d3e 30c5 2c3d 40c0 a53c a588 99bd
00000100: c98e 3f3d b5c1 c63c 400e f83c 8dce e03d
00000110: c566 7ebd 4635 8fbd 1314 543d 095e b33c
00000120: f632 c33c 6845 aabd 7c6e 933b cabb 883d
00000130: 196b 48bc 53bd ab3d f86f 933d 2e9d f4bc
00000140: bb2a 413c c7c8 8cbd e1b4 73bd 62df 5e3d
00000150: be5c 9e3d 29b2 1b3d 6228 f03d f72b b9bb
00000160: be7e e03d 1c78 e13b a09a f3bc 2667 2a3d
00000170: a339 213d e9af 2b3c 68d0 f2bc 307d 58bd
00000180: b577 69bc cff7 5d3d a368 223d f81c 933c
00000190: 5d4d 283c b7c7 593d 1850 133d 2f3e 18bd
000001a0: 578c 55bc ddf3 8abd d426 b5bd 33fe 00bc
000001b0: 7e1c f63c 7c4e 003e b744 163d f134 c6bd
000001c0: 1157 0bbd 3fa5 a5bb 2e07 f3bb 449f 40bd
000001d0: 2c3e e03c bcad eebb 0e04 6d3c 8522 cd3c
000001e0: dee6 0c3d ff80 433d c5ff 853d caa1 21bb
000001f0: 304a b63d 25fb 44bd 0daa d43d dd9e 8abd
0.07851161 0.05701059 -0.07254553 0.010979724 0.006713069 -0.031540442 -0.028745411 0.0722976
0.029870203 0.010335626 -0.013384203 0.0076883584 0.036529128 0.014627811 0.11359052 0.030566338
0.03256997 0.036099833 -0.058576427 -0.030239854 -0.06652264 -0.09298827 -0.015571782 0.09912865
-0.079849735 0.112524316 0.011518674 0.036987808 0.087535635 0.039440036 0.09198276 0.040045567
0.023605878 0.023138743 0.0662404 0.081819504 0.020063221 0.04746595 0.047860783 -0.0049713966
0.044585407 -0.04828056 -0.10888604 -0.066367365 -0.056592863 0.08406427 -0.028747061 0.14367995
0.10628571 -0.026009332 -0.04506867 0.027804526 0.12188817 0.06548618 0.06970408 0.1151724
-0.08657976 0.086805925 0.13338615 0.08198799 0.13831852 0.04218024 0.020233274 -0.07496766
0.04676703 0.024262289 0.030280232 0.109768964 -0.062109727 -0.06992583 0.051776957 0.021895425
0.023828011 -0.083140194 0.0044992547 0.06676443 -0.012232565 0.0838572 0.07199091 -0.029860105
0.011789973 -0.06874233 -0.05949867 0.054412253 0.07732533 0.038011704 0.117264524 -0.005650993
0.10961674 0.006880773 -0.029736817 0.041602276 0.039361607 0.010478952 -0.029640391 -0.052853763
-0.014249732 0.054191407 0.03965057 0.01795815 0.010272351 0.05316898 0.035965055 -0.037168678
-0.013033948 -0.067847945 -0.088452965 -0.007873106 0.030042883 0.1252994 0.036686625 -0.096780665
-0.03401858 -0.0050550993 -0.0074166274 -0.047026888 0.027373396 -0.0072838943 0.014466299 0.025040874
0.03439986 0.047730442 0.06542925 -0.0024663084 0.08900869 -0.048091073 0.10383997 -0.06768582

fc3.weight f4 [4, 128]
00000000: caa4 d43d 4ded 23be 4bc2 1e3d 658e 1c3d
00000010: 357c acbd 8dae b43d a12c 453e 750a 32be
00000020: 1c67 bbbd 0b3b 81bd 8770 7ebd 4352 cdbc
00000030: 8527 863e 5053 2ebe 1b78 3cbd 9e67 3b39
00000040: e4f8 0e3e a47f a7bc f5c7 4e3c 7567 bb3d
00000050: 4bc9 f6bd a749 afbb bd11 82bd 1ca2 c7bc
00000060: a699 93bd 0e91 58be 1101 2bbb 66aa 1abe
00000070: 970e 8fbe ec61 c5bb 84af b43d 239c 8d3e
00000080: 2bc9 013e c190 d3bd 033a 0ebe 7136 85bd
00000090: 71c6 f93b 891d e9bc bc77 98bd 575b 283c
000000a0: d3e0 a83d d514 de3d 79d7 043c 6c0d 073b
000000b0: 9064 293d cf18 bcbc 2686 52bb e154 82bb
000000c0: 758a 1cbd 903e bebc 9e4b c6bc f98e 32bd
000000d0: 7fbe 6abe 538c b5bc ef6a 74be 87a6 f3bc
000000e0: 40fe f53d 122a 04be d4de e3ba b73d 5bbd
000000f0: b34b 7f3e 3f5d 9b3d 000d b3bd 4b05 c43c
00000100: 5a55 b83d 706b 05be cda6 d63d 0134 b0bd
00000110: 8866 3fbc ecb9 a33d 8653 58be 4fe1 5ebe
00000120: 60e1 913d c142 e23c 8701 bcbd 8c18 00be
00000130: acb8 00be b578 8a3e 0a2c fbbd 1248 a83d
00000140: 5e80 e8bd 18ed 16bd 3210 aa3d 240a d13d
00000150: 1b1f d6bd 118e 53bd 7348 353e e835 3ebe
00000160: a8da cebd 4c33 823c b93b 9f3d 63db 473d
00000170: aed6 8b3d ec53 b8bd 9102 e3bd a6cd 293d
00000180: 8dee 0bbe 9b7d ab3b 2c30 ddbd 8aba d3bb
00000190: 8ffd 98ba 09cc 21be 27bd 2abe 6a2b 0a3e
000001a0: b8d1 a5bb ff23 df3d 1b0c 833c 53c8 ad3c
000001b0: 6904 c33d 69f3 913e 47b1 2cbe a2a0 d93d
000001c0: c1c3 66be b655 9c3d bc15 fa3d cd2a 8a3c
000001d0: 66cd c33e 3eb2 99be 1f62 93be 5fc9 3fbe
000001e0: 8912 173d 0738 ec3c 752c 283d 8441 dcbd
000001f0: 81f5 ccbd c96f 27be 099c 493e ec3e 133d
00000200: a7a1 0dbc 483e 12bb d62e 69bd d886 563d
00000210: 85f1 b13e a7d9 0f3d 80e9 b63e ba92 a53c
00000220: f179 e03d 4e88 393d 27c3 923c 28b2 a9bc
00000230: 7bd4 28be bf63 013d abe0 0abe a068 8dbd
00000240: 6ca6 f13d 5fc3 483c e566 46bd a6db 4f3c
00000250: 5a3b 453e 5b32 813d 0f8d 4bbd aa2a 083d
00000260: c96d bc3d 8174 c9bc 377e 103e 656f 743d
00000270: fbff a23d 698e 1e3d d802 1bbb 9dfe c13d
00000280: 9f17 e03d 7e0c f33c a215 ea3a 7a97 8abd
00000290: 5497 ba3d 05bf b2bd 84af 11bd a4ca 8f3d
000002a0: 89dd 243b b8a0 ddbb 072e 9fbc c3cf e93d
000002b0: d355 ba3d d3d8 9fbd 43fe cb3d 3ea0 4ebd
000002c0: 2359 093e b4f2 abbd 0ae5 233e 13f8 f53d
000002d0: aa95 80bd 1989 7c3d e54a 93bb 57b1 323d
000002e0: 9c81 adbd 20eb d4ba 6446 5dbd 90a3 57bd
000002f0: fdd5 0b3d 8303 423e 2de3 77bd 3029 29bd
00000300: 1fd0 b2bd 9767 253e f7dd 3b3e b2ed 43bd
00000310: 009e 6cbd 8540 66bb aa91 6abe 4e3b b73d
00000320: abd2 75bd 07c8 253e 8c9c 54bd 8556 03bd
00000330: 53bf ef3d 7e75 dabc 316f 4dbd 10a8 8f3e
00000340: 61f3 7cbb e0f4 083e 974d 2fbe 7d3b b73d
00000350: 4458 1dbd b1ad 853d 1e83 13be ea9b 33be
00000360: c79e a33d de06 e1bc 76c9 c13d 67e0 81bc
00000370: 490c 033e 41a8 1dbd e7fb 053e cc0e ba3c
00000380: 167c 0e3d cf5d a43d 045f 9d3d 7d77 843c
00000390: 3c28 db3d 398d 253e 200a 483d 9865 27bd
000003a0: 74d8 30bd c911 323e 6c78 973d 0dfb d33b
000003b0: 60f9 be3d 18ee 16bd 11ba f5bd 41d5 843e
000003c0: 8c23 a3bd 7e3e 7bbd de4d 893e debb c53d
000003d0: 70f2 86bd f70a 82bd ed82 e7bd 0405 1ebd
000003e0: 38f5 2cbd 160b e4bb 44be 553e 2718 19bd
000003f0: 6d93 893d 5177 25bc 89ab 243e ecfc 5dbd
0.103829935 -0.16008492 0.03875951 0.038221736 -0.08422128 0.088223554 0.19255306 -0.17386802
-0.09150526 -0.0631009 -0.062119033 -0.02506364 0.26202026 -0.17023969 -0.04601298 0.0001787231
0.13962132 -0.020446606 0.012620916 0.09150592 -0.12050112 -0.005349356 -0.063510396 -0.024369292
-0.072070405 -0.21149084 -0.0026093165 -0.15104064 -0.2794082 -0.006023636 0.088225394 0.27658185
0.12674396 -0.10330344 -0.13889317 -0.065045245 0.007622533 -0.028456466 -0.074447125 0.010275683
0.08246007 0.10843817 0.008108013 0.0020607365 0.04135567 -0.022961048 -0.0032123416 -0.0039774035
-0.03821798 -0.023223191 -0.024205979 -0.04359338 -0.22924231 -0.022161638 -0.23868917 -0.029742492
0.12011385 -0.12906674 -0.0017385134 -0.053525653 0.2493122 0.07586145 -0.08742714 0.023928305
0.090006545 -0.13029265 0.104810335 -0.08603669 -0.01168216 0.07994446 -0.21125612 -0.21765636
0.07123065 0.027619721 -0.09179979 -0.12509364 -0.12570447 0.27045217 -0.12264259 0.08216871
-0.11352609 -0.036847204 0.0830387 0.10207012 -0.10455152 -0.051649157 0.17703418 -0.18575251
-0.10100299 0.0158936 0.07775063 0.048793208 0.06828056 -0.09000382 -0.11084474 0.041455887
-0.13665219 0.005233479 -0.10800204 -0.006461446 -0.0011672246 -0.1580049 -0.16673718 0.13493124
-0.005060401 0.108955376 0.015996983 0.021213686 0.095223255 0.2850602 -0.16864501 0.106263414
-0.22535612 0.076335356 0.12211177 0.016866112 0.38242644 -0.300188 -0.28785798 -0.1872916
0.03688291 0.02883531 0.041058023 -0.107546836 -0.10007764 -0.16351236 0.19688429 0.03594868
-0.008644498 -0.0022314955 -0.05692943 0.05237469 0.34754577 0.03511968 0.3572502 0.020211566
0.109607585 0.045296006 0.017915322 -0.020714834 -0.16487305 0.031589266 -0.13562267 -0.06904721
0.117993206 0.012253611 -0.04843797 0.012686646 0.19260922 0.06308433 -0.04969507 0.033243813
0.09200627 -0.024591686 0.14110647 0.059676547 0.07958981 0.03871003 -0.0023652818 0.09472392
0.10942005 0.029669043 0.001785923 -0.06767173 0.09110895 -0.0872784 -0.035567775 0.070210725
0.002515646 -0.006763544 -0.019431127 0.114165805 0.09098401 -0.07805028 0.09960606 -0.050445788
0.13412909 -0.08395901 0.1600534 0.12010207 -0.06278546 0.061654184 -0.004495012 0.043626156
-0.08471987 -0.0016244389 -0.054022208 -0.05264622 0.034139622 0.18946652 -0.060519386 -0.041299045
-0.08731102 0.16152798 0.18346392 -0.047834106 -0.057767868 -0.0035133671 -0.22907129 0.08946858
-0.06001536 0.16189586 -0.051907107 -0.032064933 0.11706414 -0.026667353 -0.05015487 0.2805791
-0.0038597214 0.13374662 -0.17119442 0.08946893 -0.038414255 0.0652727 -0.14405486 -0.17539945
0.07989269 -0.027469095 0.09462254 -0.015854074 0.12797655 -0.038490538 0.13084374 0.022712134
0.034786306 0.08025705 0.076841384 0.016170258 0.107010335 0.16167153 0.04883778 -0.04086837
-0.043175176 0.17389597 0.073960155 0.0064691366 0.09324908 -0.036848158 -0.1199838 0.2594395
-0.079657644 -0.061338894 0.2681722 0.096549734 -0.0658921 -0.06349748 -0.11304269 -0.038579002
-0.042226046 -0.0069593294 0.20873362 -0.03737655 0.06717572 -0.010099248 0.1608106 -0.054196283

fc3.bias f4 [4]
00000000: 99b3 2b3d 70c6 95bc 676f b3bb ecb2 db3a
0.041919325 -0.018283099 -0.0054759267 0.0016761697
