learner_actor.pth (torch_old, 86517 bytes, 6 tensors)

fc1.weight f4 [128, 33]
000000 21 e4 85 bc df 94 28 3e 83 95 83 3d 95 c8 a5 3c
       -0.016344132 0.1646304 0.064250015 0.020237247
000010 f7 88 df 3d 4e 74 98 bd 66 5e 02 be ac 7c 82 3d
       0.10914796 -0.07444058 -0.12731323 0.063714355
000020 e2 12 b2 bd 6d c6 24 3d 43 f0 25 bd c0 42 49 bd
       -0.08695008 0.040228296 -0.040512335 -0.049135923
000030 9c dc 88 bd 57 c8 7e 3d ed a8 3b 3e de b7 b7 3d
       -0.06682703 0.062202778 0.18326159 0.08970617
000040 32 97 ef bd d8 4f f6 bd 06 dc e2 bc 14 dd 06 bd
       -0.1169876 -0.12026948 -0.027692806 -0.03292568
000050 f9 24 b7 3d 82 b3 97 3b ac de 75 3c 3f d1 a0 bd
       0.08942599 0.0046295533 0.015006702 -0.078524105
000060 c3 40 db 3d 1c b7 31 3d 61 cf 59 be 36 de c4 bd
       0.10705712 0.043387517 -0.21270515 -0.09612696
000070 c2 da 48 3e 6c 48 04 bd 2a a3 70 3e 87 76 c3 bd
       0.196147 -0.03229563 0.23499742 -0.09544092
000080 e7 ac 26 bf 74 88 29 3c c3 cd b4 bc 24 12 ad bd
       -0.6510758 0.010347474 -0.022070771 -0.08450726
000090 14 05 e1 3d 37 8d fe bc 5e 41 d3 bd 23 01 b2 3d
       0.10987297 -0.031073196 -0.10315202 0.08691623
0000a0 f2 23 57 3e ba 0a a3 bd 99 6b 41 be 05 18 32 be
       0.21009806 -0.0796103 -0.18888701 -0.17391975
0000b0 70 f0 06 3b 97 0a 22 be 53 ec 5f be 54 f6 0b 3e
       0.002059009 -0.15824352 -0.21867494 0.13668185
0000c0 b6 be b7 3d 8c ad e7 bd 60 44 fc 3c 6f b0 17 be
       0.08971922 -0.11312398 0.030794322 -0.14813398
0000d0 7d 85 0a 3e 66 2c f5 3d 51 5b 30 3e ea 9a 4e 3d
       0.13527484 0.11971359 0.17222334 0.050440706
0000e0 36 55 29 3d 03 45 08 3e 01 69 36 bd 8d d7 88 3c
       0.04134103 0.13307576 -0.044533733 0.016704345
0000f0 72 7c 1a bd 05 22 72 bd b0 00 0c 3e 71 35 55 3d
       -0.037716337 -0.059114475 0.13672137 0.05205292
000100 a2 3f d8 bd 51 7c 15 b9 0c 82 07 be 2f c7 1a be
       -0.10559012 -0.00014256059 -0.13233203 -0.15115045
000110 6c b0 cf 3c ea 38 0a bd ff c9 29 3d 04 cd 18 3e
       0.02535268 -0.033745684 0.041452404 0.14921957
000120 f6 74 bd 3d 0d 69 4b 3e 0e cc b4 bc 60 ec 55 be
       0.09250824 0.19864292 -0.022069957 -0.20890951
000130 d9 2f e3 3d e0 5c dd bc eb 21 e1 3b b8 37 07 be
       0.110931106 -0.027021825 0.0068704984 -0.13204849
000140 f4 1f 94 3d 58 d2 46 be 47 1d a1 b9 0d d9 23 3d
       0.07232657 -0.19416177 -0.00030730126 0.040001918
000150 e2 25 1b bd 06 fa b8 bc b0 5c d2 bc d5 ed ba 3c
       -0.037877925 -0.022580158 -0.025678962 0.022818485
000160 e8 da 90 bb 1c 5d 18 bd 1c 2b ae bd 9c 1b 7b 3c
       -0.004420627 -0.03719817 -0.08504316 0.015326407
000170 3c ec 3e 3e 69 45 77 be 8d 95 d9 bd f0 22 e6 3c
       0.18644804 -0.24147572 -0.10624228 0.028092831
000180 11 17 88 3e 61 6e 81 bd 14 86 b2 3f 5f 11 e7 3c
       0.26580098 -0.06319881 1.3947167 0.028206525
000190 a3 e9 b5 bc 31 11 e9 3d 6a a1 0a bd bc ac d7 3d
       -0.022206133 0.11380232 -0.033845343 0.10530993
0001a0 c2 7e e2 bb 01 a7 59 3e 73 bb 8d bd 33 be b2 3d
       -0.0069120834 0.21255113 -0.06920519 0.08727684
0001b0 c2 1c 52 3d b1 13 eb 3c 15 41 b7 bd 7c dd 18 bd
       0.051296957 0.028695913 -0.0894796 -0.0373206
0001c0 54 a3 2f bd 90 e3 7a bd a3 30 0a 3e d4 96 26 3e
       -0.04288037 -0.061252177 0.13495116 0.16268474
0001d0 04 32 05 bc a4 25 31 be 7a b3 6c 3d a3 e4 67 be
       -0.0081296 -0.17299515 0.05778835 -0.22645812
0001e0 69 ba 52 bd 08 ce 0b be 78 9b e2 3c 7b 63 1e be
       -0.051447306 -0.13652813 0.027662024 -0.15467636
0001f0 69 20 59 3e fd 8e 81 3e 72 70 35 3c 10 26 06 3e
       0.2120377 0.25304404 0.011074172 0.13100457
000200 92 45 03 3e a4 a1 28 3d 5c e7 8b bd 2f 46 39 3f
       0.12819508 0.041169778 -0.06831238 0.72372717
000210 31 e0 95 3d fc 01 0f 3e 6a 7e 89 bd a8 f7 17 3c
       0.07318152 0.139656 -0.06713565 0.009275354
000220 3f cc 12 3e d4 57 07 be 3b 36 12 be 2b ee 8c bd
       0.14335726 -0.13217098 -0.142785 -0.068813644
000230 93 a5 75 3d d2 4a 48 bd 7c 80 46 be 16 04 b8 3d
       0.059972357 -0.04889948 -0.1938495 0.08985154
000240 fb ba 57 3c e2 5f a5 bd ec 36 0a be 75 90 31 3e
       0.013167138 -0.08074929 -0.13497514 0.17340262
000250 a1 26 e3 3d 6c d3 62 bc 91 58 6d 3d 27 9b cc 3d
       0.11091352 -0.013844352 0.05794579 0.099905305
000260 22 20 94 3d 2c 59 3f 3d 86 83 88 3c d1 63 db bd
       0.07232691 0.0467159 0.016664278 -0.10712398
000270 13 85 d1 bd 9c 49 9b 3d ed 4e 82 bd 23 de 2a bd
       -0.1023046 0.07582399 -0.0636271 -0.041715752
000280 d1 1d 58 3e 18 ce a9 bc d2 b3 53 3c 88 ad eb bd
       0.21105124 -0.020728156 0.0129212905 -0.11507708
000290 1f 04 82 3e e8 a2 15 be 77 1c de 3d 47 99 a9 bd
       0.2539377 -0.14612925 0.10845273 -0.082811885
0002a0 80 2b 62 3e 0a 14 d9 bd fc 29 20 3d ae d4 a9 bd
       0.22086906 -0.10599525 0.03910254 -0.082925186
0002b0 13 9d 8c be 87 56 60 3c 49 c2 96 bd 1a 43 bc bc
       -0.27463588 0.013692505 -0.07361276 -0.022981215
0002c0 78 2f 55 bc 16 73 36 bd 0d 7f 5b 3d 71 ac 54 be
       -0.013011806 -0.04454335 0.053587962 -0.20768906
0002d0 68 f0 26 3e 81 a0 c0 bd 9d 09 a2 bd 53 d3 a3 3d
       0.16302645 -0.09405614 -0.0791199 0.07999291
0002e0 e4 17 09 3e c6 91 52 bd 35 2e 9a 3d 79 65 2f be
       0.1338802 -0.05140855 0.075283445 -0.17128552
0002f0 28 90 f1 bd 3f 7b e2 3d 18 26 89 3d dc 1e c6 3d
       -0.11795074 0.110586636 0.06696719 0.09673855
000300 44 f1 0d be 23 00 ee 3d 43 9f 21 be b9 c4 f2 3d
       -0.13861567 0.1162112 -0.1578341 0.11853928
000310 30 f9 46 bd dd ac 35 3f 10 9a 44 3d b4 c6 2c 3c
       -0.048577487 0.70966893 0.047998488 0.010545421
000320 f5 9d 2d 3e 1f d5 4d bd bd 76 b1 bb 71 b9 f1 3c
       0.16954787 -0.050252076 -0.005415766 0.02950737
000330 a0 21 07 be a6 64 22 bd 27 ce 06 3d 3c 43 60 bd
       -0.1319642 -0.039646767 0.032911446 -0.05475162
000340 d1 8d 6f be 2f b9 81 3e 5c 31 11 3e d8 eb ea 3c
       -0.23393942 0.25336596 0.14178985 0.028676912
000350 61 e4 29 3e 4e a2 3a 3e 47 6b 37 bc 91 1a 2f 3e
       0.16591026 0.18225977 -0.0111950105 0.17099978
000360 03 33 17 be 78 c6 83 bd 1d d5 8b bd 10 a3 3c 3c
       -0.14765553 -0.06434339 -0.068277575 0.0115134865
000370 47 fc 90 3e 7c 68 dd bd 8f ee 8c 3d 1f 49 1f bd
       0.28317472 -0.108109444 0.06881439 -0.038888093
000380 65 7a 6e be 2b 2d 06 be a0 1f 1d bc 4c 7f d4 3d
       -0.23288877 -0.13103168 -0.0095900595 0.103758425
000390 ca 94 05 bd 83 0b 01 be 4d 12 a4 3e a0 7b 81 3d
       -0.0326126 -0.12602048 0.32045212 0.06322408
0003a0 38 f0 d7 bd a8 dc ed bd e2 51 77 3c b5 bd ea bd
       -0.10543865 -0.116143525 0.015095206 -0.11461965
0003b0 60 cc 9e 3e 0a 64 32 bd 18 f7 6d 3e ba 56 d6 bd
       0.310153 -0.043552436 0.2323879 -0.104657605
0003c0 28 1c 2e be 61 57 e0 bd 04 70 a9 3b 65 f0 2e be
       -0.17002928 -0.10954166 0.005170824 -0.1708389
0003d0 8b 6d fa bd 2e da 2a 3d 07 1c 30 be 00 2c 36 be
       -0.12227925 0.04171198 -0.17198192 -0.17790222
0003e0 da bb 07 bd ef 6f bf 3c 87 df 9f bd cb 67 19 be
       -0.033138134 0.023368804 -0.07806306 -0.14981
0003f0 cc 9d 9e 3d d2 f9 5b be a5 ac 1a 3e e3 7c 04 3d
       0.07744941 -0.21482018 0.15104921 0.032345664

fc1.bias f4 [128]
000000 25 5e e1 3d b8 51 6f bd d9 45 7d 3e c9 86 77 3d
       0.11004285 -0.058427542 0.24733676 0.060431276
000010 93 7d ac bd 44 b4 bf bd cd 39 21 be d0 37 0f 3e
       -0.08422389 -0.09360555 -0.15744705 0.13986135
000020 ab 1f a8 39 08 68 eb bd 18 13 02 be 7e 94 9d 3d
       0.00032067052 -0.11494452 -0.12702596 0.07694338
000030 36 87 51 3e bb 6c 06 be 18 e0 ff 3d c7 56 14 be
       0.20461735 -0.13127415 0.12493914 -0.14486228
000040 77 15 c1 3d 0d 6e 7a 3d e8 39 9d be 90 17 cb 3c
       0.09427922 0.06114011 -0.3070824 0.024791509
000050 90 cf d7 bd c6 b1 08 3e ad 02 02 be 8a 02 cb 3d
       -0.10537636 0.13349065 -0.12696333 0.09912594
000060 c2 2e d3 bd 56 fb 41 3c 78 f1 67 bb 2e a5 fe bd
       -0.10311653 0.011839708 -0.003539173 -0.12433849
000070 a2 7a 0c bd b2 6b ca 3d fe b1 99 3d b7 7e dc 3d
       -0.03429664 0.098838225 0.075046524 0.107663564
000080 cf 51 0e 3e a4 eb f7 bd 66 24 17 3e ac e7 de 3d
       0.13898395 -0.12105492 0.14759979 0.10884032
000090 68 13 29 be 61 d3 26 3e 10 3b b5 3c 24 b8 b4 3d
       -0.16511309 0.16291572 0.02212289 0.088241845
0000a0 3d a1 0b 3e 78 02 e5 3d 11 1f 61 3e 64 3b 4d 3d
       0.13635726 0.111821115 0.21984507 0.050105467
0000b0 d2 c3 e6 bc 54 01 3f 3d 83 ad 9c bd 11 8c b1 bd
       -0.028169546 0.046632126 -0.07650282 -0.08669294
0000c0 fc fa 06 be cb ae 0b bb ef ca f6 3b c0 c2 9d bb
       -0.1318168 -0.0021313902 0.007531516 -0.004814476
0000d0 d4 2e e6 3d 94 0f a7 3c 90 6f f0 3d b1 62 91 bd
       0.112394005 0.02039317 0.11740029 -0.07098902
0000e0 a5 79 97 bd 57 60 3b 3e a2 ea a0 3c d2 32 d0 3d
       -0.07396249 0.1829847 0.019643132 0.10165943
0000f0 13 1b f5 bc c6 a9 85 bd a0 e2 05 be 1a df 10 be
       -0.029920137 -0.06526522 -0.13074732 -0.14147606
000100 5b df dc bd 23 fa a0 bd 7e a2 61 3e 8b fd 31 3c
       -0.10784789 -0.0786021 0.22034642 0.010863672
000110 89 0b 5b 3d b6 49 67 be 42 fa 03 be 5e c2 8d 3e
       0.053477798 -0.22586712 -0.12888435 0.27687353
000120 13 28 c7 3c 0b 2a 4e 3e 31 16 44 3d ee 38 a8 3d
       0.024311101 0.20133226 0.047872726 0.082139835
000130 47 ad 46 3d 30 c3 06 bc c1 de a1 3e 70 ad 5b 3e
       0.048505094 -0.008225247 0.3161526 0.2145288
000140 f9 d0 ff 3c 1c c8 f9 3d f6 40 bb 3d 97 41 3e 3e
       0.031227576 0.12196371 0.0914325 0.18579708
000150 47 6a df bd 90 5e b0 bd bf 00 ef bc 99 f5 83 bc
       -0.10908943 -0.08611786 -0.02917516 -0.016108321
000160 13 d2 c5 bd f3 c5 95 bd 28 d9 6c bc e0 99 d1 3d
       -0.09659209 -0.073131464 -0.014456071 0.102344275
000170 70 29 39 3e 6a 24 3f be 93 12 26 3e 4f 27 49 3d
       0.18082213 -0.18666235 0.16218023 0.049109753
000180 59 20 5a 3e 2f a7 1b bd be bf e7 3d a4 bf b6 3d
       0.21301402 -0.038001236 0.11315869 0.08923271
000190 05 ee 10 3e 98 e5 c0 3d 6f 37 13 3d 9a ce 81 3d
       0.14153297 0.094187915 0.035941537 0.06338234
0001a0 c9 84 96 bd c3 3f 71 bd a3 d6 a5 3d 49 01 24 3e
       -0.073495455 -0.0588987 0.08097579 0.16016115
0001b0 f9 aa 83 ba 10 3e b9 3d 64 6f 17 3e ed 90 8b 3c
       -0.0010045461 0.090450406 0.14788586 0.01703688
0001c0 fd 84 04 3c bb 98 f9 3d 55 fa 39 3d 8b 64 92 bd
       0.0080883475 0.12187334 0.04540475 -0.07148083
0001d0 64 d9 ed bd e3 cb db 3d 4c 82 a4 3d d1 ed 4c 3e
       -0.116137296 0.10732248 0.08032665 0.20012595
0001e0 d9 6c 4e bd 98 28 13 be 1f 48 0a be b0 71 86 be
       -0.050396774 -0.14370954 -0.13504075 -0.26258612
0001f0 a4 07 dd ba 9d 31 d8 bc 1f d1 23 3d 00 4c 00 3e
       -0.0016863239 -0.026390845 0.039994355 0.12528992

fc2.weight f4 [128, 128]
000000 1c 48 6a 3d b8 fb eb 3d 4d 1d ce 3c c4 54 79 3c
       0.057197675 0.11522621 0.025160456 0.015217964
000010 5e 70 4c bd 88 08 b2 3d 39 47 0f 3d 04 47 95 bc
       -0.04991185 0.086930335 0.034980033 -0.01822234
000020 dd ec c7 3d 7e 45 0f bd eb 86 c9 3d 8e 6a 30 3c
       0.09761975 -0.034978382 0.09840187 0.010767592
000030 4b 04 c0 3a 6e f1 ef bc d7 d6 62 3d a8 86 79 bd
       0.0014649717 -0.029289927 0.05538067 -0.060919434
000040 75 bf 2d 3d 6d e5 93 bc 43 8c 2d bd 6c 26 bb 3d
       0.042418916 -0.018053735 -0.042370092 0.09138188
000050 d5 4c 86 bd 55 93 90 3c e9 18 f4 3c 2a df 96 bd
       -0.06557623 0.017648378 0.029797034 -0.07366784
000060 32 84 b1 3d f6 c6 06 3e ab 5d b7 3d 48 a3 4a 3d
       0.086677924 0.13161835 0.089534126 0.049472123
000070 b9 a2 83 3d 29 ca 10 be 07 3e a1 3d ce c1 0d be
       0.06427521 -0.14139618 0.07873159 -0.13843462
000080 c3 98 92 bd 74 2d d3 bc 04 7c 00 3c d5 b5 0f 3e
       -0.07158043 -0.02577851 0.007842068 0.14034207
000090 39 b8 b7 3c 4a 58 92 3d cf 98 c8 bd da 33 4b bc
       0.022426711 0.07145746 -0.09794771 -0.012402499
0000a0 5d ef 43 3d 29 4b 4f bd 67 33 48 bd 15 0d 80 3d
       0.047835696 -0.050608788 -0.048877146 0.06252495
0000b0 66 08 c0 3d 0a 87 a8 3d 73 3e 2a 3e 51 45 f5 bd
       0.09376602 0.08228882 0.16625385 -0.11976112
0000c0 69 8c 27 bc bf fe ac 3d a5 34 b4 3d 79 24 d0 bc
       -0.0102263475 0.084470265 0.08799104 -0.025408017
0000d0 f7 1f 9e 3c 34 f1 1d 3d f8 ef 8e 3d 53 57 f7 3d
       0.019302351 0.038560107 0.06979364 0.12077203
0000e0 f9 7f 00 be 3c 1f 06 bc 35 cf 4b 3d d3 d1 45 bd
       -0.12548818 -0.008186158 0.049758155 -0.048295807
0000f0 8e f6 ed bb a8 84 dd bc e6 6f 7a bd 39 4d 2d 3d
       -0.0072620576 -0.027040794 -0.06114187 0.042309973
000100 6c 3a 60 bb 9a 06 3c bd a4 cf ef b9 7e ca c4 bc
       -0.003421451 -0.045904733 -0.00045740337 -0.024022337
000110 ff 1d 8c bd f0 21 06 3e 50 6c 28 bb 0a 9b 41 3e
       -0.06841659 0.13098884 -0.0025699325 0.18906799
000120 80 74 6f bd 53 fb af 3d 7b 8c de 3d d6 bf d8 3d
       -0.058460712 0.08592858 0.10866638 0.10583465
000130 79 9d c4 bd 4e 39 24 3a 18 5a 56 bd 83 16 cc 3a
       -0.09600348 0.00062646426 -0.052332014 0.0015570674
000140 24 32 be bd 5b 90 3b bd 62 57 ed 3c 79 10 80 3d
       -0.09286907 -0.045791965 0.028972331 0.06253142
000150 06 8f 51 3d cf da 30 bd 55 e1 a5 3b c2 16 03 3d
       0.05116179 -0.043177422 0.005062262 0.032004125
000160 2d 6f 25 bc 54 38 ad bd 06 74 8d bd d8 aa 4b b9
       -0.010097307 -0.08458009 -0.06906895 -0.00019423233
000170 61 0c 90 3d fd 16 6b 3d 9e ce 8b 3c a0 c0 07 3d
       0.07033611 0.05739497 0.017066296 0.033142686
000180 9a ce cb 3d 09 c3 e5 bc ef c2 d6 bc 4d b4 90 bb
       0.099515155 -0.028047102 -0.026215998 -0.004416025
000190 1e c5 25 3d 91 84 12 3e 89 a2 a2 bd 56 85 9a 3d
       0.04047119 0.14308383 -0.07941157 0.07544963
0001a0 19 d4 04 bd 5d 5d ab 3b be cc 40 3d 4d cf ca 3c
       -0.032428835 0.0052296356 0.047070257 0.024757052
0001b0 56 50 05 3c 06 bf 02 bd e9 76 61 bc 7e 8a 0b 3c
       0.008136829 -0.031920455 -0.013761261 0.008516906
0001c0 7a c9 88 3c da 48 87 3c 90 37 ab bb 15 57 95 3d
       0.016697634 0.01651423 -0.0052251294 0.07292
0001d0 a7 69 71 3d 33 5f aa 3c 59 aa 1b bd e9 e8 4e 3d
       0.05893865 0.020797348 -0.038004253 0.05051509
0001e0 a7 72 8f ba 41 ac 6d 3d 0d 6a 25 3d f2 22 44 3e
       -0.0010944203 0.058025602 0.04038434 0.19153956
0001f0 66 b9 20 bd 6f 2b 48 bc 85 cd 5e bd a8 17 82 3d
       -0.03923931 -0.012217387 -0.054395217 0.06352168
000200 44 1b 98 bd 20 57 5f bd d8 40 a9 bd 1a 6c eb bc
       -0.074270755 -0.05452645 -0.08264321 -0.02873807
000210 f7 19 fa 3d 7d 86 bc bc c6 50 ea 38 37 e0 22 3c
       0.12211984 -0.023013348 0.00011173035 0.009941152
000220 9b 08 2d 3d 71 81 e2 bd 81 dc f8 bc 57 73 e1 bc
       0.042244535 -0.11059845 -0.030378582 -0.027520819
000230 0a 74 b1 b9 db 61 f7 bd d8 4c 02 be 3a a7 0b bc
       -0.00033846527 -0.12079211 -0.12724626 -0.008523757
000240 17 3a 64 3c 94 18 09 3d d0 11 f9 bd 5b 48 23 3d
       0.013929865 0.033470705 -0.121616006 0.039863925
000250 bc f8 90 3c ff 85 88 bd 2b 53 08 be 42 b8 86 3c
       0.01769673 -0.06666183 -0.13312976 0.016445283
000260 ac 52 86 38 a6 f2 a7 3d 43 e4 32 3d 8e f0 0e 3e
       6.405017e-05 0.082005784 0.04367472 0.13958952
000270 48 5f 98 3d b7 95 6f 3d 45 16 a4 bd 98 25 d7 3c
       0.074400485 0.05849239 -0.0801206 0.026263043
000280 79 6a 3c bd 79 26 4f bd a2 2b af 3c a3 fa 55 bd
       -0.045999978 -0.0505738 0.02138311 -0.05224098
000290 b5 46 f6 3d 91 3e 0f be 21 3d c1 3d 66 18 21 3e
       0.12025205 -0.13988711 0.094354875 0.15731964
0002a0 ce 31 04 3d 52 bc e7 3d c1 c0 04 be b5 0e 5c bd
       0.03227406 0.11315216 -0.12964155 -0.053724963
0002b0 6a fd c7 bc d5 e1 e1 3c 13 68 4e 3d dd da 1e be
       -0.02441283 0.027573505 0.05039222 -0.15513177
0002c0 a0 de 91 3b 44 6d 00 3d d3 43 80 3d 48 73 ad 3c
       0.004451588 0.031354204 0.062629364 0.021173134
0002d0 d7 3a d6 bd 98 7b af 3c 9f ad e1 bd 1a a2 29 be
       -0.104604416 0.021421239 -0.11019444 -0.16565743
0002e0 f9 82 23 3e f1 0a 3f 3d 1b c4 b9 3c 10 bf 15 3e
       0.15967931 0.046641294 0.022676518 0.14623666
0002f0 41 33 01 3d 5c f9 af 3d 13 9d 0d 3e 20 9d 98 3d
       0.03154302 0.085924834 0.1382945 0.07451844
000300 95 74 dd bc f5 76 98 3d 2a 70 b1 bb 31 75 22 3d
       -0.02703313 0.07444564 -0.0054149823 0.039662544
000310 50 1a 43 3d a7 33 a6 bc ef 05 77 bb 86 f9 90 be
       0.047632515 -0.020288302 -0.0037692746 -0.2831537
000320 90 89 8b bd 74 71 88 bd c2 0d 99 bd f9 a7 e0 bd
       -0.06813347 -0.066622645 -0.07473327 -0.10969538
000330 36 62 04 3d d9 c2 a5 bc 39 6f 65 bd 4c e1 6f bd
       0.032320224 -0.020234512 -0.056014273 -0.05856447
000340 e7 10 45 3d 79 84 65 bd 45 b5 86 bd 6d 75 2e be
       0.048111822 -0.05603454 -0.06577543 -0.17036982
000350 4d 58 d2 be 71 50 89 be a4 19 0a bd 42 a4 3b 3d
       -0.41082993 -0.26819184 -0.03371586 0.045810945
000360 0b 81 41 3e c6 8e fc 3c 30 5d 09 be 77 59 05 3c
       0.18896882 0.030829798 -0.13414454 0.008139006
000370 59 c7 a7 bc ab 1e a3 3d d3 2d 6c bc cd 43 dc 3d
       -0.020480799 0.07964834 -0.014415222 0.107551195
000380 c6 d3 b6 bb bd 12 72 be 0f a9 c5 ba eb 19 0b bd
       -0.0055794446 -0.2363996 -0.0015080291 -0.033960264
000390 7f 55 da bd 4d cf 75 be da 24 d9 bd 26 74 8e be
       -0.10660838 -0.2400486 -0.10602732 -0.2782299
0003a0 e1 24 e1 bc bb 73 37 3c 84 92 84 be b6 29 d2 ba
       -0.027483406 0.011197026 -0.25893033 -0.0016034159
0003b0 61 1b ed 3c 42 d1 4d bc d8 73 12 3e 18 1b 17 bd
       0.02894372 -0.012562098 0.14302003 -0.036891073
0003c0 ce b2 eb 3d 5f 21 bd 3c 13 20 86 3d 4e a5 28 bd
       0.11508714 0.023087202 0.065490864 -0.04117327
0003d0 5b 6d 2d be a6 92 90 bd f3 63 9d bd 7e d3 64 be
       -0.16936247 -0.07059221 -0.076850794 -0.22346303
0003e0 b1 81 05 bd 83 81 9f bd e6 2c 15 3e 67 c1 c1 be
       -0.032594386 -0.07788374 0.14567909 -0.37842867
0003f0 7c c1 2a 3c ff d6 21 be 5b ae 91 3c dc 62 00 bb
       0.010422107 -0.15804671 0.017783334 -0.0019590175

fc2.bias f4 [128]
000000 c6 74 97 3d a3 48 ed 3c 75 bf a8 bd 25 85 f1 bc
       0.0739532 0.0289653 -0.082396425 -0.029482434
000010 76 02 76 3c 6f 1f da bd 35 25 8f bd 2d c2 a7 3d
       0.015015235 -0.10650527 -0.069895186 0.08191333
000020 9b b6 04 3c 84 f5 64 3d b6 f5 74 bc 8a a9 b7 3c
       0.008100177 0.055898204 -0.01495116 0.02241971
000030 c6 5a a6 bc 10 5c d0 bb 75 6a 88 3d ed 54 a4 3b
       -0.020306956 -0.006358631 0.0666093 0.0050150068
000040 79 a4 01 3d 59 9c 98 3c 2f 01 30 bd 5c a9 4d bd
       0.031650994 0.01862924 -0.04296988 -0.05021034
000050 06 a9 82 3c d6 01 8a bd 62 43 cf bc 8f 24 b1 3d
       0.015949737 -0.067386314 -0.025300685 0.08649551
000060 99 ff be bc 4d f6 ef 3d 9b c5 a9 3c d2 07 88 bc
       -0.023315238 0.117169 0.020724108 -0.016605292
000070 24 7b 8f 3d 75 ea 03 3c bf 63 be 3d 86 ed 99 3c
       0.07005909 0.008051504 0.09296369 0.018790018
000080 51 b9 1d 3d 53 bd 56 3c 27 d1 85 3d 8b ae 6b 3d
       0.03850681 0.013106662 0.06534033 0.057539504
000090 ca 5b c8 3b d7 66 80 3d 6e 42 1a 3d 22 c2 11 bd
       0.0061144577 0.06269615 0.03766101 -0.03558553
0000a0 23 5f c4 3c ab c1 2d bd 65 28 fc bd 0d a1 90 bd
       0.023971146 -0.042421024 -0.12312392 -0.07061968
0000b0 8c b3 47 bd 4a ee 8e 3d 60 14 49 bd f2 74 04 3e
       -0.048755214 0.06979044 -0.049091697 0.12935236
0000c0 97 d1 ad 3d 6d 17 10 bd 5a e0 8d bc ba 49 29 3d
       0.08487242 -0.03517859 -0.017318893 0.041330077
0000d0 27 f6 ad 3d 0c 96 88 3d 32 b9 45 3d 3f b9 a8 3d
       0.084942155 0.06669244 0.04827232 0.08238458
0000e0 e6 65 c2 bd a2 dd 65 3d 93 f8 ea 3d 9f f8 a0 3d
       -0.09492092 0.05611957 0.11473193 0.07859921
0000f0 e0 db fd 3d 21 0e f0 3c 86 01 6c 3c a2 7f 62 bd
       0.123954535 0.029303612 0.01440466 -0.0552975
000100 e9 b9 2d 3d 5b 52 04 3d 2a 7d e4 3c 9c 4d ea 3d
       0.042413626 0.032305103 0.027891714 0.11440584
000110 cc 2c 89 bd 78 0d 90 bd f5 68 23 3d 19 b9 8f bc
       -0.066979975 -0.07033819 0.039895017 -0.017544316
000120 67 93 2a 3c 68 be 8e bd 95 d5 32 3c 6b 5e b7 3d
       0.01041112 -0.06969911 0.01091518 0.08953556
000130 bf e2 11 bc f5 55 96 3d e1 51 dd 3d c6 54 14 bc
       -0.008904158 0.07340614 0.10806633 -0.009053415
000140 35 08 c7 3b 66 b5 cc bd 74 5e 06 bd a0 64 44 3d
       0.0060739764 -0.099955365 -0.03280492 0.047947526
000150 4c 61 c0 3d d6 53 1a 3d 94 53 45 3d d4 3d 9e bc
       0.09393558 0.03767761 0.04817541 -0.019316591
000160 b0 7f de 3d 93 e8 c6 3b 8c a1 21 bd 7e a7 0d 3d
       0.10864198 0.0060702055 -0.039460704 0.03458356
000170 8f 1f 49 3d f7 8a b1 bb 1a db 86 3a 2b a5 11 bd
       0.049102362 -0.005418177 0.0010288686 -0.035557907
000180 d2 c2 d1 3b 04 26 99 3d 46 9c b4 3c c1 cb 60 3c
       0.006401398 0.07477954 0.022047173 0.013720454
000190 5d d6 84 3b fa c3 e6 3d 75 43 17 3d 47 78 9f bd
       0.0040538744 0.11267848 0.036929566 -0.07786613
0001a0 52 76 33 bd 23 11 9c bd 11 82 a2 bd c8 d9 e8 3b
       -0.04381401 -0.07620456 -0.079349644 0.0071060397
0001b0 94 ca 3d 3c 8f d7 de 3d 60 1b 94 3d b6 be db bd
       0.011583943 0.10880958 0.07231784 -0.107297346
0001c0 90 66 a6 bd f2 91 6b bc dc a0 91 bc 95 1b c9 bd
       -0.08125031 -0.014378058 -0.017776899 -0.09819714
0001d0 24 34 8f 3d 88 5a 2e bd f4 fe 98 bc 8d a6 22 3c
       0.06992367 -0.042566806 -0.018676259 0.009927404
0001e0 a3 43 eb 3c 02 32 15 3d 47 af 4c 3d a6 25 bb 3c
       0.028718775 0.036424644 0.049971845 0.0228451
0001f0 13 ac a9 3d 5b 8e 88 bd 5b 9e be 3d 4a bd ce bd
       0.08284774 -0.06667777 0.09307548 -0.10094698

fc3.weight f4 [4, 128]
000000 f4 f5 d4 3d 0d 19 70 be 2a 59 29 3e c7 36 32 3d
       0.10398474 -0.23447056 0.1653792 0.04350927
000010 8f 30 a9 bc 98 4b b3 3e 42 98 0a 3f 25 1f c6 be
       -0.020653037 0.3501861 0.54138577 -0.38695636
000020 e1 ac e9 bd ea 9a c1 bd 6d 42 ac bd 1c f6 e6 bb
       -0.11409927 -0.09453376 -0.08411107 -0.0070483815
000030 67 1d 3f 3f d9 81 82 be eb 35 24 bb af 1a bd bb
       0.7465424 -0.2548969 -0.0025056552 -0.005771003
000040 8a 84 d7 3e b1 d9 ac bd 61 53 8a 3c 77 c1 35 3e
       0.42093307 -0.08439959 0.016885461 0.17749582
000050 af 5a d8 bd ef 76 83 be a7 73 c1 bd 9b 80 32 bd
       -0.105641715 -0.25676677 -0.09445887 -0.04357968
000060 1d 1b 9c be d2 2f a3 bc 9b 47 18 be 20 0c de be
       -0.30489436 -0.019920263 -0.14871065 -0.43368626
000070 8d 89 84 be c6 41 36 3e fd ff 9f 3d 75 e4 9a 3e
       -0.25886193 0.17798528 0.07812498 0.30252424
000080 d6 d4 98 3e c0 1e 28 be 27 4c 8c be 19 2d e2 bd
       0.2984988 -0.1641798 -0.2740185 -0.11043758
000090 5b 30 cb 3c da 58 cb bc 10 75 d6 bd 63 1e 14 3e
       0.024803331 -0.024822641 -0.10471547 0.14464717
0000a0 94 18 a9 3d 6e f1 d0 3d 33 2f e8 3c 99 a6 b9 3e
       0.08256641 0.10202299 0.028342819 0.36259916
0000b0 27 a4 71 3d 98 3b fc bb 91 74 d8 bc 24 c4 db 3a
       0.05899444 -0.007697534 -0.02642277 0.0016766828
0000c0 26 28 69 be 24 14 ad bc ba 84 21 be 86 92 bf bd
       -0.22769222 -0.021127768 -0.15773287 -0.09354119
0000d0 0d d6 87 be 5c c2 94 bc 13 9e 79 be a4 dc 24 3e
       -0.26530495 -0.018159084 -0.24376707 0.16099793
0000e0 bd 9e 8a 3e e1 62 6e be 19 9b e8 ba 7c ec f4 bc
       0.27074233 -0.23279907 -0.0017746418 -0.02989792
0000f0 36 95 7f 3e 49 3b c2 3e d5 b8 88 be f2 b3 f2 3d
       0.24959263 0.37935856 -0.26703516 0.11850728
000100 9a 0b be 3d 50 db 12 bf ed 3e 59 3e c7 ff f1 bd
       0.092795566 -0.57365894 0.2121541 -0.11816364
000110 00 bc 92 3d dd f5 8a 3d 8a 51 35 be eb da b7 be
       0.071647644 0.06785176 -0.17706886 -0.3590921
000120 90 4a 8e 3d a9 1a ec bc 5b 6c a8 bd 36 17 25 be
       0.069478154 -0.028821306 -0.08223792 -0.16122136
000130 3b f1 9c be 2c 95 9b 3e b1 27 e8 bd 76 48 86 3d
       -0.30652794 0.30387247 -0.113356955 0.065567896
000140 8d f1 d0 bd 77 89 99 3b b0 d3 3d 3e d0 4b c7 3e
       -0.10202322 0.0046855765 0.18537784 0.38925028
000150 66 82 55 be 25 68 e8 bd 0f 7d 1b 3f b8 3e 5c be
       -0.20850524 -0.11347989 0.607377 -0.215083
000160 17 d7 e2 bd c3 56 72 3c 98 98 0c 3e a5 9c 5a 3d
       -0.110761814 0.014791193 0.13730085 0.053372044
000170 d4 d8 48 3e a9 21 0f be bb b4 20 be c4 8f 4c 3d
       0.19613963 -0.13977684 -0.15693943 0.049941793
000180 c1 e7 2c be c2 1b 45 3d e6 e9 09 be 6d 6a d3 bd
       -0.16885282 0.048122175 -0.13468131 -0.103230335
000190 df a1 b6 3b a6 53 9d be 88 23 db be d7 b4 db 3e
       0.0055734958 -0.3072788 -0.42800546 0.42911407
0001a0 98 5e 3b bb 6c 73 14 3e 4c 8d 40 3d 03 1d 99 3c
       -0.0028590318 0.14497155 0.04700975 0.018690592
0001b0 51 ae 07 3e 40 cb 87 3e b3 95 3a be 82 13 83 3e
       0.1325009 0.26522255 -0.18221168 0.2560082
0001c0 fb b5 0e bf 7a 3d 22 3e 4b da c2 3e c6 2c e3 3e
       -0.5574643 0.15843764 0.3805717 0.44370097
0001d0 ed 3c 21 3f 68 74 f0 be 92 9c 2b bf c7 66 89 be
       0.6298359 -0.4696381 -0.6703578 -0.26836225
0001e0 80 73 25 3d 7a 59 fa 3d b4 9c b5 3a 6a 8d db 3d
       0.040393353 0.122240975 0.0013855905 0.10720332
0001f0 66 45 91 be ec be 5a be a4 1f 39 3e 91 4a c4 3d
       -0.2837326 -0.21361893 0.18078476 0.09584535
000200 34 04 7f bc 2d 50 32 bd b5 d1 4b be 2e 95 37 3d
       -0.015564967 -0.043533493 -0.19904216 0.044820003
000210 5e 4c 77 3f 42 ee 44 3d bc ee ef 3e f9 df 15 3d
       0.966009 0.048078783 0.46861827 0.03659055
000220 c4 11 65 3e b7 25 25 3e da 48 47 bc dd 17 07 bd
       0.22370058 0.16127668 -0.012163365 -0.032981742
000230 07 cc c9 be e2 39 22 3d 1e 8f eb be 89 07 a2 bd
       -0.39413473 0.039605983 -0.46007627 -0.079115935
000240 95 e9 30 3f c4 76 f8 3c b9 e6 51 bd 33 eb ad bd
       0.6910642 0.03033007 -0.051245425 -0.08492126
000250 0d be e9 3e 32 a1 b2 3e df f4 9b bd b9 34 20 3d
       0.4565281 0.34888607 -0.07615065 0.03911278
000260 d2 23 5b 3e 56 c6 94 bd 23 ba 00 3f f0 35 f2 3d
       0.21400383 -0.07264392 0.5028402 0.11826694
000270 8b a0 8b 3d 38 7c b4 38 bd 6f 67 bb 55 d2 aa 3d
       0.068177305 8.6062064e-05 -0.0035314404 0.08340899
000280 8a db 31 3e 4c 36 b2 3e 0a dc 64 be 2e 96 79 be
       0.17368904 0.3480705 -0.22349563 -0.24373695
000290 a5 04 99 3e ba b7 c0 bd 64 95 68 bd cc 26 03 3f
       0.29886356 -0.09410043 -0.056783095 0.51231074
0002a0 17 96 c2 ba 02 a7 c2 3a 05 12 fa bc 4a b4 f3 3e
       -0.0014845756 0.0014850798 -0.03052617 0.47598487
0002b0 3f 0a d6 3d 2b 4e c5 bd cc 22 97 3e ae e4 5e bd
       0.10451173 -0.0963405 0.29518735 -0.054417305
0002c0 4d f7 cc 3e 88 b6 c9 bd 27 a5 9a 3e 73 08 11 3e
       0.40032426 -0.09849268 0.30204126 0.1416338
0002d0 52 8b 21 be 3d f4 d8 3d e0 e8 9d bb de 41 0a bd
       -0.15775803 0.1059346 -0.0048190206 -0.033754222
0002e0 b9 eb 06 bd 42 50 22 3c 2b 83 a9 bd 0f 48 84 be
       -0.032939646 0.00990683 -0.082769714 -0.25836226
0002f0 21 1c 43 3c 45 9e 21 3f 11 44 a6 be 95 9c d1 bd
       0.011908562 0.63132125 -0.32473806 -0.10234944
000300 87 81 d5 bd 69 f7 0c 3f a5 9e b2 3e ed 47 ed bd
       -0.10425096 0.5506502 0.3488666 -0.115859844
000310 b8 41 01 be df dd 95 39 de 5e da be c9 14 a3 bd
       -0.12622726 0.00028584801 -0.42650503 -0.07962949
000320 93 ac 7f bd 9e ac 81 3e 8e ad 89 bd 10 26 37 be
       -0.06242044 0.2532701 -0.06722556 -0.17885613
000330 03 ae 06 3f 77 79 b0 bd 18 f7 51 be 6c 49 c2 3e
       0.5260927 -0.086169176 -0.20504415 0.3794664
000340 0c 02 8c bc d0 96 8c 3e 30 04 f1 be 23 3d 59 3e
       -0.01709082 0.2745881 -0.47073507 0.21214728
000350 2d 9d 63 be 45 8f d4 3d 86 46 84 be f7 8e 89 be
       -0.22227927 0.10378889 -0.25835055 -0.26866886
000360 e3 7f a5 3d 2c 06 e1 bc da 81 66 3e 8f a4 c6 bc
       0.08081033 -0.027468763 0.22510472 -0.02424839
000370 27 25 86 3e d8 cb e9 bd c0 ce dd 3d 48 3f a8 3c
       0.2620022 -0.11415833 0.1083045 0.020537987
000380 9e 39 05 3d 25 bb 06 3d ad 3f e5 3d ff 10 3e 3d
       0.03252565 0.03289332 0.11193786 0.046402927
000390 fb e3 e8 3d 4c b7 62 3e 94 d5 ac 3c 2f ca e4 bd
       0.11371609 0.22140235 0.021097936 -0.11171376
0003a0 84 7b 34 bd fd f4 74 3e 26 79 1a 3e 15 81 0f 3c
       -0.044063106 0.2392158 0.15085277 0.008758803
0003b0 d1 e2 44 3d 4d bd 75 bd 49 51 41 bf 23 7c c8 3e
       0.04806787 -0.059994984 -0.75514656 0.3915721
0003c0 f7 d9 d3 be eb c9 2e be 84 bc 0f 3f 12 41 de 3e
       -0.4137723 -0.17069213 0.56147027 0.4340902
0003d0 ef 24 fb bd 3e 5d b6 be 50 8b 05 bf f0 8f 75 3c
       -0.12262904 -0.35618013 -0.521657 0.014987931
0003e0 34 54 6e bd cc e0 d2 bc 40 f3 56 3e f4 2e 0f be
       -0.05818577 -0.025741957 0.2099123 -0.13982755
0003f0 cf a8 45 3e 16 62 63 3d 56 d1 2b 3e 91 39 4f be
       0.19302677 0.055513464 0.16779074 -0.20236804

fc3.bias f4 [4]
000000 1f a9 20 3d 20 74 89 bb 91 2e 6a 3a 5f 66 0e 3d
       0.039223786 -0.0041947514 0.00089333305 0.034765597
